Assets/NN Models/MyBehavior 2.onnx (onnx, 92507 bytes, 11 tensors)

network_body.observation_encoder.processors.0.normalizer.running_mean f4 [28]
000000 f3 5d 0b 3e b5 f7 0b 3f 9e 41 a2 3e 1b 4a 33 3f
       0.13610058 0.54674846 0.31690687 0.7003495
000010 01 2e 02 3e d5 60 0b 3f 9b 0c a8 3e 39 61 36 3f
       0.12712862 0.5444463 0.32822117 0.712421
000020 0f 76 f7 3d d5 a2 11 3f 1f be 9e 3e 90 5f 34 3f
       0.12083065 0.56889087 0.31004426 0.70458317
000030 2c 39 d3 3d d4 4f 04 3f 93 6f c2 3e 8e ed 3b 3f
       0.10313639 0.5168431 0.3797575 0.73409355
000040 56 64 be 3d d6 31 0f 3f 01 e2 b1 3e d1 c3 38 3f
       0.09296481 0.5593542 0.3474274 0.7217379
000050 92 93 a2 3d a9 7b f8 3e ec c5 de 3e 9f c2 43 3f
       0.07938303 0.48531845 0.43510377 0.76468843
000060 14 26 89 3d 07 0c 08 3f be 7d cd 3e 84 46 40 3f
       0.06696716 0.5314335 0.40134996 0.751076

network_body.observation_encoder.processors.1.normalizer.running_mean f4 [15]
000000 b5 3d 0e 3f 65 bf 8b 35 c2 9c 02 bf f1 59 f2 be
       0.5556291 1.041201e-06 -0.51020443 -0.47334245
000010 00 00 00 00 6b c0 17 bf b2 73 0d bd d7 0d 62 b3
       0.0 -0.5927798 -0.034534164 -5.2632313e-08
000020 ac c7 52 bd 94 18 8f 41 19 4b aa 42 a2 5c 0e 41
       -0.051459953 17.887001 85.146675 8.897615
000030 bc d5 d6 bb 00 00 00 00 e7 aa 42 3d
       -0.006556241 0.0 0.047526266

network_body._body_endoder.seq_layers.0.weight f4 [128, 43]
000000 f4 92 65 bd 83 96 03 3d cf e5 bc 3c db 5d ee 3d
       -0.05604835 0.03212596 0.0230588 0.11638995
000010 f0 41 89 bc 05 d7 9d bb d5 02 ba bd 9f 7f 66 bd
       -0.016755074 -0.004816892 -0.090825714 -0.056274053
000020 75 82 76 3c 5a 14 b3 3d 2f 44 0d bd 32 90 68 3d
       0.015045752 0.08744116 -0.034488853 0.05677814
000030 41 9c 44 3d 71 ac 88 3d fe 19 aa 3d 7d 4a 81 3d
       0.048000578 0.066735156 0.08305739 0.06313036
000040 fa e6 a2 3c f2 54 ac 3d 34 60 48 3d 51 09 dc bc
       0.019885529 0.084146395 0.04891987 -0.026859911
000050 47 6f 3d 3d 3d 96 0d bd b2 9c 38 be 5a 62 50 be
       0.0462487 -0.034567107 -0.18028525 -0.20350018
000060 9a bd f8 3c 26 4e 9e 3d b9 44 31 be ce 84 f1 3d
       0.030363847 0.077297494 -0.17311372 0.117929086
000070 64 22 25 3d a5 b6 32 be 6d 97 56 3e a5 0a 09 3d
       0.040316 -0.17452486 0.20956202 0.033457417
000080 0c b1 4b bd 64 5e e5 3d 61 aa bb bc 61 de 1a 3e
       -0.049729392 0.11199644 -0.022908391 0.15123893
000090 eb cc 1c be e1 2b 8a bc 27 ef 05 3e 84 68 84 bc
       -0.15312545 -0.016866626 0.1307951 -0.016163118
0000a0 b6 f9 00 3d 8c 52 c9 ba 7e bc 82 3e d8 01 3e 3c
       0.031488143 -0.0015359684 0.25534433 0.011597119
0000b0 73 53 cf 3d 53 f6 b9 3d af f6 08 3e 84 73 98 bc
       0.101233386 0.09080186 0.13375352 -0.01860977
0000c0 89 5c 96 3d 66 24 58 bd fb d0 44 3d fc c1 eb bd
       0.073418684 -0.052769087 0.04805086 -0.11511609
0000d0 35 6b 16 3e 7a e2 9b be fc 6c 89 bd 54 20 06 3e
       0.14689334 -0.30446225 -0.0671024 0.1309827
0000e0 da 73 2a 3c 37 22 8b 3d b1 35 d1 3d 0a 8b be bd
       0.010403598 0.06793635 0.10215319 -0.09303863
0000f0 fa 03 f7 bd 6f 5b ba bd ec 70 10 be 43 3a 7b 3e
       -0.12061305 -0.09099471 -0.14105576 0.24533944
000100 a7 d7 47 bd 85 93 1b be 95 23 2f 3d 6d f6 52 3e
       -0.048789646 -0.15192993 0.042758543 0.20601816
000110 8a 27 c4 3d 8e 86 cc be 95 aa 4c 3e 9c 8d 15 be
       0.09577854 -0.39946407 0.19986947 -0.14604801
000120 41 ed ad 3d c1 10 89 bd 07 54 32 be 17 a7 72 be
       0.08492518 -0.06692649 -0.17414866 -0.23696552
000130 00 50 4a 3e e3 e4 0e be c5 53 71 3d c7 0e 02 be
       0.1975708 -0.13954501 0.05891778 -0.1270095
000140 58 4b 1c 3e e9 58 10 be 9f 17 f2 3c 6e bf 68 3e
       0.15263116 -0.14096417 0.029552279 0.22729275
000150 23 0b 05 be e4 cb 91 be f0 16 3f be c8 dd 13 3e
       -0.1299253 -0.2847587 -0.18661094 0.14440072
000160 c7 7f e2 3d a2 ce 2a 3e a8 4f 7d 3d e4 c1 44 be
       0.11059528 0.16680387 0.061843544 -0.19214588
000170 6a 7f 0f 3c a3 42 0c 3e 92 ea 06 3d 9c b6 07 bd
       0.008758405 0.13697295 0.032938547 -0.033133134
000180 e8 1e 0a be 17 6c d5 3d 89 b7 14 be 92 f1 63 3e
       -0.13488352 0.10421007 -0.14523138 0.2226012
000190 d2 62 6e be 39 6c ad 3d ef 2c c4 3d 1b e7 ad bd
       -0.23279884 0.084679075 0.09578883 -0.084913455
0001a0 f6 e0 d9 bd 8b fc 11 bf ca b1 7a be f8 9c 85 be
       -0.10638611 -0.57025975 -0.24481884 -0.2609632
0001b0 17 a0 e6 3d ca 91 a7 be 85 6e 0b be 73 d1 6c 3d
       0.112610035 -0.32728416 -0.13616379 0.057816934
0001c0 b2 d0 15 be 3d a3 00 be a0 be 46 3e e2 70 9b be
       -0.14630392 -0.1256227 0.19408655 -0.3035956
0001d0 21 0c 39 bc b0 cd 2b 3d 5a ff 25 3d 82 31 11 be
       -0.011294396 0.041944206 0.040526725 -0.14179042
0001e0 fc ea ba 3e 37 bd 92 3d 66 b9 6a be e0 e3 9a 3d
       0.36507404 0.07164996 -0.22922286 0.07562995
0001f0 98 b9 6b 3d 30 33 86 3b f8 ee 0a 3d 35 1b 16 3e
       0.057550043 0.0040954575 0.033919305 0.14658816
000200 71 e7 53 be 33 7c 31 3e 17 f1 1d be 2c ee 5d be
       -0.20693757 0.17332534 -0.15424 -0.21672887
000210 52 9d 72 3d 26 30 80 bd 65 b6 7c 3d dc c6 e5 bd
       0.059232064 -0.062591836 0.061697382 -0.1121957
000220 c1 2f e5 bc bc 80 1c 3c f5 40 ba bd 6f 8d 31 3e
       -0.027976872 0.009552177 -0.09094421 0.17339109
000230 7d 64 8c bc c7 11 53 be 92 dc b8 bd 0b c1 1a 3e
       -0.01713776 -0.2061225 -0.090264454 0.15112703
000240 ab 19 84 3e e0 0f 21 be 79 50 97 be 3c ab 17 be
       0.25800833 -0.15728712 -0.29553583 -0.14811414
000250 47 a6 5d 3d cb c7 fd bd 10 08 32 3e 16 ab f9 3c
       0.054113653 -0.12391623 0.17385888 0.030477088
000260 0f b7 0b be 44 22 3e 3d a0 c2 d5 bd 15 e4 d4 bd
       -0.1364405 0.046419397 -0.104375124 -0.10395066
000270 b5 7b e1 3d fc 8a cd bd 6e 3a 3c bd 91 31 f5 3b
       0.11009923 -0.10036275 -0.04595416 0.0074827154
000280 38 32 b8 3d 54 fe 4c bd d5 76 81 be 51 af df bd
       0.089939535 -0.050047234 -0.25285974 -0.10922111
000290 f4 87 88 be cd 8b 2f be 7c 68 09 be 85 7b 4d be
       -0.26666224 -0.17143174 -0.13418764 -0.2006665
0002a0 38 1f 6e 3d fa 7e 2f bd 73 e9 87 be d8 1c 0c 3c
       0.05813524 -0.042845704 -0.26545295 0.008551799
0002b0 01 99 ef bc f4 d4 eb bc 63 75 2f be eb 23 b8 3e
       -0.029247763 -0.028788067 -0.17134623 0.35964903
0002c0 41 8d 8e 3e 09 94 bc 3d ef 70 d3 3b 59 57 08 be
       0.27842143 0.09207923 0.0064526717 -0.1331457
0002d0 39 b5 c3 3c fd e8 07 3e b2 06 56 be 6a c2 05 bd
       0.023890125 0.13272472 -0.20900992 -0.03265611
0002e0 bc 7a e2 bd 6e b0 ba bd cd 9d 84 bd 02 6e 61 3d
       -0.11058566 -0.091156825 -0.064754106 0.055036552
0002f0 a9 f3 02 3d 08 3a 8f bd 68 a1 8e 3e 0e f6 de bc
       0.031970654 -0.069934905 0.27857518 -0.027216937
000300 38 cb 06 3d f9 1d 9c bd 14 fa 69 3e 95 54 0f 3d
       0.03290865 -0.07622904 0.22849303 0.034992773
000310 52 81 60 3d ee 74 fd 3d c3 a3 91 3d df 68 bb bd
       0.05481083 0.12375818 0.07111313 -0.09150862
000320 8a 66 a1 3e 3d 25 8b 3d 61 07 10 3c 67 15 1a 3e
       0.31523544 0.06794212 0.008790822 0.15047227
000330 e9 a4 1e 3d 10 40 cd 3d e8 16 a0 bd 29 a4 84 bd
       0.03873149 0.100219846 -0.07816869 -0.064766236
000340 11 39 2a 3e 3a 4a 3a be 1a 6f 89 bd 8f 74 5f 3e
       0.16623332 -0.18192378 -0.06710644 0.21821807
000350 f2 76 e1 3e bc b8 8f 3c 17 c8 68 be 33 d7 9b 3d
       0.4403606 0.017544143 -0.22732578 0.07609405
000360 7f 2a 92 3d 2e 53 a2 3e 5b 9f cf 3d 18 28 a9 3c
       0.07137012 0.31704086 0.101378165 0.020649001
000370 38 46 c0 bd 40 6d 8a 3e 1d e6 e3 bc 91 7e 3d 3d
       -0.09388393 0.27036476 -0.027819688 0.04626328
000380 48 db ff bd 39 f3 7d be 3d d1 1b 3e 2f 5d 2a be
       -0.124929965 -0.24799813 0.15216537 -0.16637109
000390 9d 0e 46 be dd ab 69 bd 7e d2 ca bd 3d a8 12 3e
       -0.19341512 -0.057048667 -0.099034294 0.1432199
0003a0 51 68 78 3d 0a ea 71 be bf c6 35 bd 52 8a 3d 3e
       0.06064636 -0.23624435 -0.044378992 0.18509796
0003b0 46 f8 19 3e 1d 05 cb bd 0d 04 02 3f 50 89 e5 bc
       0.15036115 -0.09913085 0.5078743 -0.028019577
0003c0 c2 20 5d 3e e7 55 5e 3d 3b 62 71 bc 1a b7 5b 3e
       0.21594527 0.05428114 -0.014732893 0.21456566
0003d0 73 1a b6 bc a8 ed 15 be ef 33 95 be 14 41 01 be
       -0.022229409 -0.1464144 -0.29141185 -0.12622482
0003e0 52 57 ee bd b5 03 df bd 69 f8 0f 3d 1b f6 1b be
       -0.11637749 -0.10889379 0.03514901 -0.152306
0003f0 f5 ab 40 3e 08 9e d5 3d 36 4d e9 3d 51 f4 c6 3e
       0.18815596 0.10430533 0.1139168 0.38858274

network_body._body_endoder.seq_layers.0.bias f4 [128]
000000 53 00 43 3c 87 fd 8f 3c 93 e9 6b 3b 53 c4 88 bb
       0.011901933 0.017576946 0.0035997375 -0.0041737943
000010 7d 2b cf 3c 09 bb 42 3d 92 c1 48 3c 15 ba 3e 3d
       0.025289292 0.047541652 0.012253182 0.04656418
000020 21 c9 02 3d c7 6f d1 3c a7 01 8a 3c b6 5b 0d 3d
       0.031930093 0.025565995 0.016846491 0.03451129
000030 7f cd d1 3c 1b ca 75 3d d7 18 1a 3d c9 9d 11 3d
       0.025610683 0.060007196 0.037621345 0.035550866
000040 b0 68 f9 3b bb 46 a7 3a 5c ab 0c 3d 14 cd 01 3d
       0.0076113567 0.0012762168 0.03434311 0.03168972
000050 6c d4 03 3d 75 a4 00 3d 47 43 50 3d c6 7a 81 3c
       0.032185003 0.03140684 0.05084541 0.015805613
000060 2b 8e e5 3c 50 21 0e 3d 6a 61 ca 3c b3 07 2b 3c
       0.028021893 0.034699738 0.024704654 0.010438847
000070 7f 30 69 3d 77 15 2e 3d 14 5b d6 3c fe 1a 5d 3d
       0.056931015 0.04250094 0.026166476 0.05398082
000080 ea 52 20 bb 5c a9 d7 3b 4f 02 c3 bb b6 ef 7c 3c
       -0.0024463483 0.0065814685 -0.005951203 0.015438011
000090 68 cb 36 3d 95 f0 26 3d 66 a5 95 3c 90 0d 7d bb
       0.044627577 0.04075678 0.018267345 -0.003861282
0000a0 b2 2d e5 3b 00 11 5e bc 20 68 5e 3d 59 2d 95 3c
       0.0069939727 -0.013553858 0.05429852 0.0182101
0000b0 0a 52 36 3d a6 38 0d 3c 87 ed 20 3d cc 7d 31 3c
       0.044511832 0.008619463 0.039289024 0.010833215
0000c0 2a 11 32 3d 23 85 f8 3c db a0 c2 3c fa a4 e0 3c
       0.0434734 0.030336922 0.023758342 0.027422417
0000d0 b4 76 ab 3b b3 89 07 bd 82 3f 59 3c 3d ce 1f 3d
       0.0052326564 -0.033090305 0.01325977 0.039015044
0000e0 67 82 37 3d 7f d8 4a 3c 6e bc 8e 3d 6b d9 1c 3d
       0.044802096 0.012380718 0.06969534 0.038293283
0000f0 64 54 26 bd 9c f6 88 3c 8f bf f5 bb d5 bc ca 3b
       -0.040607825 0.016719155 -0.007499642 0.0061870613
000100 a2 85 d3 3a 69 d2 83 3d 46 00 c1 3b 0b ca c8 bc
       0.0016137848 0.06436617 0.005889925 -0.024510404
000110 ea 57 f0 3c 5c a6 26 3d 77 93 94 3c f7 89 dd 3c
       0.029338796 0.040685996 0.018136723 0.027043326
000120 53 cd 48 3d 8f 1a 02 3d 28 16 29 3d fd 15 e9 ba
       0.049023937 0.03176361 0.041280895 -0.0017783042
000130 00 76 69 3d e8 c2 a1 3c 6f 79 13 3d 26 00 c5 bc
       0.0569973 0.019746259 0.03600448 -0.024047922
000140 9e ff df 3b e5 c0 31 3d c1 98 37 3d 8a 79 13 3d
       0.006835892 0.04339685 0.04482341 0.03600458
000150 33 c3 be 3c 92 45 bc 3c 3a 9d e9 3c fe 13 cb 3b
       0.023286438 0.022982392 0.028517354 0.0061974516
000160 89 f2 50 3d f7 72 38 3b 14 8e b0 3c 59 0e c4 3b
       0.05101255 0.0028144696 0.021552123 0.0059831557
000170 34 2f e4 3c 2d a1 84 bc 27 72 13 3d 0d 07 21 3d
       0.02785454 -0.016190136 0.035997536 0.039313365
000180 56 2e 89 3c 27 45 4a 3d 16 e6 1c 3d 99 3f f5 3b
       0.016745728 0.049382355 0.038305365 0.007484388
000190 9e 4b e0 3c 50 c8 c6 3c be c3 c1 3a 0b 45 fa 3c
       0.027379807 0.024265438 0.0014783067 0.0305505
0001a0 ab 59 1f 3d 5a d7 d8 3c d1 e2 ac 3c 1f 96 11 3c
       0.038903873 0.026469875 0.021104248 0.008885889
0001b0 6d 6a 96 3b 1c 90 1c 3d fd 0e ee 3c 6a f8 1c 3d
       0.0045903237 0.03822337 0.029059881 0.038322844
0001c0 68 b7 93 3c d1 1c fa 3c 17 3e c0 3c f3 5f a4 3b
       0.01803179 0.030531319 0.023467107 0.005016321
0001d0 94 b7 00 3d 0a cb fe 3c 0d 9e 5e 3d be 60 e7 b7
       0.031425074 0.031102676 0.054349948 -2.7582395e-05
0001e0 37 2b 7d 3c 5d 97 ac 3c 29 53 e0 3c 3c 9e 03 bd
       0.015452198 0.02106827 0.027383404 -0.032133326
0001f0 5d 82 a3 3b 6d 0a d9 3c 65 29 06 3d 98 a1 59 3d
       0.0049899057 0.02649423 0.03275432 0.053132623

network_body._body_endoder.seq_layers.2.weight f4 [128, 128]
000000 6c bd 86 bd 08 f4 ef 3a cb ca e2 3d d8 ca 9a 3d
       -0.06579098 0.001830698 0.11073836 0.075582206
000010 da 18 31 be 62 21 b3 3d 15 e2 ea 3c f4 92 13 bd
       -0.17294636 0.08746602 0.028672257 -0.036028817
000020 40 6c 9a bc 8a 4a cb bd a5 3d 40 3d 70 36 35 be
       -0.018850446 -0.099263266 0.04693379 -0.17696548
000030 58 9f a0 3d 4a 45 aa bd b9 c3 e9 3c 4d 8e 2f 3c
       0.078428924 -0.08313997 0.02853571 0.0107150795
000040 c6 09 8c 3b 3f e0 01 bd 34 77 b5 3d 5a 38 0c be
       0.004273626 -0.031708 0.08860627 -0.13693371
000050 15 6d b4 bd 1d 5e c0 3d 7e 47 07 3e 03 ab d9 3d
       -0.08809868 0.09392951 0.13210866 0.10628321
000060 80 17 00 3e d7 02 9d bc 04 22 12 be 89 99 2a bc
       0.12508965 -0.019166393 -0.14270788 -0.010412582
000070 41 bd 20 bd 55 5a 99 3d 4a 25 1e be 5b 95 20 be
       -0.039242987 0.074879326 -0.15443912 -0.15681975
000080 12 07 91 3d 37 b7 bc 3c 16 70 f0 bc 4e a3 12 be
       0.07081427 0.023036582 -0.029350322 -0.14320108
000090 dc 26 54 3d 57 84 a0 bd 1f 7f b3 3c 13 19 ee 3d
       0.05179487 -0.07837742 0.021911202 0.11625876
0000a0 fe 2c 34 3d 2a 91 fe 3d b6 81 32 bd 1f f2 00 3e
       0.04398822 0.124300316 -0.043580733 0.12592362
0000b0 58 32 e1 3d a5 ec cb 3d b1 02 3b 3d 0c 40 19 be
       0.109959304 0.09957246 0.045656864 -0.14965838
0000c0 96 48 ae bc f8 5b 84 3d 0c af 9b bc 2c 65 11 be
       -0.021274846 0.06462854 -0.019004367 -0.1419875
0000d0 4d ef 22 3e 4a 00 d1 3d 69 68 ff bc 66 ec 6e 3d
       0.15911599 0.10205133 -0.031177716 0.058330916
0000e0 de 0f e4 bc ca f9 92 3d 1c c3 47 3d f8 ab 2f 3e
       -0.027839597 0.0717655 0.048770055 0.17155445
0000f0 f0 4c 35 3b 20 3a 25 bd 50 ce 5c bb cc 64 ec 3c
       0.0027664267 -0.040338635 -0.0033692308 0.028856657
000100 b3 20 d0 bd a1 ec 9a bd 68 ea 0c 3d dc d8 a6 bc
       -0.10162487 -0.07564665 0.034403235 -0.020367078
000110 f1 68 cf 3d 66 ec 1f bb 30 2d 99 bd 29 d5 60 bd
       0.10127438 -0.002440238 -0.07479322 -0.054890785
000120 22 0a 8d bd 19 23 63 3d 74 52 16 bb 4a 4b 80 3d
       -0.06886698 0.055453394 -0.002293733 0.0626436
000130 bd 6b 69 bc 9c c3 b3 3d 79 bb db bd 6b 04 1c bd
       -0.014246878 0.08777544 -0.10729117 -0.03809015
000140 f8 1d 7d bd 47 58 7a bd 9c c7 86 3c c6 1f bb 3d
       -0.06179616 -0.061119344 0.016452603 0.0913692
000150 5e bd 2d 3d 89 82 1e bd 40 89 eb 3d 28 9f 5e bb
       0.042416923 -0.038698707 0.11500788 -0.0033969376
000160 bf 30 b2 3d 4a 28 b7 3d 08 d0 66 3e 7d 07 41 3d
       0.08700704 0.089432314 0.22540295 0.047126282
000170 d9 ab cd 3d b2 25 9d 3d 02 e7 8a 3d 3a 25 8a bd
       0.10042543 0.076732054 0.067823425 -0.06745382
000180 f0 a9 2e 3d 9a 5a 96 bc 1c 41 1c bc b6 f5 d0 bd
       0.042642534 -0.018353749 -0.009537008 -0.10203116
000190 9d 70 ed 3c 72 28 50 3d 33 5c a9 3d bd 7d 67 3d
       0.028984362 0.05081982 0.08269539 0.056516398
0001a0 10 4c 67 bd 0a 47 46 be d8 28 00 be e7 fb a9 3d
       -0.056469023 -0.19363037 -0.1251558 0.083
0001b0 17 47 42 bd 7c 7d 24 3e df 3a 87 bd 80 d5 ba 3b
       -0.047431078 0.16063493 -0.06603026 0.0057017207
0001c0 1f e0 04 bd 16 5a 2f 3a cf 0b 17 3d ac 6b 2f bd
       -0.0324403 0.0006689144 0.036876496 -0.042827293
0001d0 c9 3e 04 bc 79 83 46 3e 8c d9 76 bc f9 26 18 3e
       -0.00807161 0.1938609 -0.015066516 0.14858617
0001e0 1f 28 aa 3c 81 94 0c bd 0e 03 18 bc 6f c0 a2 bc
       0.020771084 -0.03432131 -0.009278072 -0.01986715
0001f0 29 de ab 3c ec 91 0e 3c 75 2a ae 3d ca 93 31 be
       0.020979958 0.008701783 0.08504192 -0.17341533
000200 04 9f 89 3c 85 ac 8b 3d 3a 9b 38 bd 2d f0 a8 3d
       0.016799457 0.06820015 -0.04506991 0.08248935
000210 86 1a a9 bd 6a e1 30 3e bd 5c 3c 3c da 65 f6 bd
       -0.08257012 0.17273489 0.01149672 -0.120311454
000220 bf b0 49 3d 0c 0d b8 bd 9c 42 22 bd 4e 76 91 3d
       0.049240824 -0.089868635 -0.039614305 0.07102643
000230 4d b9 3e 3c a0 f5 b0 bd c2 e1 44 3d ff e8 e1 3d
       0.011640859 -0.08640599 0.048066862 0.110307686
000240 c5 24 9b bc a3 56 49 3c d4 9b 9c 3a de 41 8f 3b
       -0.018938432 0.012288722 0.0011948296 0.0043718657
000250 74 44 f8 bb 28 b6 16 bd a0 0b 84 bd 81 c4 0a be
       -0.0075765196 -0.03679481 -0.0644753 -0.13551523
000260 4c 65 9e 3d d9 c4 a5 bd ab 04 c2 3d d9 6d 8d 3c
       0.077341646 -0.08094186 0.094735466 0.017264294
000270 af c3 a6 3d cf e6 63 3d 1e 6e 9f 3d 54 cc 0c 3e
       0.081427924 0.055640038 0.07784675 0.1374982
000280 51 d1 ea 3d e9 2a 1e 3e 86 fb 01 bc 85 17 8b 3c
       0.11465705 0.15446056 -0.007933503 0.016978988
000290 af 6f 03 3e a5 4d 0a bd b9 03 b1 bd 77 89 c4 bd
       0.12835573 -0.033765454 -0.08643288 -0.09596532
0002a0 ec 14 92 3d a9 91 0a 3e f2 bd e4 3c ac 2e 7c 3c
       0.07132897 0.13532127 0.027922604 0.015391987
0002b0 d3 b6 48 3c 24 6f cd 3c e7 8d e6 3d 2e 73 63 3c
       0.01225062 0.02507741 0.112575345 0.013882441
0002c0 59 51 a3 bd 2f ac 77 3d 5d 75 0a 3d 09 10 df bd
       -0.079745 0.06046694 0.033803333 -0.1089173
0002d0 d4 7a 3e 3d 0d b0 a5 3b be 3a ca bd 74 f1 89 3d
       0.046503857 0.0050563873 -0.098744854 0.06735507
0002e0 a7 7c c0 bd 6c 78 03 3c 57 32 d5 3d e2 67 97 3d
       -0.093987755 0.008024316 0.10409992 0.07392861
0002f0 a2 07 33 3d 71 65 06 3c 33 cb f4 3d 80 56 28 bc
       0.04370845 0.008202896 0.1195282 -0.010274529
000300 c0 34 4a be 4e 97 60 bd 8d 41 66 3d 29 80 01 be
       -0.19746685 -0.054831795 0.056214858 -0.12646545
000310 46 1b 7e 3d 95 67 15 3e de 62 98 3d f5 b1 70 3c
       0.06203773 0.14590295 0.074407324 0.014690866
000320 34 b5 e2 3c e3 df 23 3e 50 b6 df 3d 8f a5 77 3d
       0.027674295 0.16003375 0.10923445 0.060460623
000330 fc ee 1e 3d 9f 31 75 3c 10 24 45 3d ff b2 de bc
       0.038802132 0.014965444 0.048130095 -0.027184961
000340 b9 73 3d bc 4d da 5d bd 45 92 81 3d be 7b 05 3d
       -0.011563235 -0.054163266 0.06326727 0.032588713
000350 9b 18 6d 3d 5d 08 55 bd 9f 9b 10 be 30 67 dd 3d
       0.057884794 -0.05200993 -0.14121865 0.10810697
000360 09 45 b7 bc 46 48 79 3c 61 9f 84 bd ae bc 58 be
       -0.022371786 0.015214985 -0.064757116 -0.21165726
000370 98 07 d1 bd dc 00 aa bd 6e 22 14 3e c2 93 d8 bc
       -0.102065265 -0.08300945 0.14466259 -0.026437644
000380 1c c4 0a bb 3e 6e a4 bc ab 04 0b bd b7 76 02 3e
       -0.002117402 -0.020072099 -0.03394 0.12740599
000390 c5 03 0e 3e 51 6c 20 be 4c 5c c6 3b f1 d6 56 bc
       0.13868625 -0.1566632 0.006053483 -0.013112769
0003a0 58 29 49 3e 0b 52 42 3d 81 85 8c 3d af 2a 0a bc
       0.19644678 0.047441524 0.06861401 -0.008433028
0003b0 63 b8 ec 3b 8a a5 17 3e 31 63 b3 bd 1a 96 b7 3d
       0.007224129 0.14809242 -0.08759154 0.089641765
0003c0 4f b4 66 3c 3d 3e 53 bd e7 43 e0 3d 8a 47 55 bc
       0.014081075 -0.051573027 0.10950451 -0.0130175445
0003d0 22 c8 27 bd 82 80 1b 3d 6e b6 3a 3e 09 a0 eb bc
       -0.040962346 0.03796435 0.18233654 -0.028762834
0003e0 ba d6 67 bd f6 7e 98 bd dc 9a a3 3d 58 d4 04 be
       -0.056601264 -0.07446091 0.079885215 -0.12971628
0003f0 8a 39 85 bd dc ed e9 3d 90 34 90 3d ba 20 25 bd
       -0.06505115 0.11422321 0.070412755 -0.040314414

network_body._body_endoder.seq_layers.2.bias f4 [128]
000000 87 3e 5d bb af ee fe 3c 83 44 24 3c 11 eb 0f 3c
       -0.0033759193 0.031119673 0.0100261 0.008784072
000010 61 41 57 3d 2b 0b 88 3c 80 2e 8b 3c b6 c8 ac 3c
       0.052552585 0.016606888 0.016989946 0.0210918
000020 df 4d a6 3c 1c 2f d9 3b 2c 7a 9d 3c d0 cf aa 3c
       0.020300804 0.0066279303 0.019223295 0.020851046
000030 51 e6 3d bb bf 06 6d 3c 83 21 fc 3c 9d bc f1 3c
       -0.002897639 0.01446694 0.030777698 0.029508883
000040 11 ff f8 3c a8 95 02 3b 97 ce b3 bb a7 52 d4 3c
       0.030395063 0.0019925628 -0.005487274 0.025918318
000050 61 12 93 3c ae 8b 9f b9 2b d7 84 3c 42 50 a9 3b
       0.0179531 -0.00030430913 0.016215881 0.005167038
000060 89 28 8d 3c 59 25 c1 3c 6c a1 7b 3c c4 72 79 3c
       0.017231243 0.023577379 0.01535831 0.015225116
000070 50 31 32 3a 63 2a 78 3b e9 8e c0 3c cc 6f 1f 3c
       0.0006797509 0.0037867061 0.023505645 0.009731244
000080 7d 3b 05 3d 80 3a e4 3c dc 37 b1 3c 2e 31 7f 3b
       0.032527436 0.027859926 0.021633081 0.0038939225
000090 06 ea 44 3d 41 a4 87 3c e6 62 d4 3c 2d 91 cb 3a
       0.048074745 0.016557815 0.025926065 0.0015530937
0000a0 c7 55 b2 3c 91 41 00 3d f4 b8 41 3d 3a 82 f4 3c
       0.021769417 0.03131253 0.047295526 0.029847253
0000b0 da 23 00 3d 08 79 4f 3d 74 d0 e4 3b d0 fe 1c 3d
       0.03128419 0.050652534 0.0069828574 0.038328946
0000c0 11 55 8c bb 24 34 a4 3c 47 6d aa 3c ce 16 55 3c
       -0.0042826016 0.020044394 0.02080406 0.013005925
0000d0 da 81 13 3c 93 c2 ce 3c 62 35 f1 3c 35 d2 6d 3c
       0.009003127 0.025239265 0.0294444 0.014515449
0000e0 39 eb 3a 3d 6c 4f a9 3c 9c 83 38 3c bd 8b c7 3c
       0.045634482 0.020667754 0.011261847 0.024358625
0000f0 2f 63 93 3b 9f b3 1b 3d c9 e8 ee 3c 1d 36 0e 3d
       0.0044979076 0.038013097 0.029163735 0.034719575
000100 e8 46 bf 3c ad 9e 44 3c 1f 8b a2 3c 93 98 04 3d
       0.02334924 0.012000722 0.019841729 0.03237207
000110 0c 8f 07 3d 1b 88 fa 3c ca 77 25 3c 74 fe 97 3c
       0.033095405 0.030582478 0.010099361 0.01855395
000120 ff c8 45 3c 4c 21 44 3d 14 24 91 3c 1d c6 92 3c
       0.012071847 0.047883317 0.017717399 0.017916733
000130 a5 c5 95 3b fd dd 06 3d 76 74 81 3c d2 b2 3e bb
       0.00457068 0.03292655 0.015802603 -0.0029098284
000140 82 83 13 3d cb bc 7f 3c 86 a1 3a 3c 20 cf 53 3c
       0.036014087 0.015608977 0.011391049 0.0129278
000150 87 61 31 3c 22 71 0c 3d f1 1b 6a 3c 83 e9 e2 3c
       0.010826475 0.03428758 0.014288888 0.027699238
000160 ef 11 10 3d d8 7a f5 3c 67 6a 93 3c 53 86 8e 3c
       0.035173353 0.029965803 0.017995073 0.017398035
000170 c7 21 ae 3c 6f 86 f7 3c 4a 2b d4 3c 79 bb 04 3d
       0.02125634 0.03021547 0.025899548 0.03240535
000180 eb 6e db 3c 70 68 c4 3c ef 6b e6 3c 1c 5a 1c 3d
       0.026786288 0.02397558 0.028127639 0.038171872
000190 e6 c4 1c bc 24 0e 6f 3c 72 19 e0 3c 62 64 27 3d
       -0.009568429 0.014590774 0.027355883 0.040867217
0001a0 d4 6e cf 3c 1b 79 12 bc 0f b3 c7 3c 95 5f e4 3c
       0.025321402 -0.008940007 0.024377374 0.027877608
0001b0 46 b8 a1 3c 57 16 96 3c 92 a6 2c 3d cd ac 2a 3d
       0.019741189 0.0183212 0.04215104 0.041668702
0001c0 66 d9 b6 3c 66 b4 e0 3c bc 9f e3 3c 56 41 02 3d
       0.02232046 0.02742977 0.027786128 0.03180059
0001d0 fa 11 95 3c 31 9f 00 3d 1c 78 0b 3c a6 f8 97 3c
       0.018197048 0.031401817 0.008512523 0.018551182
0001e0 8b a7 eb 3c e0 9e ca 3c 37 71 ce 3c ae 34 73 3c
       0.028766414 0.02473396 0.02520047 0.014844103
0001f0 d6 91 4f ba 5b 19 03 3d bb 25 db 3c 54 30 f3 3c
       -0.00079181546 0.032006603 0.02675139 0.02968613

action_model._continuous_distribution.log_sigma f4 [1, 2]
000000 e8 83 59 bd 29 77 79 bd
       -0.05310431 -0.060904656

action_model._continuous_distribution.mu.weight f4 [2, 128]
000000 c4 2d 5e bc b6 91 df bd 22 1d db bc c1 4e 24 3d
       -0.013560716 -0.10916464 -0.02674729 0.040114168
000010 97 c5 4b bd b0 d2 34 bd df 1d f2 3c d8 84 1c bd
       -0.049748983 -0.04414624 0.02955526 -0.038212627
000020 6a 1b 37 bd 4a 2d 28 3d db 6c af 3d 62 24 e1 bc
       -0.04470388 0.041058816 0.085656844 -0.027483169
000030 e4 0d 41 3c d1 eb 01 3d 69 f5 c3 bb 8b fc f0 3c
       0.011783097 0.031719033 -0.005980183 0.029417297
000040 0d c1 ec 3c 5b 35 55 bc 5d a5 7b 3c 53 40 3c bd
       0.028900648 -0.013013209 0.01535925 -0.04595978
000050 82 5c 47 bd b1 66 3c 3d 3a 53 52 bd 82 f0 04 3d
       -0.048672207 0.04599637 -0.051348902 0.03245593
000060 33 71 0d 3d 21 d5 2c 3d f3 f2 20 bd a6 95 31 3d
       0.034531783 0.042195443 -0.039294194 0.043355606
000070 22 af cd bb c7 06 c4 3c cc c1 88 3d bd 43 57 bc
       -0.006276981 0.023929013 0.06677589 -0.013138709
000080 dc 3a 95 bd ce 1a 2a 3d c7 cd 7e bd 8c c3 86 bc
       -0.07286617 0.04152947 -0.062207963 -0.016450666
000090 38 67 88 3d 6f 9a 20 3d 3f 5f a3 3d 77 6f 8d bc
       0.066603124 0.03920978 0.07977151 -0.017265065
0000a0 31 c4 9a 3d 62 e7 87 3b b3 ca 8b 3d 1e d0 a7 bd
       0.07556952 0.004147456 0.06825771 -0.08193992
0000b0 d8 6a 94 3c 7d ee 6c 3d a5 1b 50 3d b5 f9 1a 3d
       0.018117353 0.057844628 0.050807614 0.037835795
0000c0 ec f4 0c bc a0 d2 7b 3d 3b 88 87 3c 12 cb 07 bd
       -0.008603316 0.061480165 0.016544452 -0.033152647
0000d0 18 b9 90 bc 72 90 1a bd fc ae 82 bd fd 5a 62 3a
       -0.017666385 -0.03773541 -0.06381032 0.0008634774
0000e0 4c c8 72 bd a4 ae 59 3d c5 97 27 3d 32 5f 4f bd
       -0.05927305 0.053145066 0.040916223 -0.050627895
0000f0 2b 63 c6 bc d0 7e 89 bd 53 2b 44 bd a9 f7 8a bd
       -0.024217209 -0.06713641 -0.04789288 -0.06785519
000100 ae 10 02 3d 97 cf 2b 3d 56 6a 80 bd 0c 65 fb ba
       0.03175419 0.04194602 -0.06270282 -0.0019179895
000110 27 b2 39 3d 7a 92 2a 3d 88 46 51 bd 7c a6 c9 bc
       0.045335915 0.041643597 -0.051092654 -0.024615519
000120 41 8f 61 bc 46 01 a5 3d 47 7b 4a 3d 1a 88 2e 3d
       -0.013767065 0.080568835 0.049433973 0.042610265
000130 5d 43 8c bc 84 99 88 bd f4 5d 17 bc 69 d9 eb bc
       -0.017121965 -0.06669906 -0.009238709 -0.028790193
000140 61 00 61 3d c2 94 08 3d 27 67 d0 3c 2f 0c b5 3b
       0.054932002 0.03334499 0.025439812 0.005525134
000150 38 c1 ef bc c9 95 64 bc 43 d1 04 3d f2 a8 83 bc
       -0.029266939 -0.013951727 0.03242613 -0.01607177
000160 11 86 4d bd 4b 86 81 bc 0c 60 2b bc 2d 8f 9a bc
       -0.050176684 -0.015811106 -0.010459911 -0.0188671
000170 e0 70 f5 bc c1 7d 7b bd 81 43 5a bd 5b d5 20 3d
       -0.02996105 -0.061399225 -0.053287033 0.03926597
000180 1a 5a ae 3d 92 45 b3 3b 6d 1a 55 bd e7 d0 46 bd
       0.08513279 0.00547094 -0.052027155 -0.04853907
000190 db 1c 41 3c 6e 9a d0 3c 7c c3 7d 3d 30 54 df bd
       0.011786665 0.025464263 0.061954007 -0.10904729
0001a0 9e 8f 68 3d 83 38 e2 b9 25 e9 8d 3d b7 ea 68 3d
       0.05677759 -0.00043148184 0.069292344 0.056864467
0001b0 5b 50 0b bd 3b 82 39 bd f6 79 7f bd 7c 14 4a bb
       -0.03401218 -0.045290213 -0.06237217 -0.0030834964
0001c0 2b 7e 34 bd a2 32 8c 3d a7 12 b9 3d 29 db 87 bc
       -0.044065636 0.06845595 0.09036761 -0.016583996
0001d0 b8 b0 0d bd 31 4a 01 bd 3a cb 2c 3d 39 d3 76 3a
       -0.03459236 -0.031564895 0.042186 0.000941563
0001e0 71 7c 79 bb e6 34 aa 3d 41 e6 41 bd 6e 27 4b 3d
       -0.0038068558 0.08310871 -0.047338728 0.04959815
0001f0 f1 7c 37 bb 77 97 59 bd 66 1a 4f bd ea 76 ce bc
       -0.0027998055 -0.053122964 -0.050562285 -0.025203187
000200 f7 cc 7b bc 96 4e c5 bc 39 ac 50 bd da 49 a2 bc
       -0.015368692 -0.024085324 -0.050945494 -0.019810606
000210 df 3d 8b 3d ba f4 b3 3b 04 07 84 bd cc 00 72 3c
       0.0679891 0.00549182 -0.064466506 0.014770698
000220 20 06 89 bc 33 20 a2 3c ec 12 93 bc 3e 59 5e 3d
       -0.016726553 0.019790744 -0.017953359 0.054284327
000230 47 60 2c 3d 3c 55 4a bc 63 c4 89 bd 50 64 85 bd
       0.042084005 -0.012349423 -0.06726911 -0.06513274
000240 d0 34 8c 3d c9 36 01 3d d8 46 53 3c 9f d4 42 3d
       0.06846011 0.031546388 0.012895308 0.047566053
000250 b4 77 33 bd f9 56 85 3c c4 ef 48 3c 47 db 1e bc
       -0.04381533 0.016276823 0.012264196 -0.0096958345
000260 d1 98 81 bd a4 1f 29 bd a4 ef 25 3c 6e f1 fd bc
       -0.063279755 -0.04128994 0.010127936 -0.030998912
000270 df 8d c6 bc 85 88 2e bd f5 94 68 3d f3 bc e5 3c
       -0.024237571 -0.042610664 0.05678268 0.0280442
000280 bc cf 18 3d c8 c1 75 3d b8 be 00 bd f0 80 32 bd
       0.037307486 0.059999257 -0.031431884 -0.043579996
000290 1c 39 8f 3d a1 09 25 3d 02 e6 fe bc 98 87 ef 3c
       0.069933146 0.040292386 -0.031115536 0.02923946
0002a0 3e 6d e9 bc 92 c8 c0 bd 64 15 44 3d 11 69 e9 3b
       -0.028494474 -0.09413256 0.047871962 0.0071231206
0002b0 c9 e7 9a 3d 81 33 1f 3d 29 05 56 3b 1a fb ab bd
       0.07563741 0.038867477 0.0032656884 -0.08397503
0002c0 77 8b c3 3b 66 89 2d bc b7 15 25 bd bb cf 98 3c
       0.0059675532 -0.01059184 -0.040303912 0.018653741
0002d0 02 cb 8e 3c 7d 09 2d bd 71 5c 9a bc d4 7b 88 bd
       0.017430786 -0.042245377 -0.018842908 -0.06664243
0002e0 7e 36 8c 3d 39 fd 18 bc 79 1b 31 3c 15 18 6e bc
       0.06846331 -0.009337717 0.010809773 -0.014532109
0002f0 5d a4 ef 3b 9a 7e 28 3d 66 e6 33 bd 34 bb 31 3d
       0.007313295 0.04113636 -0.043920897 0.04339142
000300 78 38 94 3d 92 c2 81 3c 29 6c 0e 3d 81 46 68 3d
       0.07237333 0.015839849 0.03477112 0.056707863
000310 21 59 2b 3d 51 ad 99 3c 07 d6 2d bc 68 3c 3b bd
       0.041833047 0.018759402 -0.01061011 -0.045711905
000320 45 2d 0b 3d 94 2a 67 bd ae 06 71 ba 93 5e 17 3d
       0.03397872 -0.05643709 -0.0009194416 0.036955427
000330 0c 63 8c bc b2 16 8f bd bb 21 70 bd 0f d7 b6 3c
       -0.017137073 -0.06986751 -0.058625918 0.022319345
000340 06 8f 61 bd e0 b0 2b 3c a1 45 bd 3c 93 2a 73 3d
       -0.05506804 0.010479182 0.02310449 0.059366774
000350 de be 2c bd d4 a8 a8 3d aa a8 6e bd 6c 37 b5 bd
       -0.042174213 0.082353264 -0.05826632 -0.088484615
000360 cb 41 a3 3c d0 04 5f bd cc c3 fb 3c 2f cb 41 3d
       0.019928833 -0.05444795 0.030733012 0.04731291
000370 67 eb 50 3d 2e ff 6e 3d 6e b9 82 bd 0c 9e b2 3d
       0.051005747 0.058348827 -0.06383024 0.08721551
000380 dd 31 06 bd 92 3a 9f bd b4 70 cf 3c b8 c7 99 bd
       -0.032762397 -0.07774843 0.025322296 -0.075087965
000390 9f 2b 32 bc 2f 05 08 bd 78 fe 9b bc 37 71 9b ba
       -0.010874658 -0.03320807 -0.019042239 -0.0011859302
0003a0 94 ad 36 3d 9e 8c 9a bb 54 38 02 3d 1b 19 07 bc
       0.04459913 -0.00471647 0.031792 -0.008245732
0003b0 8b 7f 3c 3d 81 d6 f4 3a ec a3 a5 3d cb b4 ca 3d
       0.046020072 0.001867965 0.08087906 0.09897765
0003c0 b7 8d 2f bd 4f 7a 9e 3b ee 40 20 bd 3d b4 40 bd
       -0.04285976 0.0048363577 -0.03912442 -0.04704689
0003d0 cb b7 c1 bc 9a 42 6c bd 61 cc 8e ba 37 f1 5a 3d
       -0.02364721 -0.057680704 -0.001089465 0.053452697
0003e0 63 49 4d 3d 1a a3 61 3b fd 67 64 3d 77 3b 11 bd
       0.050118815 0.0034429491 0.055763233 -0.0354571
0003f0 a6 c9 95 bc ed bd 3b 3d b1 1a ae bc ef 05 ac bd
       -0.01828463 0.045835424 -0.021252962 -0.08399569

action_model._continuous_distribution.mu.bias f4 [2]
000000 07 58 6e bb 22 6f 82 37
       -0.0036368386 1.5548958e-05

60 f4 [28]
000000 e2 90 af 3e 91 e1 fe 3e ab 38 ee 3e 8a 34 a4 3e
       0.34290224 0.4978147 0.4652761 0.32071334
000010 57 8f aa 3e 21 fd fe 3e 94 6b f0 3e b3 32 a4 3e
       0.33312485 0.49802497 0.46957076 0.3206993
000020 5a e1 a6 3e 9f 8f fd 3e f3 ce ec 3e 82 6a a3 3e
       0.32593805 0.49523637 0.4625164 0.31917197
000030 d9 b8 9b 3e 73 db ff 3e 6c 7d f8 3e 9e fc a1 3e
       0.30414465 0.49972114 0.4853319 0.31638044
000040 2f ae 94 3e 2f 31 fe 3e fa ca f3 3e 09 46 a1 3e
       0.29039142 0.496469 0.47615796 0.31498745
000050 94 6a 8a 3e 5d e4 ff 3e 4c d6 fd 3e 58 41 9d 3e
       0.27034438 0.49978915 0.49577558 0.30713916
000060 6d f9 7f 3e 05 7f ff 3e 61 f8 fa 3e 77 87 9d 3e
       0.24997492 0.49901596 0.49017623 0.30767414

63 f4 [15]
000000 00 39 44 41 63 c0 10 3b 00 d7 4a 41 01 d7 83 41
       12.263916 0.0022087328 12.67749 16.479982
000010 63 c0 10 3b f0 97 82 41 4b b7 32 3f 63 c0 10 3b
       0.0022087328 16.324188 0.6981093 0.0022087328
000020 4a 9b 36 3f 8f 21 3b 41 d4 ce b5 41 67 2c 15 40
       0.713307 11.695693 22.72599 2.330835
000030 37 0c 31 3f 63 c0 10 3b 47 bf 37 3f
       0.69159263 0.0022087328 0.7177624
