Assets/NN Models/MyBehavior 3.onnx (onnx, 92507 bytes, 11 tensors)

network_body.observation_encoder.processors.0.normalizer.running_mean f4 [28]
000000 bc 44 94 3d 0e a3 0e 3f 9a 94 bd 3e 69 78 39 3f
       0.072396725 0.5571755 0.37027436 0.72449356
000010 bb 3d 92 3d 99 29 0d 3f f8 0b c1 3e e8 90 3a 3f
       0.071406804 0.551416 0.37704444 0.7287736
000020 e0 78 90 3d cb bf 0d 3f d1 4f c0 3e a3 95 3a 3f
       0.07054305 0.5537078 0.37560895 0.7288458
000030 81 a2 88 3d ae 3f 07 3f 5a 41 cf 3e b5 d9 3c 3f
       0.0667162 0.5283154 0.40479547 0.73769695
000040 38 b2 89 3d f4 4e 07 3f 1a e5 ce 3e df b6 3c 3f
       0.06723446 0.5285485 0.40409166 0.7371654
000050 0f 35 7c 3d 2b ee 01 3f 98 84 dc 3e 5a ce 3f 3f
       0.061574038 0.5075404 0.4306991 0.7492424
000060 c7 7a 7c 3d 8c 5d 02 3f 2a a2 db 3e a9 bc 3f 3f
       0.061640527 0.5092399 0.4289716 0.7489725

network_body.observation_encoder.processors.1.normalizer.running_mean f4 [15]
000000 8b d3 76 3f 69 ea 2e 33 d1 c2 2a 3e 71 58 0b bf
       0.9641654 4.0725727e-08 0.16675879 -0.54431826
000010 00 00 00 00 39 96 a6 3f e0 f0 f9 bc f2 1c ba b0
       0.0 1.3014594 -0.030510366 -1.3541508e-09
000020 5d f2 d5 3c 20 0f 9b 41 b2 44 a0 42 6f 69 e3 40
       0.026116544 19.382385 80.13417 7.1066203
000030 cb 3a ed bb 00 00 00 00 34 5b c0 3c
       -0.0072396747 0.0 0.023480989

network_body._body_endoder.seq_layers.0.weight f4 [128, 43]
000000 c2 ad 08 be 66 55 8c be aa 3d 00 3e f4 8a a2 3b
       -0.13347533 -0.27408904 0.12523523 0.004960412
000010 b8 c4 87 3d 0b 1c 33 3d f8 d0 59 3d 1b e9 e9 3d
       0.06629318 0.043727916 0.053177804 0.114214145
000020 f6 6a 29 3e fc 75 08 3d 42 88 e2 bc df 12 92 3e
       0.16544709 0.033315644 -0.027652863 0.28530023
000030 c2 c6 1d ba b0 03 99 3d ab ef 56 be a3 9f 70 3e
       -0.0006018692 0.074714065 -0.20989864 0.23498397
000040 4e 6f 9e 3d 52 1e c4 3e 17 5b aa bb ab 81 d9 bd
       0.077360734 0.38304383 -0.005198847 -0.10620435
000050 cb 77 3b 3e de cf db 3d b3 aa 81 3e 52 b4 42 3d
       0.18307416 0.10733007 0.25325546 0.047535248
000060 28 ea 41 3a 14 be fd bd a3 73 5d 3e ce 50 11 3f
       0.0007397258 -0.1238977 0.21626143 0.56763923
000070 0a db 37 3e 60 76 92 bd 24 c6 90 be 14 a1 82 3e
       0.1795465 -0.071514845 -0.2827617 0.25513518
000080 51 24 a7 bd d6 53 36 be fb 12 50 3e c2 82 e7 3c
       -0.08161224 -0.17805418 0.2031974 0.028260592
000090 07 ec 0b 3e 9b d2 83 3e 2a f5 45 be 17 2e 09 be
       0.13664256 0.25746617 -0.19331804 -0.13396488
0000a0 8c d0 05 3e 26 63 0e be 41 59 26 be b7 6c e3 bc
       0.13067836 -0.1390501 -0.16244985 -0.0277618
0000b0 2f 29 b1 3d d6 82 c8 bd 13 1a 65 3d 08 9d 31 3e
       0.08650433 -0.0979058 0.05593307 0.17345059
0000c0 0c 07 08 be d9 22 cf bd ca 78 6a be 04 19 a0 3b
       -0.13283938 -0.101140685 -0.2289764 0.0048857946
0000d0 28 b5 d5 3c 44 1b 4f be c9 9b 81 3c c5 68 2c bd
       0.026087359 -0.20225245 0.015821354 -0.042092104
0000e0 78 e3 4c 3d 6a d0 60 bd d5 0d 29 be 9d ae be 3d
       0.05002162 -0.05488626 -0.16509183 0.093106486
0000f0 e5 67 75 bd 86 87 de 3d 0a 8b 31 be 19 7c 9a bb
       -0.059913535 0.10865693 -0.17338195 -0.0047145006
000100 8f 84 b3 3c 35 52 e0 bd 89 05 49 be cd b5 17 be
       0.021913795 -0.1095318 -0.19631018 -0.14815445
000110 8c 56 9b 3d 60 41 8a be 1f d3 21 3e a8 3a 5c 3d
       0.07584867 -0.27003002 0.15803193 0.053766876
000120 c4 75 46 3e 30 0a 83 be f0 fd 08 bd 9f c1 39 bd
       0.19380862 -0.2559371 -0.0334453 -0.045350667
000130 ae df 95 3e 80 fd 6f be e4 58 c0 3b f8 2b 06 bd
       0.29272217 -0.23436546 0.0058699716 -0.032756776
000140 f3 91 61 be 24 ed bb 3d 8e d2 51 be 29 c7 4e bd
       -0.22028331 0.0917609 -0.20490476 -0.050482903
000150 b5 a2 2d bd 22 e9 55 bc 1d dc 4f be 3a 7b 57 3d
       -0.042391498 -0.0130560715 -0.2029881 0.052607752
000160 04 b3 d1 be 59 dc c5 be 52 c8 96 bc b5 f1 02 3e
       -0.4095689 -0.38644674 -0.018406067 0.12787516
000170 d8 d3 07 be 7c e8 e7 bc 25 b1 23 bd 75 1d b7 bd
       -0.13264406 -0.0283091 -0.03996386 -0.08941165
000180 bb 60 0d 3c 57 1c bf 3d 83 c3 13 3d b7 11 c1 bd
       0.008629019 0.09331577 0.036075126 -0.09427207
000190 f1 24 8b 3d 9b b6 d0 bc 65 15 f9 3d bd e4 b5 3d
       0.067941554 -0.025477698 0.12162284 0.08881519
0001a0 d9 da a9 be 14 ad ae 3e 7e e1 06 bd af 77 b6 be
       -0.3317478 0.34116423 -0.03292989 -0.35638186
0001b0 f9 9c a0 bd c1 da 84 3e db a1 7e 3d ae a0 05 be
       -0.0784244 0.25948146 0.062166076 -0.13049576
0001c0 4c fb ea 3d 2f 5a 72 bd 6f 80 33 be 6a 05 73 3d
       0.11473712 -0.059168037 -0.17529462 0.059331335
0001d0 c4 8f 96 bd f1 dd f1 3d 23 39 0f be 70 d4 5d 3d
       -0.0735164 0.1180991 -0.1398664 0.054157674
0001e0 07 4d a3 3d 30 86 a8 3e f2 c6 84 3d 69 43 cd bd
       0.07973676 0.32914877 0.06483258 -0.10022623
0001f0 e2 33 1f bd ee 66 cf 3c d7 fe 37 be 35 23 89 bc
       -0.03886784 0.025317635 -0.17968307 -0.01674042
000200 3d fb 16 3d aa 8c 01 bd b6 8d b1 be 86 23 53 bd
       0.036860693 -0.03162829 -0.3467843 -0.05154755
000210 f6 6f 13 3e a1 26 6c 3e 94 c0 7a be 61 9f 81 3c
       0.14398178 0.23061611 -0.24487525 0.015823068
000220 2d a7 14 be bc 56 16 be ac a8 de 3d 70 4a aa 3e
       -0.14516897 -0.14681524 0.10872015 0.33259916
000230 9e ed 8a 3e ae c5 2a 3e b2 87 d6 bd fb 2c 54 3e
       0.27134413 0.16676971 -0.104751006 0.20720284
000240 9f e4 a1 3d 0c 84 6c bd fd 58 cc 3e 14 31 17 3e
       0.07904934 -0.057743117 0.39911643 0.14764816
000250 42 bc 20 3e 9a fa af bd ab cd 88 38 75 e1 90 bd
       0.15696815 -0.0859272 6.523294e-05 -0.070742525
000260 42 c2 8c bd 04 da b5 bc 09 8d 4d 3e e6 14 94 bd
       -0.06872989 -0.022198685 0.20073332 -0.072305486
000270 ab 10 92 bd 90 28 99 be 5c 7f 64 bc 85 83 41 be
       -0.071320854 -0.2991376 -0.0139463805 -0.18897827
000280 52 ab 21 be 3a 3e a9 bd bd 30 d3 bd d6 43 56 be
       -0.1578801 -0.08263822 -0.103120305 -0.20924315
000290 40 ad 22 3e 57 d4 2c bd a2 30 52 3e 49 0f 89 bb
       0.15886402 -0.04219469 0.20526364 -0.0041827303
0002a0 af 85 ed bd c6 53 2c 3d a6 a2 b0 bd 07 b4 04 3e
       -0.11597764 0.04207208 -0.08624773 0.129593
0002b0 66 50 2e bd 5e 86 12 3e 30 c9 1c 3e 8f 03 01 be
       -0.042557143 0.1430907 0.15311122 -0.12599014
0002c0 08 38 63 be 1f 15 00 be f5 94 8f 3d 37 db d2 3d
       -0.22189343 -0.12508057 0.07010833 0.10295718
0002d0 e6 ef 54 3b 10 ec 4d 3d 4b 63 3f 3e 41 7b 74 bd
       0.0032491623 0.050273955 0.18690221 -0.059687857
0002e0 36 e8 3a b7 9d e9 9b be 1e f8 01 be 2c d0 69 be
       -1.114053e-05 -0.3045167 -0.12692305 -0.22833318
0002f0 73 5d 84 3d ed 2f 00 3e ee 16 99 3c 67 4e b9 3b
       0.064631365 0.12518282 0.018687692 0.0056550982
000300 79 53 f5 bd 76 66 32 bd e5 3a 9e be cd 66 70 3c
       -0.11978812 -0.043554746 -0.30904308 0.014672947
000310 c4 35 8f bc 90 dd 0e 3e 95 6b d1 bd 50 8e 49 be
       -0.017481692 0.13951707 -0.10225598 -0.19683194
000320 f8 e6 04 3e 82 1a 3f 3d f2 e8 20 3e 25 81 78 3e
       0.12978733 0.04665614 0.15713862 0.24268015
000330 10 55 1d 3e 0b 26 3a be 68 fd 65 be 29 82 db bd
       0.1536448 -0.18178575 -0.22459948 -0.107181855
000340 27 ee 81 3c 2d 05 00 bd 65 04 e8 3d f0 28 77 3d
       0.01586063 -0.031254936 0.11328963 0.060341775
000350 5a de ed bd b0 e8 c3 be 0c b7 de bd b0 ef 1a bd
       -0.11614676 -0.38263464 -0.10874757 -0.03782624
000360 04 9e 5a 3e 06 3f 89 b9 d1 4a a4 bb 8d e2 a2 bd
       0.2134934 -0.00026177632 -0.0050138016 -0.079533674
000370 5c 20 8d 3e ec f0 02 be 64 5c 09 be bb c5 6a bc
       0.2756375 -0.12787217 -0.1341415 -0.014329369
000380 89 ff ca 3d 3e e6 3d 3c 87 02 2d 3d 73 07 26 be
       0.09912021 0.011590539 0.04223874 -0.16213779
000390 ff 85 c7 3d f5 ac 4a be 59 9c 60 bd 15 4c 8b 3d
       0.097423546 -0.1979254 -0.054836605 0.06801621
0003a0 8a 26 bc 3b f3 61 4c 3c 74 e7 b6 bd db ba f1 3d
       0.005741899 0.012474525 -0.08930865 0.11803218
0003b0 1a 41 7a bd 99 e8 04 3e a2 66 84 3b 67 02 94 bc
       -0.061097242 0.12979354 0.004040555 -0.018067552
0003c0 39 d2 97 bd 70 e8 f9 bd 59 d8 e4 3d 78 03 13 be
       -0.07413144 -0.12202537 0.111740775 -0.14356792
0003d0 34 2f 51 3e 7b 2b 5e bd 25 7f d4 3c 0a 62 01 bb
       0.20428163 -0.054240685 0.025939533 -0.0019742274
0003e0 92 6d 21 be a6 a7 70 3d e0 45 0f 3d 5c a9 9a be
       -0.15764454 0.058753632 0.034978747 -0.30207336
0003f0 8e 09 4b 3e b5 37 43 3d 5c 13 7f 3e e5 d6 17 3d
       0.19827864 0.04766055 0.24909729 0.037070174

network_body._body_endoder.seq_layers.0.bias f4 [128]
000000 1e 2f b6 3c 46 94 a7 3c 88 31 92 3b 82 3f 33 3c
       0.022239264 0.020456444 0.004461471 0.010940434
000010 e7 da 55 3c db 9c ab 3c 30 15 d2 38 6f e7 88 3c
       0.013052679 0.020948818 0.00010017527 0.016711919
000020 85 30 a7 3c 23 a0 84 3a 9f f0 af 3c 32 99 d2 3c
       0.020408878 0.0010118525 0.021477042 0.025707815
000030 01 29 4b 3c 1f ee 1e bd 21 6d 45 3c 3e 89 ac 3c
       0.012399913 -0.03880131 0.012049944 0.021061536
000040 99 54 e2 3c 19 29 f3 3c bd ef fa bc 68 7f 55 bc
       0.02762823 0.029682683 -0.030631894 -0.013030864
000050 2f 31 20 bb 0a 38 d9 3c 7c 14 90 3c b8 76 a6 3c
       -0.0024443378 0.02651598 0.017587893 0.020320281
000060 dd 2d b4 bc be 8d 31 3d 90 a8 81 3c ea 89 ea 3c
       -0.021994526 0.043348067 0.015827447 0.028630216
000070 12 c8 4f 3d 09 ab 3b 3c ae 40 b0 3c 58 13 16 3c
       0.05072791 0.011454352 0.021515217 0.009159885
000080 1b 94 9c 3c e5 43 99 3c 6b 58 11 3d 2e 22 bf 3c
       0.019113591 0.018709132 0.035484713 0.023331728
000090 17 21 4e 3b fc bc 00 3d d1 49 18 3d 77 4c 25 3c
       0.0031452829 0.03143023 0.03717977 0.010089031
0000a0 7d 1a f0 3b f5 19 f8 3c ae 76 6d 3d 6c ad b7 3c
       0.0073273764 0.030285815 0.05797451 0.022421561
0000b0 3c ef 30 3c a2 25 99 3c 2e eb 75 3c 61 04 80 3c
       0.010799225 0.018694703 0.0150096845 0.015627088
0000c0 38 78 88 3a d7 16 31 3d 72 96 de bb eb ee ee 3c
       0.0010411805 0.043234672 -0.006792837 0.02916666
0000d0 73 8c 14 ba 5a 36 96 3c 6d 5b 54 3c 27 fb d2 ba
       -0.00056666805 0.018336464 0.012961251 -0.0016096578
0000e0 a9 53 a4 3b dc c0 d9 3c 18 38 31 bb 55 60 82 bc
       0.005014856 0.02658122 -0.002704149 -0.015915075
0000f0 be a5 a6 3c 9c 61 4f 3c cc 7e bc 3b 88 88 3d 3c
       0.020342704 0.012657549 0.00575242 0.011568196
000100 77 12 b8 3b 9e 9f af bb a0 f2 e5 3c 1f 69 21 3d
       0.0056174356 -0.005359604 0.028069794 0.039406892
000110 2e 5d 74 3c 9f ce f9 3c 50 70 19 3d c8 3e 1b 3d
       0.014914794 0.030494032 0.037460625 0.03790167
000120 89 31 0f 3c ba 42 10 3d 81 98 18 3d 6a 1d d2 bc
       0.008739837 0.035219885 0.037254814 -0.025648791
000130 00 41 a6 ba b1 1e 00 3c e4 5c 8c bc f1 a8 bb 3c
       -0.0012684166 0.007819817 -0.017134137 0.022907706
000140 c7 e5 27 3c af 3b d8 3b b6 db 13 3d 86 de 0c 3c
       0.010247654 0.0065989117 0.036098205 0.008597976
000150 75 f8 d9 3b 5c 66 18 3d e5 03 0b 3d 8c d3 46 3d
       0.006651933 0.037206993 0.03393926 0.04854159
000160 02 83 ae 3a 2d a1 a1 3c 96 ce f8 3c c7 55 19 3d
       0.001331419 0.019730175 0.030371945 0.03743532
000170 0f 20 0a 3d f6 7f 6c 3c c7 6e de 3c c7 b7 16 3c
       0.03372198 0.014434805 0.027152432 0.009199089
000180 4e 26 ad 3c c8 c1 f6 3c 89 5a e2 3c b4 48 b7 3c
       0.02113643 0.030121699 0.027631061 0.022373535
000190 d5 43 d6 3c c3 cf a8 3a 57 9b 3a bc 16 95 88 3c
       0.026155392 0.0012879301 -0.011389575 0.016672652
0001a0 be 60 16 3d f7 54 56 3c 74 3e 84 3b 6e 3c 5e 3c
       0.036713354 0.013081781 0.0040357653 0.013564212
0001b0 41 f7 10 3d 32 51 8a bc 14 3e f2 bb 86 0c 3d 3d
       0.03539205 -0.01688442 -0.007392654 0.04615452
0001c0 c2 1a 01 3d 6a 29 c4 bb 77 bc e5 bb 8e 2b 5d 3c
       0.03151966 -0.0059863823 -0.007010992 0.013499154
0001d0 e7 3e cd 3a 47 fc 0c 3a 72 b9 53 3c 06 13 9e 3c
       0.0015659005 0.00053781684 0.012922632 0.01929618
0001e0 0e 53 1f 3c ef 1c 90 3c cd 04 16 3d 8c 02 76 3c
       0.009724392 0.017591922 0.036625672 0.015015256
0001f0 f6 6f 51 3d 1a 72 32 3d 6a 25 2f 3d 67 70 5b 3c
       0.051132165 0.043565847 0.04276029 0.013393498

network_body._body_endoder.seq_layers.2.weight f4 [128, 128]
000000 cb e0 92 3d 38 75 1b bc b3 d0 22 3d be a6 dc 3d
       0.07171782 -0.009488396 0.039749812 0.10773991
000010 fc f3 7e bd 33 36 92 bd ff 91 e9 bc 6a ce ea bc
       -0.0622444 -0.07139244 -0.028512 -0.028662879
000020 f1 8a 1b be af 3b 20 3e 78 9d 47 3d d0 16 da 3c
       -0.1518972 0.15647767 0.04873416 0.026622206
000030 2e a6 fa bd 8f 32 23 be 39 f7 88 3c 44 e2 16 bc
       -0.122387275 -0.15937255 0.016719447 -0.009209219
000040 cb 58 9f 3e 4f 1c e4 bd 4a cb 9c bd a1 90 81 bd
       0.3112243 -0.11138212 -0.07655962 -0.06326414
000050 b2 6c cb bc 47 8b 7b bd 3c f8 56 bc 2f 88 90 3d
       -0.024832103 -0.061412122 -0.013120707 0.07057225
000060 c5 66 fc bd 81 73 21 3e 65 56 3b 3c 79 34 bd bd
       -0.12324289 0.15766717 0.011434172 -0.09238524
000070 19 b6 87 3d 97 34 f4 3d 75 41 11 3a 85 be 60 3d
       0.06626529 0.11924093 0.0005541065 0.054869194
000080 33 1c 2e 37 f5 af 05 be 1f cf c9 bd 24 52 0d 3e
       1.0377774e-05 -0.13055404 -0.09853958 0.13800865
000090 f2 80 09 3d dd c5 0c 3d 7b c7 b6 bb ac b6 b2 3d
       0.033570237 0.034368385 -0.005577979 0.08726248
0000a0 1e 9d a8 3d 90 cf c0 3b 13 80 62 3c 5c c3 23 3e
       0.08233093 0.0058841184 0.013824481 0.15992492
0000b0 b3 a7 32 3e ba 60 e2 bc 4d b1 33 3e d3 8e d6 3d
       0.17446785 -0.027634013 0.17548104 0.1047646
0000c0 65 3d c9 bc f3 f7 97 3d 09 b6 e0 bb 80 7f df 3c
       -0.024565408 0.074203394 -0.006857638 0.027282476
0000d0 c5 4b 8f bd fc f3 ed bc bd 51 c6 bd ea 68 31 3e
       -0.06996874 -0.029047005 -0.09683559 0.17325178
0000e0 85 05 ab bd 21 31 87 3c f2 d5 54 3b 3a fa 07 be
       -0.08350662 0.016502919 0.0032476154 -0.13279048
0000f0 c9 e9 88 bd 01 8b 90 bc 48 9c 56 3d 1c 51 a9 3c
       -0.06685216 -0.017644407 0.052395135 0.020668559
000100 ee b1 b8 bd f8 ff 54 bd 66 92 99 bd 15 e8 fc bc
       -0.090183124 -0.052001923 -0.074986264 -0.030872384
000110 fb a4 9a bd ba c7 3a bd 8a 73 03 3c 35 b2 af bd
       -0.07550999 -0.04560063 0.008023152 -0.08578912
000120 37 08 bd bd 2d 99 16 3d 87 4f 2d bd 79 c0 a7 3d
       -0.092300825 0.036767174 -0.04231217 0.08191008
000130 03 6c 4e bd 74 da 24 bc b9 d4 77 3c 1f bc ec bc
       -0.050395977 -0.010061849 0.015126401 -0.028898297
000140 64 59 3d bb fd f8 4b 3d 74 2c c0 bb 1b cb 10 bd
       -0.0028892392 0.049798 -0.005864674 -0.035349946
000150 61 df 4d 3d fd c1 ad bd 61 ec 2e 3d 6f bd 96 bd
       0.05026186 -0.08484266 0.042705897 -0.0736035
000160 55 18 35 3c cb bd 46 3d 9b 17 31 be 22 fe b5 3b
       0.0110531645 0.048520844 -0.17294161 0.0055539766
000170 59 09 08 be f1 71 8e 3c 87 43 a2 3c 6b ea 8a bb
       -0.13284816 0.017388316 0.01980759 -0.0042393706
000180 7e 96 9e 3d 00 03 5d 3d 9c 8a 10 3d 74 48 01 3d
       0.07743548 0.05395794 0.03528844 0.031563237
000190 9d 47 0c bd 47 e9 18 bc 27 e9 42 bd 71 6d a8 bd
       -0.034247983 -0.009332961 -0.047585633 -0.08223999
0001a0 ac 26 49 3d 8d fd 8c bd 38 44 65 3d d7 3c 1c bd
       0.049109146 -0.068842985 0.05597326 -0.03814396
0001b0 01 58 90 bc 8e 69 f7 3c 01 95 b0 3d 24 d9 45 bc
       -0.017620089 0.0302017 0.0862217 -0.012075696
0001c0 64 be 79 3c cd 6b f9 bd 69 5f b9 3d cd 74 5b 3e
       0.015243147 -0.121787645 0.09051401 0.21431275
0001d0 4a 65 1d 3d b7 b3 06 3e 38 87 b9 3c db 19 5b bc
       0.038426675 0.13154493 0.022647485 -0.013372864
0001e0 8a db 8c 3c 42 bb bb 3c da 40 b1 bd 54 bb 1c bd
       0.017194528 0.02291644 -0.086549476 -0.038264588
0001f0 0b af 00 be 5a e7 70 3e 27 9f 9a 3b 4a 53 3b be
       -0.12566774 0.23525754 0.0047186795 -0.18293491
000200 b6 9e 34 bd 33 1a ac bb 9b 96 53 be bf 5c a0 bd
       -0.04409667 -0.0052521466 -0.2066292 -0.0783019
000210 78 00 3e bd 0c a7 39 3e 35 f5 28 3d 9b 5b bc bc
       -0.046387166 0.1813013 0.041249473 -0.0229929
000220 6c a9 6c 3e 6c 47 10 be 7f 74 22 3d 05 9d f4 bd
       0.23111504 -0.14089745 0.03966188 -0.119440116
000230 30 18 bf 3c ef 54 24 bd 5a 45 31 3e 74 b7 4c 3e
       0.023326963 -0.04012006 0.17311612 0.19991857
000240 61 1f 49 3d e0 9f ab 3d 49 a2 bc 3d 14 b8 e7 bd
       0.04910219 0.08380103 0.09210641 -0.11314407
000250 2e 5a a2 bd 00 47 d2 3d b2 12 bd bd ec d2 1c bd
       -0.07927357 0.102674484 -0.092320815 -0.03828709
000260 d9 02 51 be 50 a0 26 bc ab 51 24 bd 18 48 6a bd
       -0.20411243 -0.010170057 -0.040116947 -0.05719766
000270 eb 82 d9 3d 10 6b 89 bc a9 74 19 3e f2 cc 5d bd
       0.10620674 -0.016774684 0.14985909 -0.05415053
000280 9e 72 8a 3d 9a ae e0 3c fd 73 62 bd fb 67 a6 3d
       0.06760143 0.027427007 -0.055286396 0.081253015
000290 34 c2 32 3e 65 d6 56 3c f8 d8 07 3e 39 40 05 3b
       0.17456895 0.013112639 0.13266361 0.002033247
0002a0 e4 91 1b bc 06 58 07 3d 96 58 a1 3d 39 17 96 3c
       -0.009495232 0.03304293 0.078782246 0.01832162
0002b0 41 73 ec bd 29 24 a5 3a c1 1c 0c 3c c7 c0 22 bd
       -0.115454204 0.0012599278 0.008551777 -0.039734628
0002c0 df e8 8a 3d 55 be f5 3c 34 df 9f 3d f7 f5 2d 3d
       0.06782698 0.029997984 0.078062445 0.0424709
0002d0 fe aa 9b bd 1b dd 5d 3d eb c2 82 3d 62 37 9b bd
       -0.076009735 0.05416594 0.06384834 -0.07578923
0002e0 e6 e2 23 bc e0 98 35 3e 1c 6e 8b 3d 88 3d 73 bd
       -0.010002827 0.17734098 0.06808111 -0.059384853
0002f0 b4 d4 e1 bd 11 af e2 bd 4c e4 e9 bd b4 4c 55 bd
       -0.11026898 -0.110685475 -0.11420497 -0.052075103
000300 58 47 94 3d 1f 09 05 bd 23 8f 0d bd 87 d1 64 3c
       0.0724017 -0.0324794 -0.034560334 0.013965971
000310 9c ad bf bc 7d af 20 3e 31 c3 be bd e4 15 f9 bc
       -0.023398213 0.15691943 -0.093145736 -0.030405946
000320 b1 30 53 3c b2 5d ce bd a9 d5 4f bd d0 f3 cd bc
       0.012890027 -0.10076465 -0.05074087 -0.025140673
000330 b1 ba 1e 3d 9e d4 11 be eb d1 6d 3e 45 1a fd 3b
       0.03875226 -0.14241263 0.23224609 0.007724079
000340 cf 7b 30 be b0 cf 03 3d 1a af 62 bc 2d 0f ea 3d
       -0.17234729 0.032180488 -0.013835693 0.11428676
000350 fa d0 16 bd ac 27 15 3c dd b3 db 3d 85 59 82 3c
       -0.03682039 0.009103697 0.107276656 0.015911827
000360 19 e0 82 3d 3e 4d d8 3d a2 f5 0a 3e 66 d7 c6 3d
       0.063903995 0.10561608 0.13570264 0.09709053
000370 90 67 4b 3e ce c9 3f 3d 8f ce e5 bd 93 7b f7 bd
       0.19863725 0.046823315 -0.112210386 -0.12084117
000380 be f4 69 bd ae 70 d0 3d c6 06 81 3d cf 1c 32 be
       -0.05711817 0.10177742 0.0630012 -0.17393802
000390 72 6e b7 3d 86 17 43 3d 85 e9 bc bd ee 87 3c 3e
       0.08956613 0.047629856 -0.09224228 0.18411228
0003a0 02 22 33 bd 86 35 7d 3d 6e c4 37 3d f6 41 ae bd
       -0.043733604 0.061818622 0.044865064 -0.08508675
0003b0 14 32 ea bc 7a 8c d8 bd c5 f6 d6 3b b7 0b b9 3b
       -0.028588332 -0.10573669 0.006560179 0.0056471485
0003c0 10 d0 3e bc d6 61 1c bc 57 75 50 bd 0d 71 c6 3c
       -0.011646286 -0.00954481 -0.050893154 0.024223829
0003d0 0f d6 c3 bd 2a 51 b7 3d 6b 57 be 3d 11 96 2c bb
       -0.09562313 0.08951028 0.092940174 -0.0026334564
0003e0 c1 b0 43 3d 47 69 d8 3c 35 1f ea bc 6d f7 90 3d
       0.047775988 0.026417388 -0.028579334 0.07078443
0003f0 70 49 07 3d 61 25 53 3d 3b 76 93 3c a7 bb 97 bc
       0.03302902 0.05154932 0.018000713 -0.018522097

network_body._body_endoder.seq_layers.2.bias f4 [128]
000000 86 41 99 3c 56 f4 a4 3c 24 9b a5 3c 10 e5 57 3c
       0.018708002 0.02013604 0.020215578 0.013177171
000010 f9 45 f8 3c 5f 24 d9 3c 03 60 51 3c a1 bd e2 3c
       0.030306803 0.0265066 0.012779239 0.027678313
000020 21 09 ef 3c 8f 20 28 3b 54 f6 b7 3b ed 21 64 3b
       0.029179158 0.0025654172 0.0056140814 0.003481026
000030 7e 00 4b 3c e3 32 fa 3b c0 8e 3d 3b b3 dc c0 3b
       0.012390254 0.0076354607 0.0028924197 0.0058856844
000040 a5 8c 39 3c c9 d8 18 3c 9e 6b d2 3c b1 24 d9 3b
       0.011325036 0.009329029 0.025686081 0.0066266884
000050 c9 cd ec 3c 3d c0 bd 3c 75 fd f1 3c 56 b4 97 3c
       0.02890672 0.023162955 0.029539803 0.018518608
000060 4c 51 ae 3c c6 40 6e 3c af 3c 38 3b 86 76 62 bb
       0.021279 0.01454181 0.0028112342 -0.0034555509
000070 6a e6 31 3d 07 ca 28 3d c0 19 69 3c f4 8f 98 3c
       0.04343263 0.041208293 0.014227331 0.01862333
000080 a1 51 b0 3c f0 37 90 3b ae be eb 39 99 4c ec 3c
       0.021523299 0.0044011995 0.0004496476 0.028845118
000090 e0 97 2e 3b bb 67 ab 3c c5 55 e5 3c de 74 82 3c
       0.0026640818 0.020923486 0.027995 0.015924867
0000a0 85 de ff 3c 26 92 59 3c 38 cd 19 3d 44 db b5 bb
       0.031234035 0.013279473 0.037549227 -0.00554982
0000b0 33 54 40 3c a7 33 93 3b 96 ae a7 bb 53 74 30 3b
       0.011738825 0.0044922414 -0.005117248 0.0026924803
0000c0 ff a2 99 3c 7f c0 94 3c da 4c 24 3c 01 79 67 3c
       0.01875448 0.018158196 0.010028088 0.014127971
0000d0 96 ba 5e 3c d2 e4 c1 3c 24 8d 13 3d 77 f0 42 3c
       0.01359429 0.02366868 0.036023274 0.011898152
0000e0 20 f2 e9 3c 4b 90 bd 3c de 97 f3 3b b3 d7 cd 3c
       0.028557837 0.023140093 0.0074338755 0.025127267
0000f0 0f db 6c 3c f6 97 c5 3c e4 0c 94 3c 30 ac b7 3c
       0.0144565245 0.024120312 0.018072553 0.022420973
000100 a0 25 88 3c 53 56 e7 3c c1 eb cc 3c e1 b3 4c 3c
       0.016619503 0.028239405 0.02501476 0.012494058
000110 65 48 0e ba 30 e4 c3 3c 27 e5 78 3c 9e c9 b3 3c
       -0.0005427658 0.02391252 0.015191353 0.021946725
000120 46 db fd 3b 00 cf 84 3c a1 80 1d 3d 0e ef e7 3c
       0.0077470867 0.016211987 0.03845275 0.028312232
000130 4e a9 6f 3c 65 64 ce 3c a8 04 00 3d e9 ed c5 bb
       0.014627768 0.025194356 0.03125444 -0.006040324
000140 e4 1a a3 3b 17 bf b8 3c 30 60 87 3c 9c 40 35 bb
       0.004977571 0.022552056 0.016525358 -0.0027656918
000150 29 a3 13 3b 23 a8 82 3c cf b6 28 3c 08 c3 7d 3c
       0.002252767 0.015949314 0.010297491 0.015488394
000160 13 2f d7 bb 2f 89 08 3c 91 52 cf 3c 29 fd 1e 3c
       -0.006566891 0.008333488 0.025307925 0.009703913
000170 03 a1 5e 3c 0d 69 2f 3d 95 41 c2 3c fd 4a 69 3c
       0.013588193 0.042824794 0.023712913 0.01423907
000180 b2 3c 4e 3c 33 df 09 3c f2 87 df 3c 2a 00 9e 3c
       0.012587713 0.008415031 0.027286503 0.019287188
000190 5b 5b 47 3c 8a c9 a8 3c 77 8c b6 3c 7c 07 8b bb
       0.012167777 0.020603914 0.022283776 -0.0042428356
0001a0 4e 86 13 3d 03 e7 f0 3c 37 0f a3 3c 95 c7 c1 3b
       0.036016755 0.02940703 0.019904716 0.0059136846
0001b0 03 5e c8 3c 2b 7a 8c 3b ba c4 2c 3c f0 6b ef 3c
       0.02445889 0.0042870245 0.01054495 0.029226273
0001c0 47 00 55 bc 72 84 f6 3c 6e c2 89 bb 78 5a 97 3c
       -0.013000554 0.030092452 -0.004204086 0.018475756
0001d0 72 65 d2 3b b6 f8 1b 3d 2c ae b0 3c b0 08 85 3b
       0.0064207846 0.038078986 0.021567427 0.0040598735
0001e0 21 5e 9c 39 5c bf 7f 3c d3 d3 6f 3c dd b8 8b 3c
       0.0002982477 0.0156095885 0.014637905 0.017055923
0001f0 33 4d e0 3b 13 9d db 3c 9f b2 b4 3c e3 72 f5 3c
       0.0068451404 0.026808297 0.02205783 0.029962009

action_model._continuous_distribution.log_sigma f4 [1, 2]
000000 f9 42 d3 bc 9b 47 85 bc
       -0.025788771 -0.016269496

action_model._continuous_distribution.mu.weight f4 [2, 128]
000000 23 2e 6e bb d3 18 76 3c 96 a9 46 3a 51 53 5d bb
       -0.0036343418 0.015020567 0.0007578371 -0.0033771584
000010 b6 28 1d bd 98 3b 8a bd 41 21 ab 3d 13 e0 f4 bc
       -0.038368903 -0.06749648 0.08355952 -0.029892003
000020 09 e1 17 bd e4 94 f0 3c 8e b3 1c bb 4b 1e 21 3c
       -0.037079845 0.029367872 -0.0023910734 0.009833883
000030 5b b7 7e 3c 92 7b 0a 3d 6e 99 d0 3b cc 74 07 3d
       0.015546645 0.033809252 0.0063659465 0.03307037
000040 db 7a ba 3c c9 42 08 bd 6a fc 9b bd 40 2a 2d ba
       0.02276366 -0.033266816 -0.076165035 -0.0006605722
000050 97 80 14 bd a9 f7 0e 3d f6 1e c3 bc d3 a9 de bc
       -0.036255445 0.034904156 -0.023818474 -0.027180588
000060 f3 3b 49 bd 16 3c 53 3b a6 e1 54 3d b7 b5 a3 3b
       -0.049129438 0.003223186 0.051973008 0.0049960273
000070 7a bb 28 bd 44 cf 24 bd 93 1f da 3b 05 a0 6e 3d
       -0.041194417 -0.040236726 0.006656596 0.058258075
000080 b2 6b b1 3c 9e 0f f5 bc 6e ed 11 3d 6c 7a 96 3c
       0.021657798 -0.029914673 0.03562682 0.018368922
000090 2c f2 8a 3d e8 ae e4 bb b1 8d 3c bd 53 61 04 bd
       0.06784472 -0.0069788583 -0.046033565 -0.032319378
0000a0 4d e0 37 3c b3 9c d2 3c 3a 6d d2 bd e1 90 a0 3c
       0.011222911 0.025709486 -0.102747396 0.019600334
0000b0 19 2d e7 ba c8 0a b3 3c 70 d0 18 3d e8 b1 8f 3d
       -0.0017637342 0.021855727 0.037308156 0.07016355
0000c0 45 83 4c 3c 0b f8 07 bd 0b 82 58 3c e1 7c e7 bc
       0.012482469 -0.033195537 0.013214598 -0.02825779
0000d0 7b f9 7f bc b4 9b 6f 3d f8 eb 97 bd 8a 12 e2 bc
       -0.015623446 0.0584981 -0.07418054 -0.02759673
0000e0 8f f2 93 3d 10 71 25 3d 18 91 46 3d 5a 21 aa 3c
       0.07223999 0.040391028 0.048478216 0.020767856
0000f0 ee 36 db 3c 25 67 ac 3a 3f b8 4f b8 54 02 f4 ba
       0.026759591 0.0013153298 -4.952424e-05 -0.0018616416
000100 8f 30 25 3d e9 f9 4f 3c 42 77 30 bd 38 15 81 3d
       0.040329512 0.012693861 -0.043082483 0.06302875
000110 74 3e f7 3b 79 d7 ec bb 38 f5 09 bc 84 d0 56 bc
       0.007545287 -0.007227835 -0.008420281 -0.013111237
000120 9b 54 de ba 89 ac 2d 3d 15 77 5e bd 0e 6d 72 bd
       -0.001696247 0.04240087 -0.054312784 -0.059186034
000130 cf 15 57 3d 65 18 00 bd 74 d3 2b bd 80 f1 e5 3c
       0.052511033 -0.031273264 -0.041949704 0.028069258
000140 28 25 34 3c 6c 67 5b bd 1a bd 05 bd 8e bf d9 3c
       0.010995187 -0.053565428 -0.032651044 0.026580598
000150 63 57 91 3c a8 79 70 bd 88 28 ef 3c 84 42 68 3d
       0.017741865 -0.05870977 0.029194131 0.05670406
000160 bb 37 5b 3c fd 18 fd bb 7b aa 86 bd 23 d7 9f bc
       0.013379986 -0.007723926 -0.06575485 -0.019511765
000170 72 b5 21 bd 61 ac 20 3c 35 f7 17 3c d1 fc 24 bd
       -0.03947968 0.009806723 0.009275247 -0.040280167
000180 11 75 0f bd f3 bd 0d 3d e8 b9 26 3d b7 0c e5 bc
       -0.035023753 0.034604978 0.040704638 -0.027960164
000190 1e ec b5 ba b6 62 02 bd b3 85 54 bd e9 d0 53 3d
       -0.0013879573 -0.03183242 -0.051885318 0.051712904
0001a0 d8 24 6d bc b6 f2 14 bd 97 9e b7 3d 1d 56 f5 3c
       -0.014474116 -0.03636428 0.089657955 0.029948289
0001b0 8d 4a 9a 3b b2 a5 92 3c 8f 81 8b bc 5c 50 3a 3c
       0.004708594 0.017901275 -0.017029552 0.011371698
0001c0 ff 33 a8 3a 27 91 26 bb a0 43 a7 bb 36 fa 09 3d
       0.0012832879 -0.0025416107 -0.005104497 0.033685885
0001d0 ff 4c 83 bc b7 ea 91 bd aa 0d 7d bc 05 56 27 39
       -0.016027926 -0.071248464 -0.015445152 0.00015958406
0001e0 15 56 90 3c a2 4a dd 3c 57 8f 4b 3b d1 65 c7 3c
       0.017619172 0.027013127 0.003106078 0.024340542
0001f0 1e 8e 91 3d 86 98 fa 3c 42 26 1b bd 50 97 3f bd
       0.07107185 0.030590307 -0.037878282 -0.046775162
000200 83 a8 48 3d 9a 7c 63 bd 08 33 22 bd ac 8e 2f bd
       0.04898883 -0.05553875 -0.03959945 -0.042860672
000210 d2 c6 75 bc f0 93 02 3d b4 37 79 3c 87 79 61 bd
       -0.015001016 0.031879365 0.015211035 -0.055047538
000220 29 7d 50 3c 53 56 06 3c 2b 76 2a 3d d7 c9 31 bd
       0.012725153 0.008199292 0.0416166 -0.04340538
000230 e5 c3 d4 3c 1d 22 02 bc b8 e5 9c bc 6b 99 e8 3c
       0.025972316 -0.007942704 -0.019152507 0.028393468
000240 56 8c 35 bd fb 20 88 bc 1a b6 ad bc 4f dc 1a 3d
       -0.044323288 -0.016617289 -0.021204997 0.03780776
000250 77 6b a2 3c 79 3b 8b bd c0 ed 7c bd 23 3c 93 3c
       0.019826634 -0.06798453 -0.061750174 0.017973011
000260 2b 56 91 bc 06 f0 25 3d 08 21 e6 3b 2c 57 ac bc
       -0.017741283 0.040512107 0.0070229806 -0.02103766
000270 5a 8e 3f bc 32 65 9e 3d 60 a6 1f 3d 58 5b 38 3c
       -0.011691654 0.07734145 0.038977027 0.011252247
000280 c4 cf 74 3d 15 0c 01 3d 9e f5 3a 3c bd 4c 78 bd
       0.059768453 0.031505663 0.011411099 -0.06062006
000290 09 46 c7 3c ee 8e 3d 3d 16 6f 3d 3d ca 3c 82 bd
       0.024325388 0.046278886 0.046248518 -0.06359251
0002a0 18 8a 8c bd cf 24 0a 3d d4 30 61 3c 4f 55 36 bc
       -0.06862277 0.03372651 0.013744552 -0.011128738
0002b0 9a 82 3c 3d 07 41 65 3c 6b 6c 41 3c 8a 07 b3 bc
       0.04602299 0.0139925545 0.011805634 -0.02185418
0002c0 c8 e3 27 3d 99 c5 39 3d 35 33 4a 3d c5 d9 28 3c
       0.040988714 0.04535446 0.04936524 0.010305827
0002d0 c9 12 3b 3c cc 4c 09 bc ae 70 26 ba 34 dc 7e 39
       0.011418053 -0.008380126 -0.0006349188 0.0002430536
0002e0 0b a9 d7 bc a5 e9 45 3d 85 f0 14 3d 22 4d 1b bd
       -0.026325723 0.048318524 0.03636219 -0.037915356
0002f0 f2 a1 48 bd 04 a9 22 3d 8b 4b 1f bd 84 fd 27 3d
       -0.048982568 0.039711967 -0.038890403 0.041013256
000300 65 57 45 3d 1f a6 88 3d f6 7e 84 bb d8 cf 16 bd
       0.04817905 0.0667231 -0.0040434552 -0.03681931
000310 4c af 15 bd 3d 16 27 bd d9 ee 61 bd 24 fe c1 bc
       -0.03654413 -0.040792692 -0.055159424 -0.023680754
000320 45 2b 51 bd fa ca 13 bd 82 6c 99 bd 9d 0f 14 3c
       -0.051066656 -0.036082245 -0.07491399 0.009036926
000330 3c d7 d6 3b d4 3c 20 3d 5f 6e 29 3d 40 96 86 bc
       0.0065564197 0.03912051 0.041365024 -0.016429067
000340 fa 4b b4 3c 3a ff be bb ac 73 06 bb bd 4d 5b 3b
       0.022008885 -0.005828765 -0.0020515723 0.0033463084
000350 7f 48 c9 bc 0b 43 ea bb f1 2b 81 3c ca 55 44 bd
       -0.024570702 -0.0071491054 0.015768023 -0.047933377
000360 52 9d b5 bb 39 99 01 3d 5d dc e3 bc 10 6b f6 bc
       -0.0055424357 0.031640265 -0.027815038 -0.030080348
000370 d8 fc 1d bc 0e a0 af bd a5 e7 a5 bc 73 e6 0d 3c
       -0.009642802 -0.0857545 -0.020252058 0.0086609
000380 3a fc 3c 3c f8 d1 06 bd e3 45 f7 bc 00 8f 6d bc
       0.011534745 -0.032915086 -0.030184692 -0.014499426
000390 12 60 26 3d d1 aa 2a bd 64 44 56 bd c5 7a 09 bb
       0.040618964 -0.04166681 -0.052311316 -0.0020977717
0003a0 f5 35 39 bd a8 27 1a bd c3 26 ab 3c 58 2d 5f bc
       -0.045217473 -0.037635475 0.020892506 -0.013621651
0003b0 b7 81 3a 3d d5 f3 19 bd 0c ff fc 3c a4 cf 3f bd
       0.045533862 -0.037586052 0.030883335 -0.04682888
0003c0 21 08 81 bb 35 da 89 3d f1 a4 2c bd 44 93 14 bd
       -0.0039377366 0.06731073 -0.042149488 -0.036273256
0003d0 13 c8 fa 3c 7a 4f 1c 3c b9 c7 a0 bd b8 51 c6 3c
       0.030612981 0.009540433 -0.07850594 0.024208888
0003e0 96 24 b4 3b 16 a5 00 3d 50 14 d0 3c 96 d2 2d bd
       0.0054975254 0.03140744 0.02540031 -0.04243716
0003f0 27 14 06 bc 74 0f 93 3d 00 0d 4e 3c 4c 99 4c 3c
       -0.008183516 0.07180682 0.012576342 0.012487721

action_model._continuous_distribution.mu.bias f4 [2]
000000 5a 3b e6 bb 37 91 34 b7
       -0.007026118 -1.07626465e-05

60 f4 [28]
000000 2d b0 84 3e 04 53 fe 3e bd 3c f7 3e 55 8d a3 3e
       0.2591566 0.4967271 0.48288527 0.31943765
000010 25 d9 83 3e 78 a5 fe 3e 71 24 f8 3e c2 c5 a3 3e
       0.25751606 0.49735618 0.48465303 0.31986815
000020 02 1c 83 3e b9 85 fe 3e 64 f4 f7 3e 76 71 a3 3e
       0.25607306 0.49711397 0.48428643 0.319225
000030 35 88 7f 3e c1 97 ff 3e d5 51 fb 3e c5 62 a3 3e
       0.24954303 0.49920467 0.4908587 0.31911293
000040 c9 39 80 3e f1 95 ff 3e e9 3f fb 3e e4 19 a3 3e
       0.25044087 0.49919084 0.49072197 0.3185569
000050 e1 29 76 3e 51 f9 ff 3e 57 88 fd 3e ec 51 a2 3e
       0.24039413 0.499949 0.49518082 0.31703126
000060 93 49 76 3e a1 f5 ff 3e 3d 68 fd 3e 3a de a1 3e
       0.24051504 0.49992087 0.4949359 0.31614858

63 f4 [15]
000000 67 e2 5a 41 fb eb 28 3b ef c1 54 41 e2 b4 80 41
       13.680274 0.002577542 13.297347 16.088322
000010 fb eb 28 3b 95 d7 8c 41 3f 5b 32 3f fb eb 28 3b
       0.002577542 17.605265 0.6967048 0.002577542
000020 64 5b 37 3f ad 4f 4f 41 6d cb ca 41 10 20 31 40
       0.71623826 12.956952 25.349329 2.767582
000030 62 3b 37 3f fb eb 28 3b 6a 26 32 3f
       0.71574986 0.002577542 0.69589865
