Assets/NN Models/MyBehavior 1.onnx (onnx, 92507 bytes, 11 tensors)

network_body.observation_encoder.processors.0.normalizer.running_mean f4 [28]
000000 50 95 5d 3d 3b f1 18 3f ba 4d b2 3e 30 46 43 3f
       0.054097474 0.5974309 0.34824926 0.7627897
000010 81 44 54 3d 7e 79 16 3f a4 69 b8 3e 74 35 45 3f
       0.051823143 0.5877913 0.36018097 0.7703469
000020 e4 75 54 3d 74 37 17 3f c9 e2 b6 3e 09 22 45 3f
       0.05187024 0.5906899 0.35719898 0.7700506
000030 a0 0c 3d 3d e8 ad 08 3f 78 e7 d6 3e 0e 65 49 3f
       0.04615462 0.5339036 0.41973472 0.7866982
000040 19 a0 3b 3d 71 40 0a 3f 76 e5 d3 3e c2 05 49 3f
       0.045806978 0.5400458 0.41386002 0.7852441
000050 65 bc 1e 3d fe e8 f6 3e 6d 24 f5 3e 61 68 4f 3f
       0.038753886 0.48224634 0.47879353 0.81018645
000060 a3 86 1b 3d 14 10 fa 3e 62 66 f2 3e c9 e2 4e 3f
       0.037970196 0.48840392 0.47343737 0.80814797

network_body.observation_encoder.processors.1.normalizer.running_mean f4 [15]
000000 48 0a 08 3f b7 b2 d5 33 f3 76 07 3f 22 53 27 bf
       0.5314069 9.9510935e-08 0.5291588 -0.65361226
000010 00 00 00 00 b8 e0 64 3f f9 0f a9 bc ce 1f be b1
       0.0 0.89405394 -0.0206375 -5.5333436e-09
000020 9c 57 63 bc 96 68 86 41 e8 4f c5 42 20 7a 00 41
       -0.013875868 16.801067 98.65607 8.029816
000030 62 bd 20 3b 00 00 00 00 f8 d3 45 3d
       0.0024526943 0.0 0.048297852

network_body._body_endoder.seq_layers.0.weight f4 [128, 43]
000000 a9 c1 1b 3e 7a 3b 0c 3d aa 8a 04 be 22 0f 86 be
       0.15210594 0.03423641 -0.12943521 -0.2618342
000010 69 e2 1e be dd be 59 3e 4c 8d 8b 3e 89 de eb bb
       -0.15516056 0.21264215 0.27256238 -0.007198159
000020 ec ce 2b 3e 35 d4 29 3e 47 15 db bb 33 17 f5 3d
       0.16778153 0.16584857 -0.006685886 0.119673155
000030 74 f3 bb 3c 92 54 3f 3e 14 41 2d 3e 0c d6 12 3e
       0.022943236 0.18684605 0.16919357 0.14339465
000040 16 de e4 bc da 0b 7b 3a f4 94 d8 bd 20 ed 80 ba
       -0.02793793 0.0009576656 -0.105752856 -0.0009836294
000050 ef 77 d5 bd 5f 01 49 3c 52 0a cc be 26 2d b0 bc
       -0.10423266 0.012268393 -0.39851624 -0.021505903
000060 2f 0c 76 be e1 34 7b 3e ca c7 75 be f7 26 ee 3c
       -0.24028085 0.2453189 -0.24001995 0.029071314
000070 71 19 74 3c b5 9c 47 be 82 c7 37 3e ab df df 3a
       0.014898644 -0.19493373 0.179472 0.0017080208
000080 4b 4d ef bd c8 8f e2 bd 32 a1 a9 3d a4 26 09 be
       -0.11684664 -0.1106258 0.08282699 -0.13393646
000090 8f ae 43 be e3 e8 57 bd 5c d8 e2 3d d4 c2 69 be
       -0.19109558 -0.052712332 0.110764235 -0.22828227
0000a0 3b aa 0d bb 07 d9 67 3c 4c cf 37 3e fc f8 fc bc
       -0.0021616358 0.014150864 0.17950171 -0.030880444
0000b0 b7 17 d7 bd 9b 75 26 bd 1d 71 f6 bc 42 8a 3e be
       -0.1050257 -0.0406395 -0.030083233 -0.18607429
0000c0 13 ed 92 3c 79 c0 0a 3e f0 26 84 bd 6c 4a 00 3e
       0.017935311 0.13549985 -0.06452739 0.1252839
0000d0 90 29 9d 3d fb 8b 6a 3e 22 47 08 be a3 12 80 be
       0.07673943 0.22904961 -0.13308385 -0.2501422
0000e0 f9 29 01 3b 56 49 19 be ed 97 3b 3d 8b 05 5e be
       0.0019708856 -0.14969382 0.045799185 -0.21681802
0000f0 a6 df 50 3d f6 89 9c 3c 44 94 c8 3d 85 85 e9 bd
       0.050994538 0.019108754 0.097939044 -0.1140242
000100 80 5a b8 3e ca cb c4 3d 44 ed 88 3d 94 21 60 be
       0.36006546 0.09609182 0.0668588 -0.21887809
000110 98 eb 09 be 9d 6d c1 bc 42 89 3b 3d 48 b9 20 3e
       -0.13468778 -0.023611838 0.045785196 0.15695679
000120 ef 58 4b be 55 fb 32 bd 79 9d 30 3e c6 1a 1f be
       -0.19858144 -0.04369672 0.17247571 -0.15537557
000130 7e 64 2b 3e 25 3e 4b 3d 04 95 b6 bc ad c6 92 3e
       0.16737553 0.049619813 -0.022287853 0.28667203
000140 cd bb 8b bd 99 db 76 3e 94 ed 90 bd 97 9b 45 3d
       -0.068229295 0.24107207 -0.070765644 0.048244085
000150 7d ff c5 3c 10 2c a2 3e 74 72 28 3e 74 63 97 bd
       0.024169678 0.31674242 0.1644991 -0.07392016
000160 b2 a7 19 3d 50 fd a0 3c 3a 65 a4 3d 23 4f e4 3d
       0.037513442 0.019652039 0.0802712 0.11147907
000170 c8 d6 9b 3d e6 47 25 3e 20 8d a7 3d 89 30 32 3e
       0.07609326 0.16140708 0.08181214 0.17401327
000180 5b e2 2c be 80 b8 da 3d c7 b0 1d 3e d0 e5 69 be
       -0.16883223 0.10679722 0.15399466 -0.22841573
000190 b5 bd 0e 3d de 84 76 be 6c aa 49 3e 0f 0b b8 bc
       0.034848887 -0.24074122 0.19693917 -0.02246621
0001a0 87 59 0f bd 81 4e 60 3e c9 68 4b 3e 1d 2b 5c 3e
       -0.03499749 0.21904947 0.19864191 0.21500821
0001b0 a2 67 d9 3d 1b 21 de bd 70 ec ab 3b a6 2b aa be
       0.106154695 -0.10846158 0.0052466914 -0.33236426
0001c0 6d 36 37 3e cb 21 20 3e a6 8c fe bd 98 22 3e be
       0.17891856 0.15637891 -0.1242917 -0.18567884
0001d0 64 d0 61 be 45 59 8a 3d 9a 9b 03 3d 74 e7 a9 be
       -0.22052151 0.06755308 0.032130815 -0.33184397
0001e0 5f a2 49 3e d1 89 b1 3d 13 c0 21 be db 01 79 be
       0.19690846 0.086688645 -0.15795927 -0.24317114
0001f0 c9 89 c9 bd 73 26 54 be 7f ea 1a 3e 53 5a 04 3e
       -0.098407336 -0.20717792 0.15128516 0.12925081
000200 0d 8b 0d be 49 7a 29 3d dd c0 23 3c 92 c2 8b 3e
       -0.13822575 0.041376386 0.009994713 0.27296883
000210 cc 2e 45 bd ec c0 3e 3c 2e 38 cc bd cd 90 3b bd
       -0.048140332 0.011642676 -0.09971653 -0.04579239
000220 24 fc 2f 3e 3c 5f 14 3d 76 93 a2 be 29 56 07 bd
       0.17186028 0.036223635 -0.3175313 -0.033041153
000230 7e 6f a7 3d f5 1b 7b 39 2b 76 d4 3d c0 82 c1 3d
       0.08175562 0.0002394764 0.10374101 0.09448767
000240 c0 fe 66 3d 07 f3 2a bd b2 c7 16 3e a4 81 bd 3c
       0.056395292 -0.041735675 0.14724615 0.023133107
000250 94 96 41 bd 53 87 7f be 3d 71 db 3d f4 6d 1d be
       -0.047262743 -0.24953966 0.10714958 -0.15373975
000260 93 fd 08 3e 09 7e e2 bd 3f 4b ff 3d 9f 27 42 3d
       0.13377981 -0.110591955 0.12465524 0.047401067
000270 a1 8f 92 bd ac 14 4d bd d6 ed c4 bd 1c 05 1a 3d
       -0.07156301 -0.050068542 -0.09615676 0.03760253
000280 5e ce fc bd da 88 15 bd 36 16 ef 3d f4 08 cf 3d
       -0.12344049 -0.036507465 0.11674158 0.101091295
000290 ce 76 bc bd 72 21 4f be 4e e1 2e 3d 34 39 62 3d
       -0.09202348 -0.20227602 0.042695336 0.055230334
0002a0 d5 03 56 be 7c ba 49 be 31 10 86 be 46 64 f1 3d
       -0.208999 -0.19700044 -0.26184228 0.11786704
0002b0 eb 2b 48 3e a6 ce 92 3d 70 22 22 3c fe 23 e0 bc
       0.19548003 0.07168321 0.009895906 -0.027360912
0002c0 1a 28 df bc f1 aa 3e 3e 96 d7 80 3c 31 bb 4b bd
       -0.027240802 0.18619896 0.0157278 -0.049739067
0002d0 51 64 0d 3d 32 16 b7 be 0b ab bd 3d dd de 11 3e
       0.034519497 -0.3575912 0.092611395 0.14245172
0002e0 4b cb 64 bd 53 8e df bd 96 83 95 bd 74 2c bf 3c
       -0.055857938 -0.10915818 -0.07300489 0.023336627
0002f0 a3 e5 3e 3d 15 a4 0a be 15 2b 01 3d 33 65 0e 3e
       0.046605717 -0.13539155 0.031535227 0.13905792
000300 5a dd a9 bd a2 a4 ad bd 4b 3b 49 3e 3b 25 69 3e
       -0.082941726 -0.08478667 0.19651525 0.22768109
000310 ce b2 a3 be ab 1a 9c be f9 d6 16 be a7 1f d9 bd
       -0.31972355 -0.30489096 -0.14730443 -0.1060174
000320 86 1c bf bd fb e9 99 ba 25 22 6a 3e 35 0f 06 3e
       -0.09331612 -0.0011742705 0.22864588 0.13091739
000330 a5 de cb bc 5b e4 c7 bd f7 4c 82 3e 40 d9 2a 3e
       -0.024886439 -0.09760352 0.25449345 0.16684437
000340 80 75 c0 be 76 6f b1 be cb 24 20 3e de f2 cc 3d
       -0.37589645 -0.3465535 0.15639035 0.10007261
000350 1f 31 71 be 23 45 12 3e c2 fb 80 3e a5 db 7f 3e
       -0.23553894 0.14284186 0.25192076 0.24986131
000360 da 90 4e bd 8e 1d c3 3d 98 1c 2a 3e fa a4 ac bd
       -0.05043111 0.095271215 0.1661247 -0.08429904
000370 cd f8 10 be af b8 07 be ac 95 4b be 18 8e 6a bd
       -0.1415741 -0.13254045 -0.19881314 -0.057264417
000380 76 1e 52 3e 6d 40 81 be 29 3e b1 be 63 5b cf be
       0.20519432 -0.25244465 -0.34617737 -0.4049941
000390 72 aa 42 be db e2 3d bd 73 22 dd 3a 7a 64 e5 bd
       -0.19010332 -0.046358924 0.0016871229 -0.11200805
0003a0 11 bf 44 bb e9 75 0a be 33 99 39 3e 1c 30 ef 3d
       -0.003002111 -0.13521542 0.18124847 0.11679098
0003b0 47 04 0b 3d f6 f4 0b be a4 03 11 be a9 83 cc 3c
       0.033939626 -0.13667664 -0.14161545 0.024965124
0003c0 4f b0 0a be d5 65 e8 3d 0d e9 35 bc a7 2d 11 3e
       -0.13543819 0.11347548 -0.011102927 0.14177571
0003d0 99 b4 ca 3d 1d 63 84 3e 46 d8 a9 3e e7 23 83 be
       0.098977275 0.25856867 0.33172816 -0.2561333
0003e0 df f1 c0 3d e6 73 ad be e0 72 2f 3e c2 2e 0a be
       0.09421133 -0.33877486 0.17133665 -0.13494399
0003f0 fc b3 b5 bd 96 47 34 be 15 78 56 bc 1c 38 0b be
       -0.0887222 -0.17605433 -0.013090153 -0.13595623

network_body._body_endoder.seq_layers.0.bias f4 [128]
000000 98 de 59 3d 53 27 0f 3c aa 25 0a 3c 71 62 35 bc
       0.053190798 0.008737403 0.008431831 -0.011070834
000010 13 9d 13 3c 86 6e 2f 3d 88 7f 40 3b b5 63 d3 3c
       0.009009617 0.042830013 0.002937289 0.02580438
000020 bc 87 ff 3c b7 74 31 3d 6f ca f0 3a ca 65 a9 3c
       0.031192653 0.0433242 0.0018370877 0.02067842
000030 e9 d9 13 3d 60 6e 46 3c 65 ca b5 3c 03 14 2f 3c
       0.036096487 0.012111276 0.022191236 0.0106859235
000040 4c 04 e7 3c ce 39 0d 3d fe 0c ca 3b cb 29 70 3c
       0.028200291 0.034478955 0.0061660996 0.014658402
000050 9b 37 06 bb d8 23 a4 3c d4 9f eb 3c 35 a6 ef 3c
       -0.002047992 0.020036623 0.028762735 0.029254058
000060 dc 73 ff 3c 50 f1 29 3c 1c 30 63 3c 59 e8 3b bc
       0.031183176 0.010372475 0.013866451 -0.01146897
000070 85 8f 88 3c 6d f8 5a 3d ae e1 26 3c 49 e4 cc 3c
       0.016669998 0.053459574 0.010185642 0.025011199
000080 ee 27 55 bd 6d 7b f6 ba d2 fc 87 3c e6 e4 62 3c
       -0.052040033 -0.0018805094 0.016600046 0.013848519
000090 5a 9a d1 3a 33 19 35 3d 04 03 74 3c eb ee 07 3d
       0.0015991435 0.044213485 0.014893297 0.033186834
0000a0 da 0d bc 3c 78 ef ab b9 4a ba 77 3c 28 27 1f 3d
       0.022955824 -0.0003279408 0.015120098 0.0388557
0000b0 0f 17 c8 3c fe 78 04 3d ca fd 0a 3d ca 08 39 3d
       0.024425058 0.03234195 0.03393344 0.045174398
0000c0 ed 83 9f 3c e2 14 3a bb a7 80 20 3d ba 51 1b bc
       0.019472087 -0.0028393795 0.039185192 -0.009479934
0000d0 0f eb c7 3c 98 0e 92 bc 54 8c 61 3d 6f e6 d1 3c
       0.024404077 -0.017829224 0.055065468 0.025622575
0000e0 15 69 20 3d 15 6b 12 3d b3 03 1a 3d d1 92 49 3d
       0.039162714 0.035746653 0.037601184 0.04921228
0000f0 05 af 94 3c 49 b1 aa 3c 8d f3 85 ba 5f b6 ff 3c
       0.018149862 0.02083649 -0.0010219679 0.031214891
000100 e8 91 4e 3d b0 4a 47 3d 34 eb 9f 3c 6e f0 02 3d
       0.050432116 0.048655212 0.019521333 0.031967573
000110 6e 1f 3f 3c 58 4c 6b 3d 62 64 55 3d 2b d1 3e 3d
       0.011665208 0.057445854 0.052097686 0.046586197
000120 38 c0 db bb 2f 51 d8 3c 3d be f1 3c 89 ab d1 3b
       -0.006706264 0.026405899 0.029509658 0.0063986224
000130 48 45 33 3d 55 1c b2 3b 36 cf 7e 3c 2b 6a 0f bd
       0.043767244 0.0054355063 0.015552333 -0.03501336
000140 67 00 06 3a 0d 90 80 3d 14 c9 34 3d 49 af 2c 3d
       0.0005111754 0.062774755 0.044137076 0.042159352
000150 96 17 4a 3d cc c1 08 3d 6e ef 0a 3d d6 fb 00 3d
       0.0493389 0.033387944 0.033919744 0.03149017
000160 ed a4 a1 3c 72 d3 0b 3d c3 26 a2 bc 4b 81 5e 3c
       0.019731963 0.034137197 -0.019793874 0.0135806305
000170 29 c9 12 3d d9 60 8e 3c c6 37 06 3d c7 c6 72 3c
       0.035836373 0.017380165 0.032768033 0.0148179
000180 20 13 87 3c 6f bf e2 3b 4d 78 59 3d f4 df da 3c
       0.016488612 0.0069197933 0.053093243 0.026718117
000190 8a 85 0d 3d c5 02 83 3c 89 ff f1 3c e9 bd be 3c
       0.03455118 0.015992532 0.029540794 0.023283916
0001a0 56 fa c6 3c f8 f5 31 3d 2f f0 41 3d 5a f0 b3 3c
       0.024289291 0.043447465 0.047348198 0.021965194
0001b0 9b aa 56 3d c0 a2 8b 3b 40 fc d0 bc 32 d2 39 3c
       0.052408796 0.0042613447 -0.025510907 0.011341618
0001c0 6b f9 af bc 4b 92 08 3d 11 d6 42 bc 0c 06 49 3c
       -0.021481236 0.03334264 -0.011891858 0.012269508
0001d0 0f b3 f1 3c 6f a9 03 3d b2 b4 04 bc bc eb d7 3c
       0.029504327 0.032144006 -0.008099722 0.026357524
0001e0 27 c6 db 3c 57 94 22 bb c5 f8 20 3d 0c 47 31 3d
       0.026827885 -0.0024807656 0.039299745 0.043280646
0001f0 bd a4 0c bd f1 22 c3 3c 1b 50 00 bd 44 c3 4a 3d
       -0.034336794 0.023820372 -0.031326395 0.049502626

network_body._body_endoder.seq_layers.2.weight f4 [128, 128]
000000 63 1f ad 3d ad 83 51 bd fb f2 43 bc 07 08 0b 3e
       0.08453252 -0.051150966 -0.0119597865 0.13577281
000010 fa a1 18 bd 19 5a 3a 3e 55 2d cc bd 4c d0 21 be
       -0.037263848 0.18198432 -0.09969584 -0.15802115
000020 07 08 31 3d 01 27 d7 bd b4 ab cd 3d 4c 83 bd ba
       0.043220546 -0.10505486 0.100425154 -0.0014458685
000030 9c 0e 1f 3d bd 5f 27 3b f6 51 29 be cd 0c 23 3d
       0.038832292 0.0025539242 -0.16535172 0.03980713
000040 80 df ff 3c 67 fb e7 bb 53 cf 80 bd 9d 7c a8 3d
       0.031234503 -0.00707953 -0.06289544 0.08226893
000050 36 25 97 bc 32 9a be bc 6e 77 fc bd 75 71 f0 bd
       -0.01845036 -0.023266885 -0.12327467 -0.1174039
000060 99 a8 47 3b 73 8e 56 bc a4 a2 97 3d c9 aa b8 b9
       0.0030465482 -0.013095486 0.07404068 -0.0003522246
000070 f9 80 b4 bd 65 e3 69 3d 47 f2 0c 3e e7 68 3f 3c
       -0.08813662 0.057101626 0.13764296 0.0116827255
000080 ba 01 72 3d 6a e0 9a 3c 1a 9e ef 3d a3 b5 17 ba
       0.059083678 0.018905837 0.11700077 -0.0005787259
000090 ba 47 fb bc 3e 21 33 bd 57 7e 1d bd cb c9 be 3d
       -0.03067385 -0.043732874 -0.038450565 0.09315833
0000a0 d4 28 55 be 5c 4c c6 3d 7d c4 4c 3c 84 92 90 bc
       -0.20816356 0.09682533 0.012498018 -0.01764799
0000b0 3f 9f 63 3d 15 ea e6 3d b1 f6 10 be 6c d7 5b 3d
       0.05557179 0.11275116 -0.14156605 0.05367224
0000c0 a2 4d 0c 3d 3d 79 df 3c 6b 36 36 be 3e 30 0d 3e
       0.034253724 0.02727949 -0.17794196 0.13787934
0000d0 29 e9 9e bd 61 2a 80 3e c0 19 74 bd 7b 11 52 bd
       -0.077593155 0.25032333 -0.05959487 -0.051286202
0000e0 cc dd 63 3d ce 43 b8 3d 3f 85 4f 3d a9 7f 2e 3c
       0.055631444 0.08997308 0.050664183 0.010650554
0000f0 2e bc 95 bd 40 33 16 3e 18 a9 e0 3d 50 83 cd 3d
       -0.07311283 0.14667988 0.10969752 0.100348115
000100 06 3f 01 be 15 8b 28 bb f2 58 d1 bd a6 00 e7 bd
       -0.12621698 -0.0025717665 -0.10222043 -0.112794206
000110 3e e3 97 3c e1 f3 06 be 77 64 f3 3d 90 62 a8 3d
       0.018540975 -0.1317897 0.118843965 0.08221924
000120 42 f6 83 bd 4e f6 51 3e cb 9a 5d 3d 32 e8 22 3d
       -0.06443454 0.20504114 0.0541027 0.03977222
000130 ca 9b 47 bd e7 e3 27 bd 2f f4 82 bc 70 c4 55 3d
       -0.048732556 -0.04098883 -0.015985576 0.05218929
000140 7f 9e de bd 84 6e e7 bc e4 fb 08 be 36 91 6e 3d
       -0.108700745 -0.02825094 -0.13377339 0.058243953
000150 44 0a 03 be f8 45 42 3c f9 c8 10 be c0 e2 bc 3d
       -0.12796885 0.011857502 -0.14139165 0.09222937
000160 a9 7f 01 3c 3d a3 84 be 8c 61 63 3d f7 e1 1a 3d
       0.007903972 -0.2590579 0.05551295 0.037813153
000170 f7 ae 9c 3d 27 d3 f2 bc e9 49 3c bc 1f 95 d6 bc
       0.076505594 -0.0296417 -0.011492231 -0.026194153
000180 10 c3 8b bd 06 ab 1f 3e 3a a3 e7 3d 5e f8 41 bc
       -0.068243146 0.15592584 0.1131043 -0.0118390005
000190 08 a5 31 3c b6 fb 7b 3d 8c 0b f7 bd 3f ce 42 3d
       0.010842569 0.061519347 -0.12062749 0.047559973
0001a0 06 a1 35 be 2d c9 27 3d 56 d1 42 3d 21 4b 12 bd
       -0.17737207 0.04096334 0.04756292 -0.03571618
0001b0 29 95 82 3e eb d6 3c bd 27 6f 03 be 7a 46 00 b9
       0.25504425 -0.0461034 -0.1283537 -0.00012233286
0001c0 e5 20 bb 3d 65 db c3 bd 99 36 e7 bc 59 dd 8a 3d
       0.091371335 -0.095633306 -0.028224276 0.067805
0001d0 c8 86 62 3a bf 86 bd bc 41 74 49 bd 03 46 45 bd
       0.00086413 -0.023135541 -0.049183134 -0.04816247
0001e0 ed 52 d1 3d 91 55 ec 3c a3 d9 7c 3d b4 67 0e be
       0.10220895 0.028849395 0.061730992 -0.13906747
0001f0 17 1c 7d 3d f3 40 e7 3d 6b 78 4b be c0 b7 ca bd
       0.061794367 0.11291685 -0.19870155 -0.09898329
000200 c3 66 b4 3d b3 4d f8 bc 43 4c be 3d 3c 39 11 3c
       0.08808663 -0.030310487 0.092918895 0.008863743
000210 d6 59 ab 3d 89 3d 70 bd c6 86 73 3d 24 01 81 3d
       0.08366744 -0.058652434 0.0594547 0.06299046
000220 9d d7 9c bd 00 00 0d be 5e cc e4 bc 46 d8 85 bd
       -0.076583125 -0.13769531 -0.027929481 -0.065353915
000230 ca 4e 03 3d c9 96 02 3e 02 69 85 bd b6 f3 43 bb
       0.03205756 0.12752832 -0.06514169 -0.0029899902
000240 70 b7 d8 bd 14 cc 3d bd 47 aa cc 3d ee c6 de bc
       -0.10581863 -0.046337202 0.09993415 -0.027194466
000250 3e f8 80 bc a3 c4 c6 3d 70 73 1c 3e 1e 1f 80 bd
       -0.015743371 0.09705474 0.15278411 -0.06255935
000260 16 4f 4d bc fc 4c eb bd 6a 0b e8 3c ec 17 02 be
       -0.012531063 -0.11489293 0.028325755 -0.12704438
000270 aa 66 5c 3d f5 9a 13 bc 50 8a c6 bd cb 41 dd bb
       0.053808846 -0.009009113 -0.0969435 -0.006752228
000280 12 64 fc bc 51 58 ff 3d e4 96 0e 3d 2c 9a cc 3d
       -0.030809436 0.12468017 0.03481187 0.099903435
000290 2c 8c a4 3d a4 c6 32 3d d7 43 32 3e 39 90 fb 3c
       0.08034548 0.04364647 0.17408691 0.03070842
0002a0 cb 73 f9 bc 31 3c 7e 3c 05 c8 29 3e 9d dc c2 bc
       -0.030450722 0.01551728 0.16580208 -0.023786837
0002b0 ae 7e 19 3d 49 27 24 3e 25 75 97 3d 1e 7f 4f 3e
       0.037474327 0.16030611 0.073953904 0.20263335
0002c0 3e 89 42 be c4 98 b4 3d 9e 46 7d 3c cb 2c 49 be
       -0.18997666 0.088182 0.015458731 -0.19645993
0002d0 50 ac a0 bb a5 39 33 3d 46 1c 13 3c f1 27 3e 3d
       -0.0049033538 0.043756146 0.008978909 0.04642481
0002e0 34 e1 c6 ba 0d 93 d6 bc db ef 9b bd 06 7f 84 3d
       -0.0015173317 -0.026193166 -0.07614108 0.0646954
0002f0 3f 69 05 3e 0d bd 8e 3d 68 59 aa 3c 28 38 4d bc
       0.1302843 0.06969652 0.020794585 -0.012525596
000300 ba 03 66 3d 5a fe 0f 3e ad 49 47 3d b1 4a 59 be
       0.056155898 0.14061871 0.048654247 -0.21219899
000310 27 c0 8e bc 60 b5 ba bd 5d 83 ec bc 0d 18 8f 3c
       -0.01742561 -0.09116626 -0.028871233 0.017467523
000320 ff a4 57 be e8 f6 f4 3a fc ef c7 3d 2b 2b 89 3d
       -0.21059035 0.0018689306 0.0976257 0.06697687
000330 c8 63 a3 bc c4 45 90 3d 0d 82 1a bb 64 7a 87 3d
       -0.01994504 0.07044557 -0.0023576051 0.06615141
000340 7f a8 1e 3e 95 ec 92 bd 93 27 83 be b8 08 a3 bd
       0.15493964 -0.07174031 -0.2561613 -0.07960647
000350 27 0e 50 3e bd c2 2c 3d 4d 75 ce 3c 46 83 1d be
       0.20317899 0.042177904 0.025202418 -0.15382108
000360 a8 9f 34 bd e3 50 33 3e 21 c1 bb bd 2d 48 2b 3d
       -0.044097573 0.17511325 -0.09167696 0.04181688
000370 8e 7a 4f 3d 6b 36 16 3e 03 af 09 3e a9 24 bc bd
       0.050653987 0.14669196 0.13445668 -0.0918668
000380 28 5b 1d 3d dd 75 e9 3d 8c b1 28 3c d6 a3 f5 bc
       0.03841701 0.11399434 0.010296237 -0.02998535
000390 b1 ec 56 bd 62 73 06 3d b9 9b 9e 3d c3 e2 5e bd
       -0.05247182 0.03282488 0.077445455 -0.054415476
0003a0 17 ec 6d 3d cb e4 07 bd 21 90 6b bd 55 0b b2 3d
       0.05808648 -0.03317718 -0.0575105 0.08693568
0003b0 e6 3f 26 3b e2 2e 2b bd 38 72 05 3d 7c fe fe bd
       0.0025367676 -0.041792758 0.03257963 -0.12450883
0003c0 9d 45 da 3d ed 12 90 bd f5 cc 0f 3d b1 54 17 be
       0.10657809 -0.0703486 0.03510757 -0.14778401
0003d0 ea c4 60 bd 2b 2f 38 3d db fe 38 3b 3c 05 57 3c
       -0.054875292 0.044966858 0.0028228078 0.013123807
0003e0 67 0a a1 3c 83 04 e9 3d 59 95 f2 3d 23 9e 9f bc
       0.01965828 0.11377814 0.11844892 -0.019484585
0003f0 5d c8 9e 3d d2 e5 b1 bd a5 c2 66 3c 3e 28 35 bc
       0.0775306 -0.08686413 0.014084493 -0.011056958

network_body._body_endoder.seq_layers.2.bias f4 [128]
000000 22 b5 7c bc 85 b6 cf 3c ad 88 4e 3c d6 39 1a 3d
       -0.015424045 0.025355587 0.012605828 0.037652813
000010 33 e1 fc 3c 69 21 b1 3b 4e fd e8 3c df a3 af 3c
       0.030869102 0.005405594 0.028441098 0.021440445
000020 39 72 dc bb 4a ee 83 3c 79 9d 54 3d c6 2c 19 3d
       -0.0067274836 0.016104836 0.05190799 0.037396215
000030 74 21 96 3c b4 33 47 bc 98 a1 46 bb da 46 de 3c
       0.018326499 -0.012158323 -0.003030872 0.027133394
000040 ef 3d 01 3b 8c 47 a9 3c 67 62 ac 3c fb ef 9c 3c
       0.0019720753 0.020663999 0.021043016 0.0191574
000050 88 1e 3c 3c e2 56 52 3c 7a 5e 5a 3a 9d 1c 9a 3c
       0.011481889 0.012838097 0.0008330118 0.018812472
000060 47 1b 0d bc 50 22 f2 3c 77 4d 0f 3d 72 b8 23 3d
       -0.00861246 0.029557377 0.034985986 0.039970823
000070 61 c1 0e 3d 30 93 17 bc 74 f1 1f 3d f9 06 d5 3c
       0.03485239 -0.009251401 0.039048627 0.026004301
000080 41 cc 5a 3d fb 3f ef 3c ff 6f e2 3c ed dd 3c 3d
       0.053417448 0.029205313 0.027641295 0.046110082
000090 7f 18 1c 3d d4 ec 2b 3c b6 6f fc 3c 9f 66 14 3a
       0.0381093 0.010493476 0.030814987 0.00056610437
0000a0 6a 5c 82 3c 36 9c ec 3c e7 9d ce 3c 2e f9 82 3c
       0.015913207 0.02888308 0.025221778 0.015987959
0000b0 a8 95 ef 3c 4a cf b3 3c 96 04 66 3d 2f 3a 8a 3c
       0.029246166 0.021949429 0.056156717 0.016873447
0000c0 71 e5 21 3d 82 cf 83 3c 57 de 12 3d e0 25 f7 3b
       0.039525453 0.016090158 0.03585657 0.007542357
0000d0 de 84 cc 3c c8 92 5d 3c c6 2b 97 3c 00 30 71 bb
       0.0249657 0.013523765 0.01845349 -0.0036802292
0000e0 89 be 21 3d e4 f4 b6 3c a8 d7 59 bc b5 20 f6 3c
       0.03948835 0.02233357 -0.013296045 0.030044893
0000f0 de 9b 0d 3d 73 1a 1c 3d 13 6e e4 3c 73 45 c3 3b
       0.034572475 0.03811116 0.027884519 0.0059592067
000100 51 69 03 3d 27 43 3a 3d f0 da cc 3c 42 59 af 3c
       0.03208286 0.045474198 0.025006741 0.021404866
000110 1b a6 5e 3d 55 3e 25 3c 7b 50 ac 3c 2d 99 de 3c
       0.05435763 0.010085662 0.02103447 0.02717265
000120 70 c8 28 3b 52 d3 c9 3c 2a f2 08 3d 08 88 c0 3b
       0.0025754236 0.024636898 0.03343407 0.005875591
000130 66 c3 17 3d d3 ad e3 3c 2d 17 22 3c 11 77 a2 3c
       0.03705158 0.027792847 0.009893221 0.019832166
000140 e9 07 98 3c 34 c2 20 3d 9b ca de 3c 29 fd 95 bc
       0.01855846 0.039247707 0.02719622 -0.018309193
000150 ee 77 2f 3d a8 a7 f7 ba 4a 10 90 3c 50 78 5a 3c
       0.042838983 -0.001889457 0.017585892 0.013334349
000160 f6 87 f5 3a c8 49 20 3c 71 58 37 3c 55 3d 3f 3c
       0.0018732536 0.009783216 0.01119052 0.011672338
000170 d3 59 fa 3c 1e e0 38 3c 00 2f 72 3c 6b b7 e2 3c
       0.03056041 0.011283902 0.0147817135 0.027675351
000180 b4 5e e1 3c 7e 5c 8e 3c f2 39 3f bc c3 26 04 3d
       0.027510978 0.017378088 -0.01167153 0.03226353
000190 4a da 99 3c f9 dd 7d 3c 08 af c1 3c 95 6c 9c 3c
       0.018780846 0.015494817 0.023643032 0.019094745
0001a0 86 79 4d 3d d8 d0 ae 3c 1d 14 b7 bb a6 c4 b9 3c
       0.050164722 0.021339819 -0.0055871145 0.022676777
0001b0 58 0d 5b 3a 06 92 fe 3b 9e f1 40 3c b7 80 8c 3c
       0.00083561754 0.007768872 0.011776356 0.01715122
0001c0 e1 f9 07 3d c7 0d 8c 3c ea 18 f7 3c 38 2f 98 bb
       0.033197287 0.017096413 0.030163247 -0.004644301
0001d0 6c 82 3b 3d 41 7f d8 3b 83 1c 23 bb 47 41 59 3c
       0.045778677 0.0066069667 -0.002488882 0.013260192
0001e0 ec 6b 00 ba 48 b0 23 3c 56 f1 47 3d 95 40 d7 3c
       -0.0004898894 0.009990759 0.04881414 0.026275912
0001f0 3d 60 1d 3d e3 58 cb 3c 38 d4 0e 3d 87 7a ba 3c
       0.038421858 0.024822658 0.034870356 0.022763504

action_model._continuous_distribution.log_sigma f4 [1, 2]
000000 a7 c9 4c bd db 7a 57 bd
       -0.049997 -0.0526074

action_model._continuous_distribution.mu.weight f4 [2, 128]
000000 a8 fd c2 3c 53 51 39 bc e5 84 b1 bc 10 e7 e8 bc
       0.023802593 -0.011310893 -0.021669814 -0.028430492
000010 79 74 9a 3d 0d 90 33 bc d9 20 4a bc 37 32 3b bd
       0.07541747 -0.010959637 -0.012336933 -0.045702185
000020 d1 39 bf bc 57 33 b1 3d 3d 14 ae 3d 15 15 3d bd
       -0.023342999 0.086523704 0.08499954 -0.046162684
000030 00 28 4a bd 10 e1 3f 3c a0 24 db 3c 78 72 85 bd
       -0.049354553 0.011711374 0.026750863 -0.06515974
000040 95 37 3a 3d 6f 83 61 bd f3 46 f0 3c 59 35 29 3d
       0.045463163 -0.055056985 0.029330706 0.041310642
000050 fe e1 66 bc 49 d7 25 bd b7 e5 80 bb 04 1b e3 bc
       -0.014091967 -0.040488515 -0.003933634 -0.027722843
000060 b7 94 d5 3c a0 cc ef 3c d6 a3 31 bd 5d e7 ea bb
       0.02607189 0.029272377 -0.043369137 -0.007168694
000070 f3 74 53 bb 1e f0 f1 3b 77 5d a0 bc 7d be 25 bd
       -0.0032265752 0.0073833605 -0.019575818 -0.040464867
000080 dd 33 03 bd 93 60 07 3b 56 48 4a bd 7b b4 38 bd
       -0.032031883 0.0020656928 -0.04938539 -0.045093995
000090 67 fe 5a bd 71 6e 09 bd 52 d2 05 3d 82 ac c5 3c
       -0.053465273 -0.03355259 0.03267128 0.02413011
0000a0 1b 9b 38 3d 50 18 54 bd 10 a6 03 bd 46 d3 1c bd
       0.045069795 -0.051781 -0.03214079 -0.038287424
0000b0 d5 6b 38 bd ba 12 fa bc 09 90 22 bd b7 b4 67 39
       -0.04502471 -0.030526508 -0.039688144 0.00022097198
0000c0 16 8b 62 bd 13 b8 c7 3c 6d 64 64 3d c1 36 00 bd
       -0.055308424 0.024379766 0.055759836 -0.031302217
0000d0 18 8c f4 bb ee 6d 40 bd c8 81 7d bd 4c f0 43 bc
       -0.0074629895 -0.046979837 -0.061891347 -0.011959147
0000e0 a4 6a 07 3d af fd 76 3d ec 52 d6 3b bd 99 7e 3d
       0.033060685 0.060300525 0.006540647 0.062158335
0000f0 f9 79 a3 bb 0a e3 94 bd 52 73 55 bd a6 d2 0a bd
       -0.0049889055 -0.07269867 -0.05211193 -0.033892296
000100 c2 12 22 bd b5 ac 8c bd ae 14 38 3d 73 49 91 bd
       -0.03956867 -0.06868879 0.044941597 -0.070940875
000110 70 6c b4 3c 9d 79 ff bb ef d6 84 3d 07 d6 2a 3c
       0.022024363 -0.00779648 0.06486308 0.010427005
000120 6c 6b 1d 3c 1c 81 5e bd 03 1a 11 bd 08 5f e8 3c
       0.009608131 -0.054322347 -0.035425197 0.028365627
000130 b9 be 95 bc f2 94 09 bd 09 26 c9 bb c4 46 bf 3c
       -0.01827942 -0.03358931 -0.0061385673 0.023349173
000140 69 d2 41 3d 8c 8c 68 bd 64 4d cb 3d 7d 91 03 3c
       0.047319803 -0.05677466 0.099268705 0.008030293
000150 b5 2f 10 bd 96 18 20 3d a5 31 8a 3d 95 c0 a5 3c
       -0.035201747 0.039085947 0.0674775 0.020233432
000160 74 e7 46 bd 17 64 3f 3d 8e e5 38 3d 49 40 27 bd
       -0.048560575 0.046726312 0.045140795 -0.04083279
000170 e9 ca 59 bd b1 b4 20 bd 7b 57 d8 bc 63 d7 55 bd
       -0.053172026 -0.03923482 -0.026408901 -0.052207362
000180 24 39 15 3d b0 ae 23 bd 23 f8 0c 3c 88 a2 85 3d
       0.036431447 -0.039961517 0.008604082 0.06525141
000190 29 5f bc 3d 25 8b 36 3d d5 de bd 3d 9f 67 17 bd
       0.09197838 0.044566292 0.092710175 -0.036964055
0001a0 2b c5 74 bd 5a 5d a9 bc 4e 86 2f 3c 95 39 53 3d
       -0.059758347 -0.020674396 0.010713173 0.051568586
0001b0 51 f2 01 bd f1 47 4d 3c b6 2f 11 3d dd 66 59 bd
       -0.03172523 0.012529359 0.03544589 -0.053076614
0001c0 52 5d 36 bd 56 ea f8 bc a3 a8 a0 bd 71 06 ad 3c
       -0.04452259 -0.030385178 -0.07844665 0.021121236
0001d0 93 ea cf bc 97 8e 30 bc e0 2c 4f 3d 17 fa f4 3c
       -0.025380408 -0.010776184 0.050579906 0.029904408
0001e0 46 eb fa 3c 35 0d 2c 3c b5 cc 30 bd 66 32 66 3c
       0.030629765 0.010501196 -0.043163974 0.014050102
0001f0 48 0e a4 bc 0c b0 08 3d d4 ab 7e 3b ba 37 d2 3c
       -0.020026341 0.033371016 0.0038859742 0.025661338
000200 e2 dd 07 bc 30 59 19 3d 5b 03 a8 bd 72 0e 6f 3d
       -0.008292647 0.03743857 -0.08203765 0.058363385
000210 e0 f4 bd 3c 38 1c cd bc b4 4c fc 3c 17 a8 00 bd
       0.023188055 -0.02503787 0.030798294 -0.031410303
000220 44 3c 3b bc 7a c4 43 bc 6c d7 08 3c 1b 13 94 3d
       -0.011427943 -0.011948699 0.008352142 0.072302066
000230 7a 02 35 bd 95 6b 7d bc b2 84 b2 bc 7b bf 16 3c
       -0.044191815 -0.015467544 -0.02179179 0.009200926
000240 da 5e 1e bc 4a 82 8f bc 7d fb 11 3d cd 1e ad bc
       -0.009666169 -0.017518181 0.03564023 -0.021132851
000250 8b 3f 0d 3d 9e 0e c9 bc db 99 5e bd a9 d1 89 bd
       0.034484427 -0.024543103 -0.054345947 -0.067294426
000260 c7 fe 00 bd b6 fb 9f bd 0d e3 3d bd 6a 59 67 3d
       -0.031492975 -0.07811682 -0.04635911 0.056481756
000270 b2 7f 10 3d 8c 82 61 bb 5b b5 a7 bd 19 be 88 bd
       0.03527803 -0.0034410087 -0.08188888 -0.06676883
000280 4e 96 bc 3d e2 9e 2d 3d 5a 85 ef 3c e8 f4 a5 bd
       0.09208356 0.04238785 0.029238392 -0.08103353
000290 04 81 9f 3c c2 d5 fb bc 91 2b 1e 3d 8f fb 6d 3c
       0.0194707 -0.030741576 0.038615767 0.014525308
0002a0 ae 7e 8b 3b 7e 3f 6c 3d ec b3 3f bd 1e c4 09 bd
       0.0042570448 0.05767774 -0.046802446 -0.033634298
0002b0 13 6d 2a bd d6 8e 41 bd 13 92 41 3d 31 25 13 3d
       -0.041607928 -0.04725536 0.047258448 0.03592414
0002c0 1d 60 37 bb dd 99 ea 3c 10 89 36 3d 15 08 8f bc
       -0.0027980872 0.02863782 0.044564307 -0.017459909
0002d0 6e 14 09 3d bb 03 e0 bb bc 9c 3f bd 3b 45 e4 bc
       0.03346675 -0.006836382 -0.046780333 -0.027865043
0002e0 5f b0 6a 3d 1c 41 a0 3c 12 8d 44 bb f1 d1 37 ba
       0.057297107 0.019562297 -0.002999131 -0.00070121797
0002f0 6c ed 8c bd f8 a4 c9 bc 03 77 ae 3c b9 24 b9 bc
       -0.06881222 -0.024614796 0.021296984 -0.022600519
000300 9d dc 63 3d 6e 60 ae 3b d4 0b 5c bd b3 88 d7 bc
       0.055630315 0.005321554 -0.053722218 -0.0263103
000310 f7 73 8d 3d fe e6 e0 bc b2 74 a6 bb 68 ec 56 3d
       0.06906884 -0.027453896 -0.005079829 0.05247155
000320 f3 e2 17 bd e9 22 47 3d a6 3a 81 3c c3 e9 c9 bc
       -0.03708167 0.048617277 0.015775036 -0.0246476
000330 e2 ef 85 3d 37 c9 fe bc b0 ac 7b bd 51 f1 55 3d
       0.06539895 -0.031101806 -0.061443985 0.05223209
000340 6e 4e cb ba 73 c8 08 3d 6e 6a 4c bd 22 8e e7 bc
       -0.0015511045 0.03339429 -0.049906187 -0.028266016
000350 87 12 d8 3c 1f 5b 1f bd f7 04 ea bc ba a8 5f bd
       0.026376022 -0.03890526 -0.02856682 -0.05460427
000360 4f 75 06 bd dc 4f 4e bc 30 26 4f bc 6d fe 65 bd
       -0.032826718 -0.012592282 -0.012643382 -0.056150842
000370 62 f8 0d 3b a1 c4 92 bc 06 c5 c0 3c 9f 0b 54 bd
       0.002166294 -0.017916026 0.023531448 -0.051768895
000380 f0 3a 23 3d 2e 82 39 bd 4a 02 9a bb ea 63 43 bd
       0.03985113 -0.045290165 -0.00469998 -0.047702707
000390 f4 06 3d bd 6b 78 d5 3c 40 05 a6 bc a5 6a c2 3c
       -0.04614921 0.026058396 -0.020266175 0.023732493
0003a0 34 64 69 3d 64 73 8b bd 8b 74 84 3b 13 62 37 3d
       0.056980327 -0.068091184 0.0040422133 0.044771265
0003b0 6a 6e 62 bd 1d b0 39 bd 55 46 5d b9 dc 8d cc bc
       -0.05528108 -0.04533397 -0.00021102403 -0.024969988
0003c0 01 2e 7f 3c 82 ff da bb bd 90 29 3c 16 4f 95 ba
       0.015574933 -0.006683291 0.01034945 -0.0011391367
0003d0 d1 17 9a 3d 73 0c 3b bd 1c 65 02 bd 38 67 b1 3c
       0.07524074 -0.04566617 -0.031834707 0.021655664
0003e0 8f 22 c9 bb e6 cc 13 3d cf 3c 30 3d 75 50 83 bd
       -0.006138153 0.03608408 0.04302674 -0.0641183
0003f0 16 85 4b 3d 37 42 68 3d 1b ec 4c 3d c2 cc 60 bd
       0.049687468 0.056703772 0.050029855 -0.054882772

action_model._continuous_distribution.mu.bias f4 [2]
000000 10 2e 6d bb 88 88 6e 3c
       -0.0036190785 0.014558919

60 f4 [28]
000000 02 a7 67 3e 78 18 fb 3e 96 ed f3 3e cb 87 91 3e
       0.22622302 0.49042106 0.476422 0.28423914
000010 d7 00 63 3e 98 06 fc 3e 42 ca f5 3e 1b a4 91 3e
       0.22168289 0.4922378 0.48005873 0.28445515
000020 ce 19 63 3e b8 c1 fb 3e 2b 57 f5 3e 02 8b 91 3e
       0.22177812 0.49171233 0.47918066 0.28426367
000030 b6 de 56 3e f0 69 ff 3e d7 ae fc 3e 2f b7 8f 3e
       0.20983395 0.4988551 0.49352142 0.28069445
000040 1f 19 56 3e 4c 2e ff 3e e5 2c fc 3e 07 b6 8f 3e
       0.2090802 0.4984001 0.49253002 0.28068563
000050 d1 a7 45 3e 76 d7 ff 3e cd c5 ff 3e fb 13 8c 3e
       0.19302298 0.4996907 0.49955598 0.27358994
000060 17 ba 43 3e 29 ef ff 3e 43 a4 ff 3e 40 e3 8b 3e
       0.19113956 0.49987152 0.4993001 0.27321815

63 f4 [15]
000000 f3 88 3b 41 3d 15 1f 3b 10 36 37 41 64 7d 86 41
       11.720935 0.0024274134 11.450699 16.811226
000010 3d 15 1f 3b 0e 4b 88 41 b0 18 31 3f 3d 15 1f 3b
       0.0024274134 17.036648 0.69178295 0.0024274134
000020 1a c0 38 3f 4d 1f 29 41 bc 7d 22 40 2f 64 2a 40
       0.72168124 10.570142 2.5389242 2.6623647
000030 ac a6 2f 3f 3d 15 1f 3b 39 ef 38 3f
       0.68613696 0.0024274134 0.72240025
