Assets/NN Models/MyBehavior 4.onnx (onnx, 92507 bytes, 11 tensors)

network_body.observation_encoder.processors.0.normalizer.running_mean f4 [28]
0	0x3e278437	0.1635903
1	0x3f283c38	0.65716887
2	0x3e37369c	0.17891926
3	0x3f2b1ffc	0.6684568
4	0x3e148b6e	0.14506313
5	0x3f294126	0.66115034
6	0x3e4611fa	0.19342795
7	0x3f3157d3	0.69274634
8	0x3e12ec76	0.14348015
9	0x3f2a504c	0.66528773
10	0x3e436b75	0.1908396
11	0x3f30ea34	0.69107366
12	0x3ddb2e50	0.10702193
13	0x3f076c52	0.5289966
14	0x3eba1c1d	0.36349574
15	0x3f3ce129	0.7378107
16	0x3dd91687	0.106
17	0x3f09f312	0.5388652
18	0x3eb59a83	0.35469446
19	0x3f3bc267	0.7334351
20	0x3d972806	0.07380681
21	0x3ef5a33c	0.479761
22	0x3ee464bd	0.44608107
23	0x3f492e31	0.7858611
24	0x3d9816c8	0.0742622
25	0x3efdfa09	0.49604824
26	0x3edbd136	0.42933053
27	0x3f4786ea	0.7794024

network_body.observation_encoder.processors.1.normalizer.running_mean f4 [15]
0	0x3ddc5b39	0.10759587
1	0x3423aa89	1.5242598e-07
2	0x4317171a	151.09024
3	0x3eac1b87	0.33614752
4	0x00000000	0.0
5	0x43148748	148.52844
6	0x3a333f49	0.00068377383
7	0xb1fb1af4	-7.3081257e-09
8	0xbe0d474e	-0.13796732
9	0x417f5338	15.957817
10	0x42c176ab	96.73177
11	0x4110ce8c	9.0504265
12	0x3b1bd7b3	0.002377969
13	0x00000000	0.0
14	0x3d9e92bc	0.07742831

network_body._body_endoder.seq_layers.0.weight f4 [128, 43]
0	0x3c9b5ade	0.018964227
1	0xbd14dc6b	-0.03634302
2	0xbd825c23	-0.0636523
3	0xbd918d2a	-0.07107003
4	0xbe6a7c8b	-0.22899072
5	0x3dc867f3	0.09785452
6	0x3dc4b31a	0.096044734
7	0x3d9efdee	0.07763277
8	0xbe4d9ed9	-0.20080127
9	0x3cf2dce9	0.029646354
10	0xbdc741f7	-0.09729379
11	0x3dfbffcf	0.12304651
12	0xbe14380b	-0.14474504
13	0x3ed8b60d	0.42326394
14	0xbe4f4ee2	-0.20244935
15	0x3c63a703	0.013894799
16	0xbe162c4c	-0.14665335
17	0xbd8e7e99	-0.0695774
18	0x3ed6f6b5	0.41985098
19	0xbcd148e6	-0.025547456
20	0x3da11110	0.078645825
21	0x3dc86800	0.097854614
22	0x3dbd9850	0.09257567
23	0xbe010984	-0.12601286
24	0xbe79e464	-0.2440353
25	0x3c3294c1	0.0108997235
26	0x3da28dd4	0.07937208
27	0x3d492bfe	0.04911422
28	0x3cfea68a	0.031085271
29	0x3df9746d	0.121804096
30	0x3dc7e4b0	0.097604156
31	0xbdfffbf9	-0.12499232
32	0x3e029338	0.12751472
33	0x3d9fe1d9	0.07806749
34	0x3e21984b	0.15780751
35	0xbdfe38aa	-0.124131516
36	0xbea12498	-0.3147323
37	0xbe292ab6	-0.16520199
38	0xbe3d820a	-0.18506637
39	0x3c378028	0.011199988
40	0xbdd854bc	-0.10563037
41	0xbe172695	-0.14760812
42	0x3e8bd4d8	0.27310824
43	0x3dacc26e	0.08435522
44	0xbd3164e8	-0.043309122
45	0x3e17ee0b	0.148369
46	0xbb2417a2	-0.00250385
47	0x3dd598f3	0.104295634
48	0x3ce0bfb8	0.027435169
49	0xbe08e0e9	-0.13367046
50	0xbe66f2f3	-0.22553615
51	0xbd6b3c7f	-0.05743074
52	0x3db7ff3a	0.089842275
53	0xbdafad5e	-0.08577989
54	0x3cf0b50c	0.029383205
55	0x3d706ff3	0.058700513
56	0x3e3b690d	0.18301792
57	0xbeaa4f49	-0.33263615
58	0x3d9036fb	0.07041737
59	0xbe478ea8	-0.19488013
60	0x3dcc03b0	0.09961641
61	0xbdd82146	-0.105532214
62	0x3e0358f5	0.12826903
63	0x3e2870cd	0.1644928
64	0xbd9ad3f9	-0.07559962
65	0xbd7fff06	-0.06249907
66	0xbe41c5e0	-0.1892314
67	0xbdb728b8	-0.08943313
68	0x3e1152ee	0.14191791
69	0xbe4ebdc1	-0.20189573
70	0xbdf89f3c	-0.121397465
71	0x3d2456cf	0.04012185
72	0xbd39f3e2	-0.0453986
73	0x3df2cbb2	0.11855258
74	0xbe9b8bea	-0.30380183
75	0x3c076910	0.008264795
76	0x3e52e3db	0.20594732
77	0xbe193884	-0.14962965
78	0x3d891f7e	0.0669546
79	0xbd63cccb	-0.055615228
80	0xbe0c7408	-0.13716137
81	0x3ec32401	0.38113406
82	0xbe6bbfcd	-0.23022385
83	0x3dbf915b	0.09353896
84	0xbe0a5241	-0.1350794
85	0xbd2484ce	-0.040165715
86	0xbdd89ab7	-0.105763845
87	0xbd84283b	-0.06452986
88	0xbe97b890	-0.29632998
89	0x3e22579f	0.15853737
90	0x3e099721	0.13436557
91	0xbe9a0669	-0.30083016
92	0xbd5779e4	-0.05260648
93	0xbd7eb49a	-0.062183954
94	0xbd0150fa	-0.031571366
95	0x3e488822	0.1958318
96	0xbd32ded9	-0.043669555
97	0x3c95fe5e	0.018309768
98	0xbdafe7b0	-0.08589113
99	0x3c4de131	0.012565897
100	0xbe4f4b09	-0.20243467
101	0xbe0e61fa	-0.13904563
102	0xbd31c19e	-0.04339754
103	0xbe62855b	-0.22121184
104	0x3e00860a	0.12551132
105	0x3e2cc275	0.16871054
106	0x3ca48982	0.0200851
107	0xbd0c7bdd	-0.034297813
108	0xbcca0753	-0.024661696
109	0xbde7e3c9	-0.113227434
110	0xbe692bfc	-0.22770685
111	0xbe22d30a	-0.15900818
112	0xbc3d08de	-0.011537759
113	0xbca9d23a	-0.020730127
114	0xbe1f09cc	-0.15531081
115	0x3e0f688d	0.14004727
116	0xbd0ea285	-0.03482296
117	0xbd8bb4a4	-0.06821564
118	0x3e5262bc	0.20545477
119	0xbe0932d5	-0.13398297
120	0xbe0075a7	-0.12544881
121	0xbda467f8	-0.08027643
122	0xbee4c395	-0.44680467
123	0xbd557036	-0.052108966
124	0x3d1805b1	0.037114803
125	0xbd1c6488	-0.03818181
126	0x3ebb6e6e	0.3660769
127	0xbc1f28dd	-0.009714332
128	0x3e979385	0.29604736
129	0x3e1250e5	0.14288671
130	0xbda3137a	-0.07962699
131	0xbe9441f1	-0.2895656
132	0x3d419be7	0.04726782
133	0xbd814166	-0.06311302
134	0xbdf038e8	-0.11729604
135	0x3d5e8685	0.054327507
136	0xbdc7b25b	-0.097508155
137	0xbcdab12d	-0.026695812
138	0x3e2d6328	0.16932356
139	0xbe4c4278	-0.19947231
140	0xbd542a77	-0.05179831
141	0xbbc21a39	-0.005923536
142	0x3df83763	0.12119939
143	0x3dd63506	0.10459332
144	0xbd6d5472	-0.05794186
145	0xbd69f5ef	-0.057119306
146	0x3e14c75e	0.14529178
147	0x3dc98e59	0.09841604
148	0x3e2d05b2	0.16896704
149	0x3a02544c	0.00049716677
150	0x3e9c489c	0.30524147
151	0xbd6523f8	-0.055942506
152	0x3d330fe7	0.043716338
153	0x3d2f4231	0.042787734
154	0x3da7d8a9	0.081956215
155	0x3ea9e75a	0.3318432
156	0x3dcea033	0.10089149
157	0xbe40cd66	-0.18828353
158	0x3df1a9f3	0.11799993
159	0x3bc269df	0.005933031
160	0xbe1624e3	-0.14662509
161	0xbd33c6cd	-0.043890763
162	0x3e6a2f45	0.22869594
163	0x3e29d14c	0.16583747
164	0xbe724fea	-0.23663297
165	0x3eb2ef39	0.34948137
166	0xbe46000d	-0.19335957
167	0x3dd4c43d	0.10388992
168	0x3d6c461a	0.05768404
169	0xbdf4d68f	-0.11954986
170	0xbe9560f9	-0.29175547
171	0xbe3b0699	-0.18264236
172	0xbc521371	-0.012822018
173	0x3c81fdc9	0.015868085
174	0x3e0f595d	0.13998933
175	0xbcf4ffd2	-0.02990714
176	0xbe69b488	-0.22822773
177	0x3ef90dae	0.4864325
178	0xbcbaacc1	-0.022787454
179	0xbc19ad9e	-0.0093797725
180	0xbbe4c92e	-0.0069819903
181	0xbcb89023	-0.022529667
182	0xbda9300e	-0.08261119
183	0xbcabf958	-0.02099292
184	0x3dd29fad	0.10284362
185	0xbe3ed5af	-0.18636201
186	0x3e5a50ab	0.21319835
187	0x3db96146	0.090517566
188	0xbd1bbf50	-0.038024247
189	0x3caf51fb	0.021401396
190	0xbd89ac3d	-0.06722305
191	0x3daf864f	0.08570539
192	0x3e447ff1	0.19189431
193	0xbd7f8a00	-0.062387466
194	0xbe3bdbb2	-0.18345526
195	0xbdf814fb	-0.12113377
196	0x3d1db399	0.038501356
197	0xbcc88872	-0.024479125
198	0xbe4e1383	-0.2012463
199	0x3e36d5cf	0.17854999
200	0x3e5658ed	0.2093236
201	0xbd7e1912	-0.062035628
202	0x3d976646	0.07392554
203	0xbe1c40ee	-0.15259144
204	0xbd80c3b0	-0.062873244
205	0xbe1c27d5	-0.1524957
206	0xbe283443	-0.16426186
207	0x3dd57112	0.10421957
208	0xbc06b3a4	-0.008221541
209	0xbd3654a2	-0.044514306
210	0xbdb6f11d	-0.089327075
211	0x3da9cc51	0.082909234
212	0x3e011805	0.12606819
213	0xbd99ddbe	-0.07512997
214	0x3eabc17e	0.3354606
215	0xbdffacf7	-0.12484162
216	0xbe09cf91	-0.13458087
217	0xbe5380e0	-0.2065463
218	0x3e43a769	0.1910683
219	0xbc9118ce	-0.017712023
220	0x3b3a762a	0.002845178
221	0x3df94c4a	0.12172754
222	0x3e001f8a	0.12512031
223	0xbd83fb11	-0.064443715
224	0xbe66b5bc	-0.22530264
225	0xbd437597	-0.047719564
226	0xbd96d6f0	-0.07365215
227	0x3d23e8e9	0.040017042
228	0x3e2d4cfd	0.169239
229	0xbd2b1d72	-0.041776128
230	0xbd82573d	-0.06364296
231	0x3dc5b5cc	0.096538156
232	0xbc487ddb	-0.0122370375
233	0x3d62102f	0.055191215
234	0xbe0a542f	-0.13508676
235	0x3e4c515a	0.19952908
236	0xbe17810d	-0.14795323
237	0x3bf2881f	0.007401481
238	0xbe74d7ac	-0.23910397
239	0xbcc7d964	-0.024395652
240	0xbe0a80d6	-0.1352571
241	0xbe82e665	-0.25566402
242	0xbe5d2e50	-0.21599698
243	0x3d27a6cd	0.040930558
244	0x3e8aba86	0.2709543
245	0xbd86abd7	-0.065757446
246	0xbd27447d	-0.0408368
247	0xbe7441b0	-0.23853183
248	0x3e024c2d	0.12724371
249	0x3dbb1df7	0.09136575
250	0x3ca0c845	0.019626746
251	0xbe785dca	-0.24254528
252	0xbd9b1f7f	-0.07574367
253	0x3e85672f	0.26055285
254	0xbec094fc	-0.37613666
255	0x3e70c76e	0.23513576

network_body._body_endoder.seq_layers.0.bias f4 [128]
0	0x3d8ed417	0.06974047
1	0x3d3779ba	0.044793822
2	0x3d9181c8	0.07104832
3	0x3d7d176f	0.061789926
4	0x3d3f0ba0	0.046641946
5	0x3d123f44	0.035704866
6	0x3d442906	0.047890685
7	0x3c9ba2e5	0.018998573
8	0x3d3154e4	0.04329385
9	0x3d4b0906	0.049569152
10	0xbd1a0391	-0.037601057
11	0x3caa01f7	0.02075289
12	0x3d109b96	0.03530463
13	0x3d7f39d1	0.062310997
14	0x3d465284	0.048418537
15	0x3d590beb	0.05298988
16	0x3d16e3ab	0.036838215
17	0x3d146cfa	0.03623674
18	0x3d54bf39	0.051940177
19	0x3d438f46	0.047744058
20	0x3d7df007	0.061996486
21	0x3d950cdf	0.072778456
22	0x3d1ff8ee	0.039055757
23	0x3cdcce36	0.026953798
24	0x3d1fea35	0.039041717
25	0x3d6be8d4	0.05759509
26	0x3816882a	3.58896e-05
27	0xbc62716d	-0.013820988
28	0x3d8424df	0.06452345
29	0x3d34ca61	0.044138316
30	0x3d0b3b46	0.033992074
31	0x3d02fdab	0.031980198
32	0x3d2aea74	0.0417275
33	0x3d541e15	0.0517865
34	0x3d08be5d	0.03338467
35	0x3ce90f48	0.02844967
36	0x3d32debe	0.043669455
37	0x3bbb7afe	0.005721449
38	0x3d7b49ec	0.061349794
39	0x3d50110b	0.050797503
40	0x3dab2311	0.08356298
41	0x3d008078	0.031372517
42	0x3d6283f3	0.055301618
43	0x3ca63f15	0.020293752
44	0x3d2e86c2	0.042608984
45	0x3d089797	0.033347692
46	0x3cc7b482	0.024378065
47	0x3d6cdccd	0.05782776
48	0x3d200ece	0.03907662
49	0x3d84ed38	0.064905584
50	0x3d782754	0.06058438
51	0x3d450a34	0.048105434
52	0x3d44360e	0.047903113
53	0xbafb031b	-0.0019150706
54	0x3d5da512	0.0541125
55	0x3d338fd8	0.043838352
56	0x3d33dce7	0.04391184
57	0x3d380373	0.044925164
58	0x3d887202	0.0666237
59	0x3c7baf4b	0.015361617
60	0x3c3c9a26	0.011511361
61	0x3cdbbc1b	0.026823094
62	0x3cfe81e8	0.031067804
63	0x3d8d1819	0.06889362
64	0x3d1eaac3	0.03873707
65	0x3d95b2d6	0.07309501
66	0x3d63db6c	0.05562918
67	0xbba5b680	-0.005057156
68	0x3d49dac9	0.049280915
69	0x3d24a398	0.040195078
70	0xbbb915c2	-0.0056483457
71	0x3cf54d50	0.029944092
72	0x3b3a7df8	0.002845643
73	0x3d0975c0	0.03355956
74	0x3c01cb71	0.007922039
75	0x3d6d3834	0.057914928
76	0x3ca8bfff	0.020599363
77	0x3d33a568	0.043858916
78	0x3da9ce8a	0.08291347
79	0x3c8850d4	0.016640104
80	0x3d716c49	0.05894116
81	0x3d741a43	0.059595358
82	0x3c8325d5	0.01600925
83	0x3d203ae4	0.039118662
84	0x3d522003	0.05130006
85	0x3d2ff1d4	0.042955235
86	0x3ccf3a6c	0.025296412
87	0x3c498222	0.0122990925
88	0x3d97ab1a	0.07405682
89	0x3d864762	0.06556584
90	0x3d4f4489	0.05060247
91	0xbbe105c0	-0.0068671405
92	0x3d99f45d	0.07517312
93	0x3d010bd4	0.03150542
94	0x3d341686	0.043966793
95	0x3d73fb89	0.059566054
96	0x3d79cc44	0.06098582
97	0x3d9559cb	0.07292517
98	0x3d15f924	0.036614552
99	0x3d4dbb7e	0.050227635
100	0x3d185c0d	0.03719716
101	0x3d7868a4	0.060646668
102	0x3d74303c	0.059616312
103	0x3d8d3d64	0.06896475
104	0x3d42e013	0.047576975
105	0x3d09fdd5	0.03368934
106	0x3d6a521a	0.057207204
107	0x3d47fd55	0.04882558
108	0x3d6bb749	0.05754784
109	0x3cddc259	0.027070211
110	0x3d79953d	0.06093334
111	0x3d2f61ea	0.042817988
112	0x3d6a124e	0.057146363
113	0x3d6eb50f	0.05827814
114	0x3d2042f0	0.039126337
115	0x3d917ec9	0.071042605
116	0x3cef287d	0.029194111
117	0x3d7dd0e6	0.0619668
118	0x3cc7db5f	0.024396596
119	0x3d59e110	0.053193152
120	0x3d34ef6a	0.044173636
121	0x3aea5b72	0.0017880036
122	0x3c9b9986	0.018994104
123	0x3d526909	0.0513697
124	0x3d134e6e	0.03596347
125	0x3d19e57b	0.037572365
126	0x3c3bb9de	0.011457888
127	0x3d34f645	0.044180173

network_body._body_endoder.seq_layers.2.weight f4 [128, 128]
0	0xbc341fd6	-0.010993918
1	0x3d893f3d	0.06701515
2	0x3c9cc17f	0.019135235
3	0x3d7285da	0.059209682
4	0xbc860ca0	-0.016363442
5	0xbcc42a0f	-0.023945836
6	0xbb84a978	-0.0040485226
7	0x3d6c0604	0.057622924
8	0xbe0ba976	-0.13638863
9	0x3e1a8503	0.15089802
10	0xbcec1926	-0.028820585
11	0x3dc402f8	0.09570879
12	0x3c0cbf42	0.008590521
13	0x3dde8b65	0.10866431
14	0x3c70c508	0.014695413
15	0xbd0094db	-0.03139196
16	0xbd29f0b3	-0.041489314
17	0x3e09a70a	0.13442627
18	0x3df3931e	0.11893295
19	0x3e399238	0.18122184
20	0xbc8a3614	-0.01687149
21	0x3b2c7f57	0.0026321018
22	0xbd755c91	-0.05990273
23	0x3d5a2d3d	0.0532658
24	0x3dc1d2c0	0.094640255
25	0x3daedad7	0.08537834
26	0x3c5a075e	0.013307421
27	0x3e406c0a	0.18791214
28	0x3d2e30e6	0.042527102
29	0x3d6359df	0.05550563
30	0xbdc1a4cc	-0.09455261
31	0xbda7d388	-0.08194643
32	0xbe03e5b4	-0.12880594
33	0xbd1618b4	-0.036644652
34	0x3d205d37	0.039151397
35	0x3bc2dc51	0.005946674
36	0xbd3d5274	-0.04622121
37	0x3dae7846	0.08519034
38	0x3da99cdc	0.08281872
39	0x3dfe5bfe	0.1241989
40	0x3df4445c	0.11927101
41	0xbe74e9fe	-0.23917386
42	0x3d2cf570	0.042226255
43	0x3e5f3523	0.21797614
44	0x3e18a9ff	0.14908598
45	0x3d349c6a	0.04409448
46	0x3cdba02a	0.02680977
47	0xbe393fdb	-0.18090765
48	0x3daaf14b	0.08346804
49	0xbe02c67c	-0.12771028
50	0x3d86b1cc	0.06576881
51	0x3daf2d92	0.08553614
52	0x3d3da60e	0.04630094
53	0x3ca57f66	0.02020235
54	0xbda70b61	-0.08156467
55	0xbc2e3b6a	-0.010634283
56	0x3da20d22	0.07912661
57	0xbabe992c	-0.0014541498
58	0xbdc90e99	-0.098172374
59	0x3d75b17a	0.059983708
60	0x3d8a4422	0.067512766
61	0x3acc7c7c	0.0015601064
62	0xbe55fe2f	-0.20897745
63	0x3e4332fc	0.19062418
64	0x3d303729	0.043021355
65	0xbd74b936	-0.059746943
66	0x3e13a10c	0.14416903
67	0x3c6503e6	0.01397798
68	0xbbb3675f	-0.0054749693
69	0xbdb81ce7	-0.08989888
70	0xbe267e91	-0.16259219
71	0xbca82fe7	-0.020530654
72	0x3da1e4d9	0.07904977
73	0x3d8f1a48	0.069874346
74	0xbb78cc2d	-0.0037963495
75	0x3d8a4629	0.06751663
76	0x3d1ccf72	0.038283773
77	0x3d932a8f	0.07185852
78	0x3c1c209c	0.009529259
79	0x3d8adfcc	0.06780967
80	0x3da28be3	0.079368375
81	0xbd47613b	-0.04867671
82	0x3b472a7b	0.003039031
83	0xbda0d764	-0.078535825
84	0x3bad35ac	0.005285939
85	0xbd4266fa	-0.047461487
86	0x3c589fcd	0.013221693
87	0x3d3dc26b	0.04632799
88	0x3d4ac51b	0.04950438
89	0xbda8a3b0	-0.08234346
90	0x3dcae5da	0.09907122
91	0xbe2799fd	-0.16367336
92	0xbdbfa5b1	-0.09357775
93	0xbdb050bb	-0.08609148
94	0xbda60514	-0.08106437
95	0xbd3149f5	-0.04328342
96	0x3d05260b	0.032506984
97	0xbb23a0d2	-0.0024967683
98	0x3ca1e2a8	0.019761398
99	0xbced7be5	-0.028989742
100	0x3cd0d85f	0.025493799
101	0x3ca5ee6a	0.020255286
102	0x3df555ce	0.119792566
103	0x3d79afc1	0.060958628
104	0x3e327290	0.17426515
105	0xbd10861b	-0.035284143
106	0xbc56f046	-0.013118809
107	0x3da2cd81	0.07949353
108	0xbd915eb2	-0.0709814
109	0xbdbc2da8	-0.09188396
110	0x3dd4610d	0.103700735
111	0xbe023390	-0.12714982
112	0x3d35d597	0.04439315
113	0xbe2b3dfe	-0.16722867
114	0x3d5fd96c	0.05465071
115	0x3d9d735f	0.07688021
116	0x3d056801	0.03256989
117	0x3cde0833	0.027103519
118	0xbd389680	-0.045065403
119	0x3d52b4c6	0.05144193
120	0xbdb25f85	-0.08709625
121	0x3c194f75	0.009357323
122	0x3d5a4f68	0.053298384
123	0xbd8f80f6	-0.07007019
124	0xbcad7e3a	-0.021178354
125	0xbd2aa3d0	-0.04166013
126	0x3cb5803a	0.02215587
127	0xbd12b581	-0.035817627
128	0xbdd362ed	-0.10321603
129	0x3e26c770	0.16287017
130	0x3e613044	0.21991068
131	0xbd93a8dc	-0.07209942
132	0x3decc3af	0.11560761
133	0x3e307776	0.1723307
134	0xbbf1919e	-0.0073720952
135	0x3d18ac1a	0.037273504
136	0xbe0ebf50	-0.13940167
137	0xbde7a4f8	-0.11310762
138	0x3d03673b	0.03208087
139	0xbde9b4a5	-0.11411408
140	0x3d8bf2dd	0.06833432
141	0x3e5202aa	0.20508829
142	0x3d475380	0.048663616
143	0xbd885c00	-0.066581726
144	0x3bccfccd	0.006255722
145	0xbe2a8452	-0.16652039
146	0x3cb5c4ff	0.022188662
147	0xbdf10df0	-0.117702365
148	0x3dcd9b21	0.10039354
149	0xbd2d5e0f	-0.04232603
150	0x3e27e997	0.16397701
151	0x3d89e7ac	0.06733641
152	0xbe038790	-0.12844682
153	0x3dcf2ed6	0.10116355
154	0x3afa60f3	0.001910238
155	0x3e1904e9	0.1494328
156	0xbcb35256	-0.021889847
157	0xbd69e853	-0.057106327
158	0xbd897887	-0.06712442
159	0x3e1f432e	0.15552971
160	0xbda5190f	-0.0806142
161	0xbc717fa9	-0.014739909
162	0x3de399d5	0.111133255
163	0x3d7572dd	0.059923995
164	0xbd92e5c1	-0.07172728
165	0xbdd5d7d9	-0.1044156
166	0x3d62c4fd	0.055363644
167	0x3d1636ab	0.03667323
168	0xbb5532c6	-0.0032531484
169	0x3d9d117a	0.07669349
170	0x3dc8aa8c	0.09798154
171	0xbdcd093c	-0.10011527
172	0x3dc41820	0.09574914
173	0x3d1eaadd	0.038737167
174	0x3d922b75	0.07137195
175	0x3d3af385	0.045642395
176	0x3d7707bf	0.06031012
177	0xbd4df070	-0.050278127
178	0x3d84f314	0.06491676
179	0x3d892004	0.066955596
180	0x3e0b1817	0.13583408
181	0xbd79eaaa	-0.06101481
182	0xbd283845	-0.041069288
183	0x3e6e6d52	0.2328389
184	0x3d0bb71f	0.034110185
185	0x3d2f7f8b	0.042846244
186	0xbc168b6c	-0.009188514
187	0xbc954e97	-0.018225951
188	0x3d92d8da	0.071702674
189	0x3e1abd1d	0.15111203
190	0xbd2064d5	-0.03915866
191	0x3d8eb8ac	0.06968817
192	0x3db8e4ec	0.090280384
193	0xbe1633cd	-0.14668198
194	0x3e2279ac	0.15866727
195	0x3d08f82a	0.033439793
196	0x3de55156	0.11197154
197	0x3e7def0d	0.24798222
198	0x3c579dbe	0.013160167
199	0x3d2f31e7	0.0427722
200	0x3dfd267a	0.123608544
201	0x3d6616a4	0.056173936
202	0x3e058545	0.1303912
203	0xbd5621af	-0.052278217
204	0x3c8923cd	0.016740704
205	0xbd06d8f0	-0.03292173
206	0xbc444bd7	-0.011980972
207	0xbd89da60	-0.06731105
208	0xbd547204	-0.051866546
209	0x3d4a245c	0.04935108
210	0xbdeb33e6	-0.11484508
211	0x3e20e294	0.15711433
212	0xbd5a7f5a	-0.05334411
213	0xbc802070	-0.015640467
214	0xbcdc98bb	-0.026928296
215	0x3db12f14	0.086515576
216	0x3d887a3d	0.0666394
217	0x3d643085	0.055710334
218	0x3d3dd422	0.046344884
219	0xbe662e2b	-0.22478549
220	0xbdf539ee	-0.1197394
221	0xbc861947	-0.016369475
222	0x3e310ab8	0.17289245
223	0xbd72e2b6	-0.05929824
224	0x3d4a697e	0.04941701
225	0x3e0d1d41	0.1378069
226	0x3df6024d	0.120121576
227	0x3e7f6e44	0.24944407
228	0xbe015faa	-0.12634149
229	0x3e11f232	0.14252546
230	0x3d53ffbf	0.05175757
231	0x3d413436	0.047168933
232	0x3c173ff6	0.009231558
233	0x3e4bd733	0.1990631
234	0x3e13eec1	0.14446546
235	0x3cd9f3ed	0.02660557
236	0x3d01dc10	0.03170401
237	0x3dda5c7c	0.10662171
238	0x3d7be991	0.061502043
239	0xbdaaef4f	-0.08346426
240	0xbd62d1d9	-0.055375908
241	0x3e180682	0.14846233
242	0x3d88b3e0	0.066749334
243	0xbe27b38b	-0.16377084
244	0x3c2ea012	0.010658281
245	0x3e1f801a	0.1557621
246	0xbd4782c4	-0.048708692
247	0x3d4c9b99	0.049953077
248	0x3e6ff62b	0.2343375
249	0xbce126c8	-0.027484313
250	0xbda2b911	-0.07945455
251	0xbe0b82b2	-0.13624075
252	0xbd9edf4c	-0.07757434
253	0xbe37d64a	-0.17952839
254	0x3e36f598	0.17867124
255	0xbe33765f	-0.17525624

network_body._body_endoder.seq_layers.2.bias f4 [128]
0	0x3c9401e1	0.018067302
1	0x3d7cb6ac	0.061697647
2	0x3cac15b7	0.021006448
3	0x3d38f297	0.045153227
4	0x3d30648e	0.043064646
5	0x3d8423cd	0.06452141
6	0x3d4498a5	0.047997136
7	0x3ccca7dd	0.024982387
8	0x3d09a587	0.033605125
9	0x3d63d3de	0.055621974
10	0x3c5825f4	0.0131926425
11	0x3d0d2dd6	0.03446754
12	0x3c86654e	0.016405728
13	0x3d113ba5	0.035457272
14	0x3cb5c1e5	0.022187183
15	0x3d80bf32	0.062864676
16	0x3d0ae815	0.033912737
17	0x3ca96b1f	0.020680962
18	0x3d0734b3	0.033009242
19	0xbb82273e	-0.003971963
20	0x3c736c86	0.014857417
21	0x3d1befef	0.038070615
22	0x3d4381d0	0.04773122
23	0x3d089932	0.033349223
24	0x3d3e8b9c	0.04651986
25	0x3d422927	0.047402527
26	0x3d58fe82	0.052977093
27	0x3caf2f29	0.021384792
28	0x3d2912e4	0.04127778
29	0x3cfa5f42	0.030563
30	0x3d237817	0.03990945
31	0x3d749995	0.05971678
32	0x3ce172f4	0.027520634
33	0x3d3eed37	0.046612944
34	0x3d5ec3f3	0.05438609
35	0x3cc211c6	0.023690116
36	0x3d0286b9	0.031866763
37	0x3cc43ceb	0.02395483
38	0x3d37a00d	0.04483037
39	0x3d3375f8	0.043813676
40	0x3d36fbe7	0.044673827
41	0x3d17a24a	0.037020005
42	0x3d004383	0.031314384
43	0x3cffc176	0.031220179
44	0x3d27a90a	0.040932693
45	0x3d45291e	0.048134916
46	0x3ca94e58	0.02066724
47	0x3cb4a17e	0.022049662
48	0x3d10c7ee	0.035346918
49	0x3d4715a0	0.048604608
50	0x3d5b6ee2	0.053572543
51	0x3cc3f55b	0.023920706
52	0x3d179e01	0.03701592
53	0x3c65e885	0.014032488
54	0x3ca4bf34	0.020110704
55	0x3d3647ce	0.044502072
56	0x3ceb388a	0.028713483
57	0x3cdce129	0.026962833
58	0x3cfffa8b	0.031247398
59	0x3ca74465	0.020418355
60	0x3d28121a	0.041032888
61	0x3ce04990	0.027378827
62	0x3cc1337d	0.023584122
63	0x3d6021b5	0.054719646
64	0x3d3e220e	0.046419196
65	0x3d8a0541	0.06739283
66	0x3d077db2	0.033078857
67	0x3caf6b04	0.021413334
68	0x3cef5d60	0.02921933
69	0x3ca5981c	0.020214133
70	0x3c2fbfa1	0.01072684
71	0x3cecd5f5	0.028910616
72	0x3c76a324	0.015053544
73	0x3cedaf2b	0.02901419
74	0x3ce522d7	0.027970714
75	0x3d595cfc	0.053067192
76	0x3d493307	0.04912093
77	0x3c7d2b32	0.015452193
78	0x3d3119cb	0.04323749
79	0x3d21f112	0.039536543
80	0x3b80c283	0.0039294376
81	0x3d1420ed	0.036164213
82	0x3d858742	0.06519939
83	0x3d355c4c	0.044277474
84	0x3d247e82	0.04015971
85	0x3d43e00d	0.047821093
86	0x3ce0be98	0.027434632
87	0x3d13c499	0.036076162
88	0x3d60fef9	0.05493066
89	0x3d42dfb3	0.047576617
90	0x3d2f3567	0.042775538
91	0x3d0d4f11	0.03449923
92	0x3d638e5b	0.055555683
93	0x3c585993	0.01320495
94	0x3d33bb3f	0.043879744
95	0x3cb0d068	0.02158375
96	0x3d75c080	0.059998035
97	0xb9e30ecf	-0.00043307847
98	0x3cb0e798	0.021594808
99	0x3ccae014	0.024765052
100	0x3d5f084d	0.054451276
101	0x3c6b435a	0.01435932
102	0x3d21e4fe	0.039525025
103	0x3d4d3085	0.0500951
104	0x3d6c6f11	0.05772311
105	0x3d50e3b9	0.050998423
106	0x3d6e50d9	0.05818257
107	0x3d17381a	0.036918737
108	0x3c1d0591	0.009583847
109	0x3c2f6015	0.01070406
110	0x3d0dc9c9	0.034616265
111	0x3d8604d4	0.0654389
112	0x3d0f0488	0.03491643
113	0x3d4163e5	0.047214407
114	0x3ce42c74	0.027853228
115	0x3c65b827	0.014020956
116	0x3d0b351a	0.03398619
117	0x3d2aa39b	0.041659933
118	0x3c4a9e1d	0.012366799
119	0x3d18afcf	0.03727704
120	0x3d161123	0.036637437
121	0x3d42b3a1	0.04753459
122	0x3d381950	0.044946015
123	0x3bc756ea	0.006083359
124	0x3c86d590	0.016459256
125	0x3d6abeb6	0.057310782
126	0x3cb1e790	0.021716863
127	0x3d9247e5	0.07142619

action_model._continuous_distribution.log_sigma f4 [1, 2]
0	0xbe084876	-0.13308892
1	0xbe07bb8a	-0.13255134

action_model._continuous_distribution.mu.weight f4 [2, 128]
0	0xbd4eb85e	-0.050468795
1	0xbd55a82f	-0.052162345
2	0xbd84c1e5	-0.06482295
3	0xbc0ae7e8	-0.008478142
4	0x3da0b17f	0.07846355
5	0x3cf6c044	0.030120976
6	0x3cc27886	0.02373911
7	0xbca45b2a	-0.020063002
8	0xbaf5ac17	-0.0018743303
9	0xbd40f4cc	-0.047108456
10	0x3cdb7b58	0.026792213
11	0xbda25d72	-0.079279795
12	0xbd3eb090	-0.046555102
13	0x3cb95521	0.0226236
14	0xbc44ba0b	-0.012007247
15	0xbde04186	-0.109499976
16	0xbd3e4fad	-0.046462703
17	0xbd5b3823	-0.053520333
18	0x3da5f307	0.081029944
19	0x3c10cbb5	0.00883763
20	0xbca331ec	-0.019921266
21	0x3da10805	0.07862858
22	0x3cf7b1cb	0.030236145
23	0xbce5140a	-0.027963657
24	0xbd94ef93	-0.07272258
25	0xbd156acb	-0.0364788
26	0x3d6572d6	0.05601772
27	0x3d7796f1	0.060446683
28	0x3d4f5832	0.05062122
29	0xbd440080	-0.04785204
30	0x3d94a3c1	0.07257796
31	0xbd7567cb	-0.059913438
32	0xbd6d5ec0	-0.05795169
33	0x3dd59840	0.1042943
34	0x3dab4729	0.08363182
35	0xbcd5c950	-0.02609697
36	0xbd502f99	-0.050826643
37	0xbd5311d7	-0.051530685
38	0x3d813a46	0.06309943
39	0x3db0654c	0.08613071
40	0x3dca33a4	0.09873131
41	0xbda4b1e7	-0.08041745
42	0x3d96229e	0.073308215
43	0xbd25e975	-0.040505845
44	0x3cedeea1	0.029044451
45	0x3bba559e	0.005686476
46	0x3d57cf93	0.052688193
47	0x3d263f32	0.04058761
48	0x3d8a9aa7	0.06767779
49	0xbdf17959	-0.11790723
50	0x3dc284bb	0.094979726
51	0x3d6d0756	0.057868324
52	0x3d951de2	0.0728109
53	0xbd2e6c10	-0.042583525
54	0xbcdd9521	-0.02704865
55	0xbdc1f444	-0.09470418
56	0xbcf5598b	-0.029949924
57	0xbc4de1cc	-0.012566041
58	0xbd3f9e2a	-0.046781696
59	0x3d993812	0.07481398
60	0x3dbfab67	0.09358864
61	0x3cfbef8d	0.030753875
62	0x3d1e6d7e	0.03867864
63	0xbd3a47b5	-0.04547854
64	0x3dc53f5e	0.09631227
65	0x3dfaf20d	0.12253199
66	0x3ccbefed	0.024894679
67	0x3ceb776b	0.028743466
68	0xbda05a95	-0.07829777
69	0xbd90dd40	-0.0707345
70	0xbd103557	-0.03520712
71	0xbd82b90b	-0.063829504
72	0xbd4040aa	-0.04693667
73	0x3d816f5e	0.0632007
74	0xbd578482	-0.052616604
75	0x3d0e1d8a	0.03469614
76	0xbda2b0b3	-0.07943859
77	0xbcd29608	-0.025706306
78	0x3cbb9347	0.022897376
79	0x3dd11684	0.10209373
80	0x3ce8cbe6	0.028417539
81	0x3dbe46dd	0.0929086
82	0x3befc511	0.0073171933
83	0x3d6e96a1	0.05824912
84	0x3d3c55aa	0.045980133
85	0x3cf11e3f	0.029433368
86	0x3cf98b3d	0.030461902
87	0x3d97a12c	0.07403788
88	0xbd9a0846	-0.07521109
89	0xbd94b1a4	-0.07260445
90	0xbdbad928	-0.091234505
91	0xbda9f800	-0.08299255
92	0x3d93bc3c	0.07213637
93	0x3b679a32	0.003533971
94	0xbbc8c138	-0.006126549
95	0x3d209067	0.039200213
96	0x3d77ebef	0.06052774
97	0xbd1e649c	-0.038670167
98	0x3d36cf39	0.044631217
99	0xbd0323ae	-0.03201645
100	0x3c938f7e	0.018012758
101	0x3c9d3d8a	0.019194383
102	0xbdd9e992	-0.10640253
103	0xbd5f9361	-0.05458391
104	0xbd205c05	-0.039150257
105	0x3ddb7a57	0.10716694
106	0xbd906493	-0.07050433
107	0xbd82d35b	-0.06387969
108	0x3d4cfba9	0.05004469
109	0xbd15cc8e	-0.03657203
110	0xbd69c2d6	-0.057070576
111	0xbcad32b5	-0.021142343
112	0xbd986021	-0.0744021
113	0x3d787526	0.060658596
114	0xbd78f50a	-0.060780562
115	0xbda55ca5	-0.08074311
116	0x3d355521	0.04427064
117	0x3d88d50f	0.06681263
118	0x3d9a9e04	0.0754967
119	0xbcfbd113	-0.030739343
120	0xbd499cbb	-0.049221735
121	0x3c916b77	0.017751439
122	0x3bc6c562	0.0060660103
123	0xbd5999e5	-0.05312528
124	0xba5c168c	-0.0008395694
125	0x3d691f9f	0.05691492
126	0xbd24349e	-0.040089242
127	0x3dc3cc1b	0.095604144
128	0x3cad5512	0.021158729
129	0xbdc087db	-0.094009124
130	0x3c59e7eb	0.013299922
131	0x3db6182c	0.08891329
132	0x3d6f52f1	0.05842871
133	0x3d90142a	0.07035096
134	0x3dd9d949	0.10637147
135	0x3d610ec4	0.054945722
136	0x3d86c576	0.065806314
137	0xbd91244f	-0.070870034
138	0x3d913e59	0.0709197
139	0x3d2bd6bc	0.041952834
140	0x3c4a4d76	0.01234757
141	0xbd69adf4	-0.05705066
142	0x3d795fff	0.060882565
143	0xbd9d8675	-0.07691661
144	0xbd8d9eb3	-0.06915035
145	0xbc8bfd6c	-0.017088614
146	0xbc4295a6	-0.011876499
147	0xbb293a61	-0.002582215
148	0x3ceb9d23	0.028761452
149	0x3d4ce1c7	0.050020006
150	0x3db8e6a5	0.09028367
151	0xbd831517	-0.06400507
152	0xbd8e0f9c	-0.06936571
153	0x3dd1fbce	0.10253106
154	0x3de227c3	0.1104274
155	0x3cccf30e	0.025018241
156	0xbdaf5129	-0.08560402
157	0xbd393305	-0.04521467
158	0xbd1a6ecf	-0.03770333
159	0xbd9897b7	-0.07450812
160	0xbcd34ba1	-0.025792899
161	0x3d004bee	0.031322412
162	0x3cfb0626	0.03064258
163	0x3dc32e9a	0.09530373
164	0xbd9d4818	-0.076797664
165	0xbd34c950	-0.0441373
166	0xbd7d3a6b	-0.06182329
167	0x3da113ce	0.078651056
168	0x3c59213c	0.013252553
169	0xbd45eaa7	-0.048319485
170	0xbd1ac5e3	-0.037786376
171	0xbd929e9e	-0.0715916
172	0xbdb04bd2	-0.086082116
173	0x3df1d819	0.118087955
174	0xbc77cef0	-0.015125021
175	0xbd0e18cb	-0.034691613
176	0xbbb56977	-0.005536254
177	0xbc3c9698	-0.011510514
178	0x3d8cc518	0.0687353
179	0xbd51cf0c	-0.051222846
180	0x3c8ae160	0.01695317
181	0x3d6175ed	0.055044103
182	0xbd86fae8	-0.06590825
183	0x3cf423cf	0.029802231
184	0x3d8c247d	0.06842897
185	0xbd8419a8	-0.06450206
186	0x3d5bbb3f	0.05364537
187	0x3b99fcde	0.0046993336
188	0x3be31529	0.0069300127
189	0x3d300ddc	0.042981967
190	0x3d0dc6da	0.034613468
191	0x3dbaf7f0	0.091293216
192	0x3c7a7579	0.015286797
193	0x3b5edd12	0.003400628
194	0x3d92c457	0.07166355
195	0xbcbb5f20	-0.022872508
196	0x3c120413	0.008912104
197	0xbb326439	-0.0027220382
198	0xbcf949ac	-0.030430637
199	0xbd518b57	-0.051158275
200	0x3cd259fa	0.02567767
201	0xbd32eb76	-0.043681584
202	0x3d850417	0.06494921
203	0x3da494ec	0.08036217
204	0x3cea0a72	0.028569434
205	0xbd45d41f	-0.048297998
206	0xbdac7e2f	-0.08422505
207	0xbd2f6f97	-0.04283103
208	0xb8cfd297	-9.9097546e-05
209	0x3bfe47e9	0.007760037
210	0xbdc86678	-0.09785169
211	0x3db8d698	0.090253055
212	0xbd9944b1	-0.07483805
213	0x3dbe68bc	0.0929732
214	0xbd8c67a3	-0.06855705
215	0xbd829a67	-0.06377106
216	0xbd05b254	-0.03264077
217	0x3da98e57	0.08279102
218	0x3cd93cd9	0.026518272
219	0xbd201e9e	-0.0390917
220	0xbdba2962	-0.090899244
221	0xbd3facdc	-0.04679571
222	0xbdb9f999	-0.0908081
223	0x3d7e67dd	0.06211077
224	0xbdc65415	-0.09684006
225	0x3cb8b6ee	0.022548165
226	0xbd68c773	-0.056830835
227	0x3cedf0f5	0.029045561
228	0xbdedbac4	-0.11607888
229	0x3d3230a3	0.043503415
230	0xbd248986	-0.040170215
231	0xbdc6b649	-0.09702737
232	0x3d967edd	0.07348416
233	0xbca8171c	-0.020518832
234	0xbd874353	-0.06604638
235	0x3d8e9901	0.06962777
236	0x3cdebd8b	0.02718999
237	0x3b665d4e	0.0035150829
238	0x3bb59a51	0.0055420776
239	0x3dde822f	0.10864674
240	0xbc3470b7	-0.011013201
241	0x3d4a4cb5	0.04938956
242	0x3bda1c5b	0.0066562123
243	0x3b0096b8	0.0019621085
244	0xbdb08844	-0.086197406
245	0xbdabf476	-0.083962366
246	0xbd1d4b6a	-0.038402
247	0xbdbeeffd	-0.09323118
248	0x3de428b5	0.11140577
249	0x3daf536c	0.08560833
250	0xbd8682c8	-0.06567913
251	0xbc97de15	-0.018538514
252	0xbd81d26f	-0.06338965
253	0xbd5d51b9	-0.054033015
254	0x3d927aaf	0.07152306
255	0x3d9378e1	0.0720079

action_model._continuous_distribution.mu.bias f4 [2]
0	0x3a80131f	0.0009771324
1	0xbbc4ff0f	-0.0060118507

60 f4 [28]
0	0x3ebd63ea	0.3699029
1	0x3ef30658	0.47465777
2	0x3ec43e5d	0.3832883
3	0x3e9aed6b	0.3025926
4	0x3eb44ebc	0.3521632
5	0x3ef256a7	0.47331735
6	0x3eca3abb	0.39497933
7	0x3e9d001f	0.30664155
8	0x3eb37d06	0.35056323
9	0x3ef19c02	0.47189337
10	0x3ec931cb	0.39295802
11	0x3e9cf0c9	0.30652454
12	0x3e9e48da	0.30914956
13	0x3eff907f	0.4991493
14	0x3ef64656	0.48100537
15	0x3e9beaf5	0.30452695
16	0x3e9d9d4d	0.30784073
17	0x3eff3923	0.4984828
18	0x3ef4f3db	0.47842297
19	0x3e9bb585	0.30411926
20	0x3e85dea4	0.26146424
21	0x3effc916	0.49958104
22	0x3efe81d2	0.4970842
23	0x3e93d956	0.28876752
24	0x3e863e24	0.26219285
25	0x3efffc37	0.49997112
26	0x3efd6c8b	0.49496874
27	0x3e93ea30	0.28889608

63 f4 [15]
0	0x430dd5b4	141.83478
1	0x3ab95cd9	0.0014142051
2	0x42e0b9a0	112.36255
3	0x430eb1c9	142.69447
4	0x3ab95cd9	0.0014142051
5	0x42e2941b	113.28927
6	0x3f2fca7f	0.6866836
7	0x3ab95cd9	0.0014142051
8	0x3f36b824	0.71374726
9	0x411949b6	9.580496
10	0x411dce01	9.862794
11	0x40270200	2.609497
12	0x3f290968	0.6602998
13	0x3ab95cd9	0.0014142051
14	0x3f3e18c0	0.74256516
