Assets/NN Models/Training_0.onnx (onnx, 92409 bytes, 7 tensors)

network_body._body_endoder.seq_layers.0.weight f4 [128, 43]
00000000: ed4f 27bd 2fe3 a63c bc5b 03be 21fd 243e
00000010: f1c0 24bd 285a 1d3e 1c25 dd3d 3994 703d
00000020: db06 cfb8 691d 41be 37cd 1ebd 01ea 7ebc
00000030: 0aad 10be 81b4 2a3d 51f0 c83d fd00 0c3e
00000040: 57e4 b6bd c8fe d6bc 1ccd 0ebc 29c8 e7bd
00000050: 89bb 5bbd 688d 663e 1450 1ebd d0b5 80bc
00000060: 5ff9 633e 7849 923d 523e 89bd 041b e13c
00000070: fa9f cabd a77c 8f3d 0e16 9c3c 6b94 ae3d
00000080: 308a 993d 9458 fb3d bcaa 9c3c debb 683e
00000090: 89a8 b2be 2d3e 8ebd 9d7e 9dbc 1589 91be
000000a0: c8f6 bfbd 969c 113e d80f 2d3e 8d5a f13d
000000b0: 8569 16bd a4b2 25be 8f70 123e 3ba1 013e
000000c0: 02ba 35be a53a 2ebc 2b9f 193e 0491 343e
000000d0: 11cd e13d ee6d f43c f0a9 b63d 6b13 9a3d
000000e0: f3b3 f03b c7b3 4fbe ca7e 853e 99e2 2d3d
000000f0: 2539 b2bc e24b 943b 9183 fc3d 170e fd3d
00000100: 70a6 a6bb a760 9a3d 89d3 403e f534 b23e
00000110: 3df3 153c dbf7 2dbd 4575 48be 9b99 23be
00000120: 2c59 803e eb15 dfbb bc0d 4a3e 4e30 3e3e
00000130: f781 52be a505 b93d fe5c c1bd f6ad 3dbe
00000140: 057d 60bd cdf4 083e dbb2 903c 80d5 373e
00000150: 2c01 8cbd c5ee 483e 3938 2dbe c7ce bcbe
00000160: ffe8 f83d 5453 cfbd 417e 35bd 75c4 85be
00000170: fb74 00be 3d06 82bc ef98 2b3e f653 ce3d
00000180: e16d 0bbe d60c a7bc e240 363e 8f39 0bbd
00000190: 189a 113e 67ce 28be 9b25 a23d 6fd1 a8be
000001a0: 5479 8a3d 1c59 02bc 604a 7cbe 3092 913c
000001b0: b937 8b3e 16f5 efbc 2a87 893c a476 f63c
000001c0: 9add 083d b806 d63d c68f 283e e0c4 153e
000001d0: c84b 9b3c bf55 81be 43f0 833e 68fe 7c3e
000001e0: c197 cfbd 6572 96be 7c8b 8cbd e180 893d
000001f0: 0baa febd d43d 54bd 9709 fb3d 182a 7ebd
00000200: 1d70 cbbd 471c c03c cf9e 0a3e 72fa 6ebe
00000210: 968e 65bb 3e20 683c 06ff f1bd 5be6 973d
00000220: 178f d73b 8a63 87bc 34c9 adbd d832 54bd
00000230: b26b d9bb 0fe4 be3d d151 91bc eb6d 12bd
00000240: 848c 07be 904b 9fbc 922f 82bc b1e6 c5be
00000250: ac46 debd 943c 233e e75c 083d 5184 50bd
00000260: db62 17bd fb4e e43d cad2 8ebc 36d9 343e
00000270: 4305 79be e0a7 a9bd f21c 81be 4032 30bd
00000280: 9b73 f13d 9bd0 0e3b 7f08 27bd d18f a3be
00000290: 3e4a 80be e3dc adbd 345d d8bd 0b81 d1bd
000002a0: 199e c3bd 9934 9bbe 5ecb 843c 3f83 043e
000002b0: c6cb bb3d ab52 06be 0394 e03d ea9d a53d
000002c0: 3ccf 82bd 865b aa3d 915b 07bd eb2f f8bc
000002d0: b3b9 df3d 4bf8 9ebd e7f0 5a3e 399f e0bd
000002e0: 3848 503e 1ba9 b83d 2d7b 2cbe 4b29 873d
000002f0: 3988 a1bc b753 14be f048 4bbd 36d5 3dbd
00000300: d0d4 82be 670e f93c 7807 0a3f 6eaf b6bd
00000310: 1938 063e e9da d73c e2ae 263e cfe2 2bbe
00000320: a43c c6be 9323 05be 1710 50bd cbfc 3dbe
00000330: 0e7a 893d 51d9 193e f37d e83d ac14 80bd
00000340: 01d9 5a3e 65f7 d53d bdc4 943d 3936 c73d
00000350: 8dcb 32be 4093 863e d721 e4bd 497d 58be
00000360: e3ee 51bd a2c8 0e3e 543d 223d cd81 943d
00000370: 81d5 7ebc 7eab d4bd ba25 61be 327e e13d
00000380: 216d 1abe f2a1 1cbe 7bca c1bd 0d41 cd3e
00000390: 4550 22be 1efc ec3d f503 0ebe 9271 2b3c
000003a0: 2d2d 3ebe c6b3 fa3c ca26 94bd d94c 0e3c
000003b0: 3ecf d2bd 4530 65bd c39d a33d daec 6cbe
000003c0: aec7 00bb f55f d2bd 438e 933d c688 093e
000003d0: aa4a 0c3e 3025 97bd 1ff3 333e 3254 b13e
000003e0: 9054 07bd 546e 323e 48bb 5dbe 2bae c9be
000003f0: 0059 9e3d 4a91 01bc b1ab 2b3e f193 ed3d
-0.040847708 0.020372001 -0.12827963 0.16112186 -0.040223066 0.15366423 0.10798094 0.058735106
-9.871806e-05 -0.18858875 -0.038769927 -0.015558721 -0.14128509 0.04167605 0.09811462 0.13672252
-0.08930271 -0.026244536 -0.008715894 -0.113174744 -0.053645644 0.2251488 -0.038650587 -0.015711695
0.22263096 0.07142919 -0.0670134 0.027478702 -0.09893794 0.070061974 0.019053485 0.08524402
0.0749706 0.12272754 0.019124381 0.22727916 -0.34894207 -0.06945453 -0.019225413 -0.28424898
-0.09373242 0.14219889 0.16900575 0.11784849 -0.036721725 -0.16181427 0.1430075 0.12659161
-0.17746738 -0.010634099 0.15002124 0.17633444 0.110254414 0.029837575 0.08919132 0.07523235
0.0073456704 -0.20283423 0.26073295 0.04245243 -0.021755764 0.0045256475 0.12329782 0.12356203
-0.005085759 0.07537966 0.18830694 0.34806028 0.009152231 -0.0424727 -0.19575985 -0.15976565
0.25068033 -0.0068080327 0.19731802 0.18573114 -0.2055739 0.0903428 -0.09441565 -0.18523392
-0.054806728 0.13374634 0.01766341 0.17952538 -0.06836161 0.19622333 -0.16915978 -0.3687651
0.121538155 -0.101233155 -0.04430986 -0.26126447 -0.12544625 -0.015872115 0.16757558 0.10074608
-0.13616134 -0.020391863 0.17798188 -0.03399044 0.14218938 -0.16484986 0.07917329 -0.32972285
0.06761423 -0.007955816 -0.24637747 0.017769903 0.2719095 -0.02929167 0.016788084 0.03008587
0.03341446 0.104505 0.16461095 0.14625883 0.018957034 -0.25260732 0.25769243 0.24706423
-0.10136367 -0.2938415 -0.06862542 0.06714035 -0.12434777 -0.051816776 0.122576885 -0.062051862
-0.09933493 0.023450984 0.13537143 -0.23337725 -0.0035027615 0.014167843 -0.1181622 0.07416984
0.006578337 -0.016526956 -0.08485642 -0.0518063 -0.0066351527 0.093208425 -0.017739208 -0.035749357
-0.13237196 -0.01944521 -0.015891824 -0.38652566 -0.10853323 0.15941077 0.033291724 -0.050907437
-0.03695951 0.11147877 -0.017434496 0.17660984 -0.24318413 -0.08283973 -0.25217396 -0.043016672
0.11789628 0.002179182 -0.040779587 -0.3194566 -0.25056642 -0.084893964 -0.10564652 -0.10229691
-0.09551639 -0.30313566 0.016210254 0.12940691 0.09169726 -0.13117473 0.10965731 0.0808676
-0.06387183 0.08318238 -0.03304631 -0.030296287 0.10924091 -0.07762202 0.2138096 -0.10967869
0.2034005 0.09016629 -0.16843863 0.06599673 -0.019718276 -0.1448506 -0.049630105 -0.046345912
-0.25552988 0.030402375 0.53917646 -0.08920179 0.13107337 0.026349502 0.1627765 -0.1678574
-0.3871814 -0.13001852 -0.050796594 -0.18553464 0.06712733 0.15024306 0.11352148 -0.06253943
0.21371843 0.104475774 0.07264087 0.09727139 -0.17460461 0.26284218 -0.11139267 -0.21141542
-0.05125321 0.13943723 0.03960927 0.0725132 -0.015553833 -0.10384272 -0.21987048 0.11010398
-0.15080692 -0.15296152 -0.09462448 0.40088692 -0.15850933 0.11571525 -0.13868697 0.010464089
-0.1857192 0.0306033 -0.07233961 0.008685314 -0.102934346 -0.055954237 0.07989075 -0.23137227
-0.0019650268 -0.102722086 0.07204869 0.13431081 0.13700357 -0.0738014 0.17573212 0.34634548
-0.03303963 0.174249 -0.21653473 -0.39390692 0.07731819 -0.007908175 0.16764714 0.11600483

network_body._body_endoder.seq_layers.0.bias f4 [128]
00000000: d0d6 40b8 038f 483b 022f b0ba 389b 0dbc
00000010: 8122 3cba de24 0abc 251a 62ba 2b1d 90bb
00000020: 339c 41b9 827e b139 650a b3ba d94a fc39
00000030: 9e37 71ba d8be 253b ab26 283b bb5c c63a
00000040: e0b5 80bb caad bbba 7ea6 2dbb 4b0f 31bb
00000050: af2f 423a 9224 2aba 44ff eebb 0a10 c33a
00000060: 7f41 98ba ab8f 4eb9 0b21 023c 74fe 863a
00000070: 9ef8 e0bb cd8c 75b9 8fe1 e4ba 0c7d 643a
00000080: f941 13ba 8af5 7c3b 3794 583a f027 033b
00000090: ebd2 8b3b 35e6 7039 c133 183c cb82 1bba
000000a0: cae5 033b 87de 81bb cdd7 8a3a 369e c6bb
000000b0: d550 8c38 5571 dfba 52ba 17bb df26 fc3a
000000c0: 0240 afba 9757 0539 fa4e 203a 749a 6dba
000000d0: 706d 8e39 168f fab8 1188 82bb 1b41 8a3a
000000e0: 724b e63a 15ee 8bbb fad7 c1bb 2738 39ba
000000f0: d766 16bc db1c c23b 53d8 81b3 c75f d4bb
00000100: 9105 b3ba 4963 443b 081e 0b3b 41e9 263b
00000110: 2003 8b3a 5e51 aebb 3948 2bbb 9672 073c
00000120: a410 16b9 26fb 0ebb e871 f5ba b919 aab9
00000130: 5d47 00bc 633a 92ba 40d7 22b8 2691 cebb
00000140: 745e 4ebc ea7c 29bb 8351 8d3b 90af c9ba
00000150: f005 353b b9cb 2fbc bc7e 96b9 ec7f a1bb
00000160: 4b03 d6ba 8ecb 923a 6550 9cbb cb57 e4bb
00000170: 23ba 8aba a512 e8ba d5f5 beb9 1384 95b8
00000180: 50e0 bcba 76d7 193b b4b0 c3bb 79f9 68bc
00000190: a26f d739 7319 263a b118 c2b9 b7df 83bb
000001a0: 0fde b6ba f83a f43b 03e2 12bb 78d1 08bc
000001b0: 73dc 22bb 9790 acbb d2fd 7bb7 2700 2e38
000001c0: 8741 1cb9 294b b0ba f1ba 9bba bbc7 18bc
000001d0: 0403 3639 8548 17bb cb59 393b c675 07bb
000001e0: cb3a acba 4f92 7aba 76ca 213c fbeb 93bb
000001f0: 7b2c afba 535c 5637 2989 2dbb 65ac cf3a
-4.5976427e-05 0.003060282 -0.0013441744 -0.008642964 -0.00071767723 -0.008431641 -0.00086251117 -0.0043980083
-0.00018464103 0.00033854326 -0.0013659714 0.0004812095 -0.0009201708 0.0025290754 0.0025657814 0.0015133837
-0.003927931 -0.0014318761 -0.0026496942 -0.0027017172 0.0007407618 -0.0006490435 -0.0072936136 0.0014882099
-0.0011616199 -0.00019699211 0.007942448 0.0010299222 -0.006865575 -0.00023417473 -0.0017462241 0.0008716143
-0.00056174357 0.00385985 0.0008261832 0.0020012818 0.0042670867 0.00022973942 0.009289683 -0.00059322704
0.0020125979 -0.003963295 0.0010592878 -0.0060613407 6.690776e-05 -0.0017047325 -0.0023151827 0.0019237659
-0.0013370516 0.00012716498 0.0006115284 -0.0009063848 0.00027165888 -0.00011947581 -0.0039835055 0.0010547967
0.0017570092 -0.004270325 -0.005915639 -0.00070655573 -0.009179792 0.00592385 -6.04638e-08 -0.006481144
-0.0013658275 0.0029966405 0.0021227617 0.002546862 0.001060579 -0.0053197583 -0.0026135577 0.0082670655
-0.00014311314 -0.0021817177 -0.0018725963 -0.00032444092 -0.007829514 -0.0011156317 -3.8824277e-05 -0.006303924
-0.012595762 -0.0025861808 0.0043126955 -0.0015387405 0.0027621947 -0.010729724 -0.00028704654 -0.0049285796
-0.0016327886 0.001119958 -0.004770326 -0.0069684735 -0.0010584038 -0.0017705752 -0.00036422783 -7.1294744e-05
-0.0014410112 0.0023474372 -0.0059719924 -0.014219635 0.00041091169 0.00063361897 -0.0003702096 -0.0040244716
-0.0013951677 0.0074533187 -0.0022412546 -0.0083507225 -0.0024850636 -0.00526626 -1.5019863e-05 4.1484975e-05
-0.0001490173 -0.0013450134 -0.0011881274 -0.009324963 0.00017357996 -0.0023083996 0.002828228 -0.0020669564
-0.001314008 -0.0009558545 0.009874931 -0.004514215 -0.0013364697 1.277689e-05 -0.002647946 0.0015844224

network_body._body_endoder.seq_layers.2.weight f4 [128, 128]
00000000: 42a4 d93d 339d 9cbd 7c1e db3d 9e61 d6bc
00000010: 4ecb b2bd fb9c 51bd 7fe7 53bc 3b46 a33d
00000020: bc0e dabd 8dec 44bc ea5b 39bd bd4a 1abd
00000030: 6647 803c 0cc0 953c 4fc8 80bd a048 3abd
00000040: 81c0 d8bd d430 f2bd fd3f 0dbe 7d73 413d
00000050: 7105 183e 3adb f23d bc1b a4bb 34ca b33d
00000060: fd0a ff3d 17ce 223d d055 15be 5e67 983d
00000070: bc52 7d3d 3f15 dcbd 5fae c6bd d2cf 483d
00000080: 1dc7 963d cf55 023e bc91 803d 97a9 043e
00000090: 9649 cdbd dbd8 343e d587 9abc a449 323d
000000a0: eee8 163d 4ba1 0d3d 08bf acbd c0e0 8b3d
000000b0: d5fd 7f3d 9f34 66bd e1b7 74bc 92d3 ae3d
000000c0: 0969 5dbd 0ec2 aebd 89a2 26bd 9d20 3c3d
000000d0: d065 0d3e 1a5f 6bbd f69e a8bd 7fde e4bc
000000e0: 0eeb 743e cf89 313c 8c71 943d f964 f53c
000000f0: f40b 213d a459 cfbd 3904 893e b43f 3c3d
00000100: a7c2 8b3d 1c07 ae3c 0c02 b4bb 8ac3 63bd
00000110: f4e1 23bd 1b58 c83d e443 fbbd 0db9 853d
00000120: a4e0 22bd 082b a23d 57a0 b23d 3dea 583c
00000130: 19a2 023e ddab 253e f639 933d 259d 7ebd
00000140: c89d 3f3a ed72 7a3d fc4a debd 823b 843d
00000150: a5b3 0c3b a0ed c1bd 068e 02bd 1035 713d
00000160: 3bb9 13be f32c 483c ced8 83bd 394f 65bd
00000170: cafb ac3d 40bf f8bc 5836 843d fa04 0dbe
00000180: 8b84 9abd 0e14 293d 278f 453c 4513 1cba
00000190: 5169 00bd b8b3 a4bd fe5c 32bd bd72 a7bd
000001a0: a8e2 af3c b15b 65bc 5fd3 d63d 9838 363d
000001b0: f661 6c3d 52af 18bc eff9 fbbd 8afb 493d
000001c0: fc43 12be 9c71 e9bd e6b2 bdbd ee28 87bc
000001d0: eebc b2bd 0338 f33d bdb5 253d e212 07be
000001e0: 0860 8fbb 9a65 0cbd 2c1a 94bd 3a43 67bd
000001f0: 0adf 1bbe 3841 81bd aff6 c3bc f5ed d7bd
00000200: 744f ad3c b0a3 2cbd 8486 193e 9123 fabc
00000210: a9da 163e 2b6f 493d 18d0 ff3c 9634 c13d
00000220: 8b38 833c aa05 2d3d f421 51bd 81fb 8b3d
00000230: 6f54 743c 6c63 03bd 98ad d0bc feb2 853d
00000240: 72f1 d43d ced9 3dbe 9db0 f13d 1b7e 3c3d
00000250: f32c a7bc 14aa 1e3d 9101 f03c 0c2b 43be
00000260: 95ee a7bd 0b3e e9bc 7c9e afbb 39a7 d13d
00000270: 653d 1ebd d949 48bc 54fd 9abd de5f 9abd
00000280: 039d cabc 55ce 983c 06ed 45be 8b2e 2cbd
00000290: 8e06 48bc 5511 75bd 9430 9bbd 77f3 1d3d
000002a0: ca41 02ba 9f29 133d e2a4 28be c3e1 82be
000002b0: f446 65bd 3b58 08be 6aaf d73c 9c7d 3c3d
000002c0: ef37 023e b3ef 453d 6610 64bd 9fb9 f4bd
000002d0: 2374 e53b 1af4 313d d7fd 4ebe 405f d6bd
000002e0: 02f3 1abb 4feb d13b 9322 89bb f40b 2abc
000002f0: 77f5 36bd 2c3c 9cbd 3872 91bc c00a dbbc
00000300: 062a 0f3e e802 96bc 42df bb3c 96eb 273c
00000310: ad69 cabd c73e 12be 1eab 493b 7682 353d
00000320: fe2d 203e d409 963d 700a 57b9 9ef2 613d
00000330: 2a15 c33d 07ca 183d bfa1 06bd 11d9 83bd
00000340: c78e 99bd ebd5 0ebe 0af5 aabc db37 c7bc
00000350: 56c5 083e 2ed2 c23c a114 043e 0f59 293e
00000360: 7f13 c3bd e73b 8abd dbba 29be b41d 7f3c
00000370: 3bea f8bc 7d5f bf3d 0da8 cdbd 3973 e3bc
00000380: 1875 4d3d 2822 30bd 0224 9f3d c301 b4bd
00000390: 70fa ec3d 47b4 213d 3f64 22be 013e 54bd
000003a0: 308b 453d 80f4 493d cb6f 97ba 66a3 eb3c
000003b0: 9df8 443e 6499 f23d dca8 2dbe 7a22 183d
000003c0: babc 773c 17e9 333e cd38 7e3d 6d46 80bc
000003d0: e604 1b3e fdce 50bd 2a2b bb3d 4314 06be
000003e0: 7660 a6bc bc19 2a3e 2e63 193c b8ed 833c
000003f0: ea36 213e 4eff 50bd 1843 083d 73c6 a2bd
0.10627033 -0.07647171 0.10699174 -0.026169594 -0.087301835 -0.0511751 -0.012933611 0.0797238
-0.106473416 -0.012019289 -0.04525367 -0.037668932 0.015659045 0.018280052 -0.06288206 -0.045479417
-0.10583592 -0.118257195 -0.13793941 0.04722928 0.14845826 0.118582204 -0.005008189 0.087788016
0.12453268 0.039747324 -0.14583516 0.07441591 0.06184648 -0.1074624 -0.097012274 0.049026318
0.073621966 0.12728046 0.062777966 0.12955318 -0.10023801 0.17660849 -0.018863598 0.04352726
0.036843233 0.03457765 -0.08434874 0.06829977 0.062497932 -0.056202527 -0.014936418 0.085364476
-0.054055247 -0.08533107 -0.04068235 0.04592954 0.1380837 -0.057463743 -0.082334444 -0.027938126
0.23917791 0.010836079 0.0724822 0.029955374 0.03931804 -0.101245195 0.26761034 0.04595919
0.06824236 0.021243624 -0.005493408 -0.055606402 -0.040010408 0.0978243 -0.122688085 0.06529436
-0.039765015 0.07918364 0.08721989 0.0132394405 0.12757148 0.16178842 0.071887895 -0.062161583
0.0007309583 0.061144758 -0.10854146 0.06456663 0.0021469381 -0.094691515 -0.031873725 0.058888495
-0.14426129 0.012217748 -0.064378366 -0.055983756 0.084464625 -0.030364633 0.06455678 -0.1377143
-0.07544812 0.04127889 0.012058056 -0.0005953799 -0.031350438 -0.08042091 -0.043545716 -0.081761815
0.021470383 -0.013998912 0.104895346 0.044487566 0.05771061 -0.009319143 -0.123035304 0.049312152
-0.14283746 -0.113986224 -0.09262638 -0.016499009 -0.08727442 0.11875918 0.040456522 -0.13190797
-0.0043754615 -0.034276582 -0.072315544 -0.056460597 -0.15221801 -0.063112676 -0.023921339 -0.105434336
0.02115605 -0.042148292 0.1499272 -0.030534538 0.1473185 0.049178284 0.031227157 0.09433858
0.016018173 0.04224173 -0.05105777 0.0683508 0.014912709 -0.032077238 -0.025473401 0.06528281
0.103976145 -0.18540117 0.118012644 0.0460187 -0.020407176 0.038736418 0.029297622 -0.1905939
-0.08199803 -0.028471967 -0.005359469 0.10236973 -0.03863277 -0.012224638 -0.0756785 -0.075378165
-0.024733072 0.018653074 -0.19328699 -0.042036574 -0.012208594 -0.059830982 -0.07577625 0.038562264
-0.000496891 0.035928365 -0.16469148 -0.25562868 -0.05597587 -0.13314907 0.026328761 0.046018228
0.1271665 0.048324298 -0.0556797 -0.11949467 0.00700237 0.043445684 -0.2021402 -0.10467386
-0.002364338 0.006406225 -0.00418503 -0.010378826 -0.044667687 -0.076286644 -0.017754659 -0.026738524
0.13980874 -0.018311933 0.022933606 0.010249039 -0.09883437 -0.1428176 0.003077216 0.04431387
0.15642545 0.07326093 -0.00020507886 0.05516302 0.09525521 0.037302043 -0.032869097 -0.064378865
-0.07497936 -0.1394879 -0.020868797 -0.024318626 0.13356528 0.023781862 0.12898494 0.1653788
-0.09525203 -0.06749707 -0.16575186 0.015571047 -0.030385127 0.09344385 -0.10041819 -0.027764903
0.050160497 -0.043001324 0.0777054 -0.087893985 0.11571205 0.039478566 -0.15858553 -0.051816944
0.048228443 0.04930544 -0.0011553703 0.028764438 0.19235463 0.11845663 -0.16958946 0.037142254
0.0151206795 0.17569385 0.06206589 -0.015658582 0.15138587 -0.05097865 0.09139092 -0.13093667
-0.020309668 0.1661138 0.009362025 0.016104564 0.15743604 -0.051024728 0.03326711 -0.079480074

network_body._body_endoder.seq_layers.2.bias f4 [128]
00000000: d0dc 20bb e4cc f1ba cb93 ecba 8620 47bb
00000010: 1bd6 80bb 0cde 9dba 9a78 8bba 671c 3a3a
00000020: 8b4c 95ba e74b aa3a f4e7 9bba e4dd e439
00000030: 866b 82bb 8ab1 2eba b17f 543a 842c 403b
00000040: e3a5 9aba 984a 0abb 356e 52bb 9b09 213b
00000050: 53ac 19bb 902f 5dbb 2889 97ba 6880 f9ba
00000060: 0fd5 b1b9 7174 b2ba 7605 4c3a d150 6d3b
00000070: 7c97 38ba 89b8 463b 771e 25ba e648 3fbb
00000080: a607 a8bb 53ab 2abb 62ac 0eba 52b5 03bb
00000090: 5ee6 9cbb a4dc 2d3a 759f dabb 6c87 f6ba
000000a0: 27a6 0c3b 245d 5839 102b f0b8 647b 763a
000000b0: af8e b8ba 3869 003a c274 e5b9 41ce 18bb
000000c0: 0dff e2ba 81b3 063b 8059 b2b9 b2bd 66ba
000000d0: 435c dfba 053c 44ba 818d 803a 8fbb 3cbb
000000e0: d1b1 2c3a ea45 c338 ebed b3ba e134 13bb
000000f0: 2c79 e1ba 0557 20ba 1998 a438 084d 55bb
00000100: 1b8a 0bbb 4664 e8bb 6505 beba 715b 1e3a
00000110: ec46 bcbb 685e 67ba 1b4b 38bb da9a 1fbb
00000120: 8e09 aeb8 a6df 86b9 279a 8aba 114c 27b9
00000130: 055c 76b9 8b51 89ba 396d 43bb 5a91 39bb
00000140: 3542 0ebb c4ff 30ba 084d 5abb 0606 31bb
00000150: 740d baba 933d 9aba 1a8d 56ba 7225 a9bb
00000160: ff04 4a3b 22e0 eb39 9452 99bb e918 bc3a
00000170: 7ba1 c0ba db2e 0abc 92b7 003a e491 4dbb
00000180: 46f6 323b 4531 29bb fc7d 54ba 2425 0dbb
00000190: e475 9dba 772b f5ba ec51 c93a 1fbc aeba
000001a0: 2b2f 75bb a4ae a43a d68c 33ba 30eb 75ba
000001b0: 960e 97ba f62a bcba 4b82 663a 31ac 1fbb
000001c0: c9b7 b4bb 1dc8 89ba d925 8dba 4912 d2bb
000001d0: fb81 1d3b cdd9 b2ba a025 c9ba 285d eebb
000001e0: a3e3 1339 d21c 93b8 f6a0 e0ba 3bfe 22ba
000001f0: e4d5 d43a e40c 2b3b 2286 dcba adf4 02bb
-0.0024545677 -0.0018447903 -0.0018049417 -0.0030384376 -0.0039317734 -0.0012044325 -0.00106408 0.0007099569
-0.001139061 0.0012992591 -0.0011894689 0.0004365287 -0.003980103 -0.00066640286 0.00081061857 0.0029323408
-0.0011798706 -0.002110159 -0.0032109146 0.0024572376 -0.002344866 -0.0033750273 -0.0011561261 -0.001903546
-0.00033918812 -0.0013615025 0.0007782796 0.00362115 -0.0007041616 0.0030322394 -0.000629879 -0.0029187738
-0.005127865 -0.0026042059 -0.0005442557 -0.002009709 -0.004788204 0.0006632304 -0.006671841 -0.0018808669
0.002146134 0.00020634063 -0.00011452113 0.0009402542 -0.0014080609 0.00048984913 -0.00043765275 -0.0023316296
-0.0017318443 0.002055377 -0.00034017488 -0.00088020705 -0.0017041046 -0.000748575 0.0009807796 -0.0028798317
0.0006587776 9.311347e-05 -0.0013727521 -0.0022461938 -0.001720225 -0.00061164825 7.84846e-05 -0.0032547135
-0.0021292034 -0.0070920317 -0.0014497457 0.00060408475 -0.0057457592 -0.00088260183 -0.0028120938 -0.0024353773
-8.298746e-05 -0.00025725103 -0.0010574505 -0.00015954698 -0.00023494668 -0.0010476572 -0.002981974 -0.0028315396
-0.0021706943 -0.0006751979 -0.0033310074 -0.0027011647 -0.0014194683 -0.0011767618 -0.0008184478 -0.0051619345
0.0030825732 0.00044989685 -0.0046790335 0.0014350686 -0.0014696562 -0.008434023 0.00049101666 -0.0031367475
0.0027307435 -0.002581672 -0.00081059313 -0.002153703 -0.0012013284 -0.001870497 0.0015359498 -0.0013331211
-0.0037412148 0.0012564254 -0.00068492943 -0.0009381054 -0.0011524733 -0.0014356065 0.0008793219 -0.0024364109
-0.005515073 -0.0010511909 -0.0010768726 -0.006410871 0.0024033773 -0.0013645232 -0.0015346296 -0.0072742887
0.00014103814 -7.0148744e-05 -0.0017137814 -0.0006217693 0.0016238061 0.0026100213 -0.0016824643 -0.0019982264

action_model._continuous_distribution.log_sigma f4 [1, 2]
00000000: 9d7f e83c 3883 b73c
0.028381163 0.022401437

action_model._continuous_distribution.mu.weight f4 [2, 128]
00000000: aab2 27b9 7818 9ebc 74bd f3bb 6917 dcbb
00000010: 4124 293b f8bd 12bc 33d5 333c 05b8 9fbc
00000020: 3af4 85bc 5621 6c3c e948 a0bc 8a2b 6ebc
00000030: d0d4 3cbc 7ff8 51b9 b65e 073d 54b3 b13c
00000040: ec85 16bd 191d 96bc a631 aabc 5ad4 5fbd
00000050: d595 a0bc a3cd 903c db37 913c d798 a7bc
00000060: 2db6 243c 54d5 debc ae6b 293d db23 4f3c
00000070: 07bc 8c3b dfa7 d4bc 57ba 50bc 3623 d5bc
00000080: 433d 2dbb 939f 69bc fa07 dc3a 56e6 0cba
00000090: 134f e8ba 4032 94bc 3357 3d3a ccf1 903c
000000a0: 6ef2 05bd c4d5 443c d407 a43a 0a63 4c3d
000000b0: 7c0a 8f3c e037 a53c 4b6e 9bbb 5dfa 1e3c
000000c0: 606b 8fbc d3ee d53b 4715 debb 103b 51bc
000000d0: bf11 4c3b 8342 0c3d 4182 f03b fb9d 6a3c
000000e0: d4ef a43c 0e18 90bb 4f8b b53b d1ae 2abc
000000f0: 59a9 8fbc f065 d5bc 4991 c03b 57c0 853b
00000100: 0958 d7bb 01fa 003d 873b c33b f8d6 5b3c
00000110: ebd8 3d3c 84dc 233c 340a 80bb e4a0 de3c
00000120: 6704 403c a996 df3c ef38 afbb 6ab6 833c
00000130: ec7e babc 0e81 3bbd 31e5 053d b140 c23b
00000140: 9171 4d3a ce32 d5bb 5a9d fcbb 794a d8bc
00000150: 287f 293c 3a59 92bc 2d93 003d 7aed d93b
00000160: 93f0 da3c 9d72 a03c b8e7 88bc a8cd ed3c
00000170: d590 1c39 1dfc adbc a525 3b3a 4c75 8cbb
00000180: f90d 10bc 98c1 d53c de32 19bc 76c0 cdbc
00000190: 8a9f 9a3b 7867 91bb ebeb a53c f620 92bc
000001a0: 16e5 943c 1bd7 803c 9c1d 813b e1fe 4dbb
000001b0: 287a 40bc ddd7 1e3c 4924 743d fab5 e3bb
000001c0: bdd4 1dbc 08a7 33bc d23c 4e3c ed6b 98bc
000001d0: 7603 6a3c e128 78bc 16f2 033c 1f29 a5b9
000001e0: c47b ec3b ebe5 493b 2297 d73c 0120 903a
000001f0: d6e3 88bc 89a2 b03c 37b0 08bc cb99 4cbd
00000200: 69f9 bf3b f8e9 fcbb 9065 0b3c a6ec ce3b
00000210: 98e5 5abc e270 67bc 8be5 93bb 2567 543d
00000220: deea 0c3c 1496 de3c 9b3d 143d 35ac 953c
00000230: 57a4 4e3c f801 373c fb97 08bc 2a40 d03a
00000240: 2901 5dbc 7f84 ba3c a755 0e3c a10b e0bc
00000250: 402a 92bc 247b efbc be49 e8bc ef41 e8bb
00000260: e5d0 7aba a8c3 033d 3ae9 36bb fea6 f63c
00000270: e732 25bc 4ce1 aebb 8e28 273c a5fa 75bc
00000280: f311 5b3c 46ab 5bba 5dd1 bdbc ad84 2cba
00000290: 78cd 7ebc 2bec b1bc b10b 983a 5852 5d3c
000002a0: 7e45 ce3c c6c4 123d 3954 a6bc ffba 913b
000002b0: fc5f 55bc 3b07 85bc 1c23 953c e537 c13b
000002c0: b163 433c d4e2 0cba 604b 8a3b 2cc3 f0bc
000002d0: ba1f e2bc a322 c8bc c9b9 b0bc e8d7 303c
000002e0: 8705 46bb b190 34bd 47f9 62bc fcf1 c33b
000002f0: b00d 243c 1f2f 6b3c 6354 473b 5d1f 693c
00000300: 4339 823c 670e a5bb 4a11 eabc 98b7 dbbc
00000310: 4551 e6bc aaff 863c c11d 47ba ee2f 09bc
00000320: b146 03bd 9090 123c 7083 95bc fd62 d43a
00000330: 7ef7 61bc bfdf 93bb 908b c6bb 702b 64bb
00000340: 4ef2 e3bc ef8a 08bd 6a4b 223b 3cc8 74ba
00000350: 0b56 6c3c 638e 223d 40d5 693c b005 223b
00000360: dfa1 5b3c cbd3 923c c04e 773c 3147 53bc
00000370: f8d6 f8bb f33d c33c 22ee c53c 0239 09bd
00000380: c72b 30bc d120 8bbc d99e fdbc 2471 ff3c
00000390: 736e c7bc c02c 53bb d755 47bb 9d72 f23a
000003a0: 9384 013b eb4f 9bbb 4092 b439 3d9d ab3b
000003b0: 0719 0e3d b8f4 3cbb 274c 2b3d 6a8e 92bc
000003c0: 4c77 92bc da24 d4bc 3694 f53c ef27 1ebd
000003d0: 06e0 fcbb ce20 f83b 70de 9f3c 0f19 18bc
000003e0: 6a75 193b 5fa9 a73c 600a f03a c100 d9bc
000003f0: 3bf0 72bc bd34 cdbb b111 933c 683b 3bbc
-0.00015992919 -0.019298777 -0.007438356 -0.006716658 0.0025808963 -0.008956425 0.010976124 -0.019496927
-0.016351808 0.014412245 -0.019566016 -0.014536748 -0.011525348 -0.00020024365 0.033049308 0.021691956
-0.03674881 -0.018324422 -0.020775627 -0.054645874 -0.019602695 0.01767618 0.01772683 -0.020458622
0.0100532 -0.027201332 0.041362457 0.012642826 0.0042948755 -0.025958953 -0.012739739 -0.026017766
-0.002643422 -0.014259237 0.0016787045 -0.0005374899 -0.0017723761 -0.018090367 0.00072227715 0.017693423
-0.032701902 0.012013856 0.001251454 0.04989914 0.017461054 0.020168245 -0.0047433726 0.009703246
-0.017507255 0.006528714 -0.006777439 -0.012770429 0.0031138507 0.034243118 0.007339746 0.014319892
0.02013389 -0.004397399 0.0055402885 -0.010417656 -0.017536806 -0.026049584 0.0058766943 0.0040817666
-0.006571774 0.031488422 0.005958024 0.013417952 0.011587362 0.0100013055 -0.0039074663 0.027176328
0.0117198 0.02729352 -0.005347363 0.016078193 -0.0227656 -0.045777373 0.032689277 0.005928122
0.0007837052 -0.0065063005 -0.0077091875 -0.026402699 0.010345258 -0.017864812 0.031390358 0.006650624
0.026726043 0.019585902 -0.016712055 0.029028729 0.00014931273 -0.021238381 0.00071390934 -0.004286444
-0.008792394 0.02609329 -0.009350507 -0.025116187 0.0047187256 -0.0044373833 0.020254096 -0.017837983
0.018175643 0.01572757 0.0039402973 -0.0031432437 -0.011747874 0.0096950205 0.059604917 -0.0069491835
-0.00963324 -0.010965116 0.012587743 -0.01860615 0.014283052 -0.015146465 0.008053323 -0.0003150189
0.0072169024 0.0030807208 0.026317183 0.0010995866 -0.016710203 0.021561878 -0.008342794 -0.049951356
0.0058585894 -0.007718321 0.008508101 0.006314832 -0.0133604035 -0.014126034 -0.0045134476 0.05185618
0.008600919 0.027171172 0.036191564 0.018270591 0.012612424 0.011169903 -0.008337016 0.0015888263
-0.013489046 0.022768257 0.008687413 -0.027349295 -0.017842412 -0.029233523 -0.028355476 -0.007087938
-0.0009567871 0.032169014 -0.002791001 0.030108925 -0.010082937 -0.005336916 0.01020254 -0.015013372
0.013370979 -0.0008379709 -0.023171121 -0.00065810495 -0.015551917 -0.021719059 0.0011600164 0.013508402
0.02517962 0.03583219 -0.020303832 0.0044473405 -0.013023373 -0.0162388 0.018205218 0.0058965557
0.011925624 -0.0005374376 0.004220411 -0.02938994 -0.027603019 -0.024430579 -0.021572964 0.010793664
-0.0030215697 -0.0440833 -0.013853378 0.0059797745 0.010013029 0.014354496 0.0030415289 0.014228669
0.015896445 -0.0050371173 -0.028572697 -0.026820943 -0.028114924 0.016479332 -0.0007595681 -0.008373244
-0.03204984 0.008945599 -0.01825115 0.0016203817 -0.013791917 -0.0045127566 -0.0060591176 -0.003481593
-0.0278255 -0.033335622 0.0024764189 -0.00093376986 0.014424811 0.03968657 0.014272034 0.0024722628
0.013405292 0.017923256 0.015094459 -0.012895391 -0.0075939856 0.02383325 0.024161402 -0.033501633
-0.010752625 -0.016983422 -0.030959534 0.03118188 -0.024344658 -0.0032222718 -0.0030416155 0.0018497292
0.0019762858 -0.0047397516 0.0003444124 0.00523725 0.034691837 -0.0028832387 0.04182067 -0.017890174
-0.01787915 -0.025896478 0.029977899 -0.038612302 -0.0077171354 0.00757227 0.019515246 -0.009283318
0.0023415932 0.020466505 0.0018313639 -0.026489617 -0.014827783 -0.0062623904 0.017952772 -0.011427738

action_model._continuous_distribution.mu.bias f4 [2]
00000000: 8229 8c3a 9b77 5139
0.0010693523 0.0001997635
