Assets/NN Models/Train_S0.onnx (onnx, 112889 bytes, 7 tensors)

network_body._body_endoder.seq_layers.0.weight f4 [128, 83]
0.06452909 -0.044480067 -0.24700987 0.09168357 0.12150461 -0.08536613 0.20309435 0.13314699
-0.07268313 0.026714487 -0.17705406 0.067913376 -0.07561605 0.11513385 0.0460236 -0.03027695
-0.020507067 0.08653117 0.06440427 0.10830153 0.06837071 0.121031135 -0.052843224 -0.13369879
0.0826256 -0.12777936 0.037081964 0.08428819 -0.05318432 -0.08900341 0.25767037 -0.103674985
-0.1137503 0.14796558 -0.10250883 0.039801877 -0.13091725 -0.042370122 0.09030353 -0.022666646
-0.2326779 -0.13060923 0.062498685 0.083151646 0.104887836 -0.008736427 0.052887164 0.23177823
-0.0068957284 -0.08968159 0.06607559 0.011787371 -0.11153256 0.32594663 -0.034587834 0.008174337
-0.14992677 -0.0398398 0.08841773 0.04133378 0.017869728 -0.138819 0.085299715 -0.14818619
0.037329488 -0.0159484 0.023964472 -0.34591952 0.13882461 0.08067213 -0.26844996 -0.08471474
0.0633481 -0.18053858 -0.21015796 0.065588996 -0.017789759 -0.06714858 -0.21077181 0.14801335
0.09577055 0.012742474 -0.015628578 0.19962758 -0.124732405 -0.017100725 -0.08568765 -0.074261285
0.07212873 0.037124865 0.2844714 -0.033185124 -0.15407342 0.05326244 0.053326868 0.009857326
0.04830419 0.10944206 0.016910665 0.074195966 -0.1524431 0.064840734 0.08906132 -0.13994552
0.04136136 -0.007063545 0.044160057 -0.07319466 -0.05480047 -0.15828359 0.034567 0.03558644
0.019563463 0.12038128 -0.09570037 0.138115 0.07081884 0.11971408 -0.121095136 -0.21592337
0.070842326 0.10385777 0.23390596 -0.14794765 -0.2705467 0.14132117 -0.13464218 0.17000052
-0.23718826 -0.028309554 -0.010049325 0.031560186 0.029467564 0.044123128 0.011524253 -0.006598716
0.045431025 0.058718476 0.03682233 -0.059265204 -0.10629842 -0.01073681 -0.05019735 -0.19207686
-0.06719804 -0.15354814 -0.15882313 0.13935809 0.048490148 -0.06992423 -0.06818024 -0.008420455
0.20716636 0.028942235 0.082282394 0.034918312 -0.07486207 0.009896326 -0.22612387 0.08723878
0.17106949 0.15273741 -0.08546849 0.14333235 0.031031804 0.2670277 0.19633132 -0.10785798
0.0695162 -0.054311983 0.11624992 -0.025860304 -0.03821657 0.03232801 -0.084093265 -0.005924536
0.22174998 -0.04250898 0.00475601 0.046629693 0.03816604 0.039183877 0.02823377 -0.0660886
-0.11155857 -0.15648657 -0.046683848 -0.060115375 -0.040731687 -0.12796974 -0.016642243 0.11167126
-0.015495177 -0.116943665 0.38419002 -0.09409601 -0.121754825 -0.0040420406 -0.041887462 -0.01684956
-0.149342 0.13846233 0.046441127 -0.013105271 -0.14966482 -0.058909733 0.026680466 -0.019506022
-0.03429013 -0.01580955 -0.02769922 0.114282824 0.0626386 0.24792975 -0.089076795 -0.251507
0.043890726 -0.013751126 -0.11038707 -0.0023231027 -0.11267219 0.050448015 -0.022598099 -0.06282904
-0.077063166 -0.014331656 -0.070634075 0.06698007 -0.08804827 0.10036601 0.021179287 -0.009194988
0.11799246 0.038098834 0.14016628 0.21156001 -0.019249838 -0.04169145 0.049432114 0.0186162
-0.1572924 0.013591998 -0.087679125 -0.027442059 0.0008655848 -0.11262292 -0.13756078 0.06335353
0.030139286 0.02814855 -0.032598145 0.001641563 0.044035286 -0.09023868 0.20246768 -0.14383906
00000000: d427 843d bb30 36bd 28f0 7cbe 98c4 bb3d
00000010: 69d7 f83d 70d4 aebd f7f7 4f3e af57 083e
00000020: e5da 94bd 57d8 da3c a94d 35be 2b16 8b3d
00000030: 96dc 9abd 4ccb eb3d 3e83 3c3d 5e07 f8bc
00000040: 70fe a7bc 4137 b13d 63e6 833d 31cd dd3d
00000050: f105 8c3d 2cdf f73d 2372 58bd 56e8 08be
00000060: 9c37 a93d 98d8 02be 42e3 173d 499f ac3d
00000070: cdd7 59bd 6b47 b6bd 5fed 833e 8d53 d4bd
00000080: ebf5 e8bd 4a84 173e 26f0 d1bd 4b07 233d
00000090: 2c0f 06be 4b8c 2dbd 0ff1 b83d 67af b9bc
000000a0: 1e43 6ebe 6dbe 05be 9ffe 7f3d 694b aa3d
000000b0: 6fcf d63d 3b23 0fbc 36a0 583d 4657 6d3e
000000c0: 90f5 e1bb fbaa b7bd a452 873d d11f 413c
000000d0: 2f6b e4bd 7ae2 a63e f9ab 0dbd a8ed 053c
000000e0: 6786 19be 0f2f 23bd 5b14 b53d 9c4d 293d
000000f0: 8963 923c 9126 0ebe 9eb1 ae3d 1fbe 17be
00000100: cee6 183d 38a6 82bc 2451 c43c 5d1c b1be
00000110: 0a28 0e3e 6e37 a53d 4672 89be ec7e adbd
00000120: a6bc 813d 1bdf 38be a633 57be 8653 863d
00000130: d4bb 91bc 3285 89bd 91d4 57be d090 173e
00000140: 5a23 c43d cfc5 503c 8107 80bc 2c6b 4c3e
00000150: b473 ffbd d216 8cbc 027d afbd 4d16 98bd
00000160: 3ab8 933d 3e10 183d 3ca6 913e 20ed 07bd
00000170: 6cc5 1dbe b729 5a3d 466d 5a3d 9f80 213c
00000180: 9dda 453d 2923 e03d 3c88 8a3c 0ef4 973d
00000190: 0b1a 1cbe 38cb 843d c865 b63d e14d 0fbe
000001a0: 886a 293d 4f75 e7bb 2de1 343d 15e7 95bd
000001b0: 7576 60bd 1815 22be 2096 0d3d 16c3 113d
000001c0: 8e43 a03c 768a f63d 8efe c3bd 056e 0d3e
000001d0: 7809 913d a82c f53d ba00 f8bd 041b 5dbe
000001e0: c815 913d 62b3 d43d 0b85 6f3e 977f 17be
000001f0: 1985 8abe 7fb6 103e a4df 09be 9e14 2e3e
00000200: 7be1 72be 70e9 e7bc eda5 24bc 4145 013d
00000210: f665 f13c 74ba 343d 38d0 3c3c 0b3a d8bb
00000220: e215 3a3d c982 703d 03d3 163d 12c0 72bd
00000230: fcb2 d9bd 72e9 2fbc bd9b 4dbd ccaf 44be
00000240: 209f 89bd b93b 1dbe 88a2 22be e3b3 0e3e
00000250: 9b9d 463d 6f34 8fbd 15a2 8bbd f3f5 09bc
00000260: 6b23 543e 4418 ed3c ac83 a83d 8106 0f3d
00000270: 4951 99bd 3324 223c 048d 67be 3faa b23d
00000280: d72c 2f3e 3267 1c3e 1b0a afbd b7c5 123e
00000290: 6936 fe3c dbb7 883e 140b 493e a5e4 dcbd
000002a0: 825e 8e3d 3e76 5ebd 7014 ee3d fdd8 d3bc
000002b0: fa88 1cbd 606a 043d 1739 acbd 9c22 c2bb
000002c0: 6d12 633e e51d 2ebd 4ed8 9b3b c7fe 3e3d
000002d0: fe53 1c3d 467f 203d 824a e73c 7659 87bd
000002e0: d278 e4bd 043e 20be 9037 3fbd 8a3b 76bd
000002f0: 45d6 26bd 800a 03be 5055 88bc e7b3 e43d
00000300: 7cdf 7dbc 2980 efbd 8eb4 c43e 69b5 c0bd
00000310: 985a f9bd 1873 84bb 3092 2bbd 1708 8abc
00000320: 1ced 18be 12c9 0d3e 0d39 3e3d 7eb7 56bc
00000330: bc41 19be 554b 71bd fe90 da3c 18cb 9fbc
00000340: cf73 0cbd 0883 81bc 7ae9 e2bc 1d0d ea3d
00000350: ab48 803d 4ce1 7d3e e56d b6bd 87c5 80be
00000360: c3c6 333d 674c 61bc 9e12 e2bd 323f 18bb
00000370: adc0 e6bd 94a2 4e3d a61f b9bc 83ac 80bd
00000380: 4bd3 9dbd 52cf 6abc 99a8 90bd d92c 893d
00000390: a752 b4bd b28c cd3d 2f80 ad3c 93a6 16bc
000003a0: 08a6 f13d 860d 1c3d c087 0f3e 30a3 583e
000003b0: d6b1 9dbc a7c4 2abd 5479 4a3d 0081 983c
000003c0: 4211 21be f9b0 5e3c 1d91 b3bd 2bce e0bc
000003d0: 6ae8 623a d8a6 e6bd bcdc 0cbe 7fbf 813d
000003e0: aae6 f63c ca97 e63c a285 05bd b729 d73a
000003f0: 585e 343d 0fcf b8bd b053 4f3e 8c4a 13be

network_body._body_endoder.seq_layers.0.bias f4 [128]
0.0015364288 -0.002502819 -0.005688806 -0.00083826395 0.0014587345 -0.00025679104 -0.0041305213 -0.0053290785
-0.0005472993 0.0015777367 0.00048671514 0.013410883 0.003942758 -0.0023645384 -0.0039881445 0.00038116498
-0.0045082583 -3.204815e-05 -0.004967978 -0.0022791156 -0.0024019596 0.00043722842 0.00071275095 -0.0015068388
-0.0016981277 0.0018542947 -8.545517e-07 0.0018275151 0.0012478789 -0.0018397913 -0.0019194798 -0.0011737742
0.0012851526 -0.000557388 -0.0002678002 0.0026658138 -0.00010169068 -0.00015328922 -0.00015083257 -0.00055061775
-0.0012459058 0.0003608408 -0.0002574289 0.0042945584 -0.0041340445 -0.0012984403 -0.0044702436 0.0008084293
-0.0019423346 0.0007743147 -0.0019934943 -0.0007604632 -0.0013211032 -0.0032077427 0.017018825 -0.00052237726
-4.051705e-05 -0.006147189 -0.0010240257 -0.0023040697 -5.0072844e-09 -0.00054905115 -0.00040713942 -0.0048699593
0.0025745442 -0.0018825451 -0.00143685 0.00021191964 -0.0011366811 0.0001992969 -0.0011786513 0.00039059803
0.0012185152 0.0029248483 -0.00039456645 -0.0013992933 -0.0033638342 -0.0007241764 0.0007536308 -0.00013025083
-0.00038791643 -0.0031190303 -0.000673214 0.0018443837 -0.006261221 0.0018405906 0.0021336945 0.0004308947
0.0022561334 -4.909394e-07 -0.0016874378 -0.0007644694 -0.002534486 0.00041165983 -0.0058109397 0.0010122427
-0.0031043033 -0.0009835451 -0.00019306266 -0.0010675703 -0.0012410664 -0.0030784777 -0.0053805322 -0.0023196263
-0.00025159228 0.003051948 -0.0022380247 -0.0011271437 0.003032935 -0.002939472 0.0010386665 -0.0013517333
0.0047653997 0.001480554 -1.0236046e-07 0.00039248847 0.008623368 -0.0024821954 -0.00057015766 -0.0012649688
-0.00047243357 -0.002193856 -0.0028856862 -0.0018407009 -0.0003266188 0.0029493198 -0.0049514393 -0.00273869
00000000: ff61 c93a 5606 24bb 2a69 babb f1be 5bba
00000010: 0233 bf3a e9a1 86b9 5359 87bb 8d9f aebb
00000020: a278 0fba 0fcc ce3a cd2d ff39 52b9 5b3c
00000030: 4032 813b 5ff6 1abb fbae 82bb 19d7 c739
00000040: 03ba 93bb 706b 06b8 6cca a2bb 375d 15bb
00000050: 326a 1dbb ce3b e539 e8d7 3a3a 1f81 c5ba
00000060: b693 deba ce0b f33a 5864 65b5 3b89 ef3a
00000070: de8f a33a 2725 f1ba 0e97 fbba 54d9 99ba
00000080: 9172 a83a ad1d 12ba 8967 8cb9 efb4 2e3b
00000090: c542 d5b8 43bc 20b9 cf28 1eb9 5557 10ba
000000a0: a94d a3ba 3b2f bd39 86f7 86b9 5eb9 8c3b
000000b0: e176 87bb 6d30 aaba 1f7b 92bb c6ec 533a
000000c0: ef95 feba 61fb 4a3a 49a5 02bb d259 47ba
000000d0: de28 adba fe38 52bb 106b 8b3c 25f0 08ba
000000e0: daf0 29b8 5c6e c9bb 9a38 86ba e0ff 16bb
000000f0: 8a0c acb1 33ee 0fba 5475 d5b9 2e94 9fbb
00000100: afb9 283b bbbf f6ba b054 bcba bf36 5e39
00000110: b0fc 94ba 5bfa 5039 fa7c 9aba 2ec9 cc39
00000120: 96b6 9f3a d0ae 3f3b d0dd ceb9 7e68 b7ba
00000130: c673 5cbb a8d6 3dba 4f8f 453a f193 08b9
00000140: 4361 cbb9 a568 4cbb a07a 30ba 3fbf f13a
00000150: ee2a cdbb f93f f13a 74d5 0b3b b5e9 e139
00000160: a3db 133b 19c9 03b5 042d ddba ac66 48ba
00000170: 9e19 26bb 0cd4 d739 b269 bebb 3bad 843a
00000180: 9171 4bbb 4cea 80ba dd70 4ab9 b7ed 8bba
00000190: 47ab a2ba 49c0 49bb 2d4f b0bb df04 18bb
000001a0: 25e8 83b9 3103 483b d3ab 12bb abbc 93ba
000001b0: 35c4 463b 28a4 40bb dd23 883a a52c b1ba
000001c0: 1227 9c3b 260f c23a 42d1 dbb3 e9c6 cd39
000001d0: 0749 0d3c 54ac 22bb a276 15ba 4fcd a5ba
000001e0: f6b0 f7b9 ccc6 0fbb c81d 3dbb ac43 f1ba
000001f0: 093e abb9 6049 413b af3f a2bb 987b 33bb

network_body._body_endoder.seq_layers.2.weight f4 [128, 128]
-0.24486865 0.040336747 -0.0139124505 0.111093886 0.079995334 0.017753411 -0.02104323 -0.02657446
-0.09952318 -0.0808879 0.06808869 0.0733246 -0.044849694 -0.042813577 -0.09111775 -0.171609
0.064892426 -0.049870715 -0.023794446 -0.044843137 -0.020613134 0.060554337 -0.049373787 0.06637139
-0.01410003 0.016492343 0.09277559 -0.011112126 -0.1725515 -0.03731452 0.08501177 -0.071986854
0.0038955226 -0.038299598 0.00819813 -0.18757358 -0.004978102 0.03593143 0.020932995 -0.0012143299
-0.010132066 0.02325734 -0.07654845 0.046293456 0.13150601 -0.0014616803 0.03105727 0.041200206
-0.01952632 0.094126485 0.09659416 -0.09729756 -0.0015216502 -0.0033966657 -0.029656805 0.017073927
-0.008883025 -0.09293468 -0.005912739 0.051764194 0.027984949 -0.17808987 0.06286746 -0.17177291
-0.1719867 -0.08888232 0.008315013 -0.17343748 -0.09156783 -0.14385746 -0.24839482 -0.05020015
-0.05795963 -0.12322007 -0.0846257 0.086980425 -0.001588802 -0.013453727 0.0029488073 0.14897467
0.03986668 0.020366147 0.22275048 -0.08019256 -0.027818872 -0.0915021 -0.088779576 0.04035449
-0.07640933 0.022109807 -0.032620158 -0.036720023 0.020545576 -0.15258911 0.031679556 -0.009938562
-0.01004554 -0.029847063 -0.031790126 -0.0095009245 0.12992552 0.059984595 -0.1318016 -0.044607993
-0.028519891 -0.097385205 -0.0055998378 -0.06345012 -0.1719081 0.06257986 -0.033198368 -0.06391859
-0.115474485 0.052714627 -0.040165603 -0.10127287 -0.048156448 -0.09410002 0.007328163 -0.10386559
0.029529333 -0.018085878 -0.04853008 -0.015438036 0.13661104 0.086804196 0.08934148 0.103691824
-0.023601806 0.04031668 -0.041291263 -0.03887306 -0.04041738 0.10993174 0.015618315 -0.0028529721
0.025145464 -0.077430315 0.018697197 -0.0872594 0.0131746 -0.038377125 0.15981498 0.1341154
0.06960526 0.06178382 -0.096168496 0.09199608 0.10406186 -0.14126481 0.057304136 0.023383653
0.077384405 0.12742227 -0.032320283 0.004532561 -0.021565178 -0.009509215 -0.15130466 0.0014698039
-0.00922834 0.08696795 -0.03668923 -0.009731337 0.16156796 0.043153953 -0.044917095 -0.11195607
-0.017544478 -0.07853171 0.14279205 -0.11312832 -0.058573663 0.058720868 0.018248985 0.029211398
-0.097872235 -0.06187564 0.21575655 -0.044472203 0.0035159136 0.12204906 -0.010998984 0.26159444
0.0041711074 -0.00265492 0.003604493 -0.0967082 0.040439747 0.02024735 0.05513665 0.06739504
-0.058566157 -0.0321192 -0.014895236 -0.015510116 0.024008745 0.08373071 0.001080976 0.11474685
0.10137408 0.026873523 -0.028247252 0.06573751 0.118634716 -0.1058507 -0.055671614 0.013979505
0.13699041 -0.09190625 0.04659053 0.14977455 0.10943863 -0.0730592 0.0027801646 -0.024162179
-0.08733957 0.0023053996 0.069557585 -0.0764714 0.0017243903 0.06289993 0.06291825 0.037032183
-0.046963718 -0.016500477 -0.034631282 -0.025076943 -0.006858034 -0.072587915 -0.09671766 -0.0011088938
-0.056334447 -0.10631383 0.19338135 -0.057467777 -0.023318628 -0.15211372 -0.060538158 -0.1573844
0.03536991 -0.08354143 0.0053602536 0.0552269 0.013173661 0.110216744 0.12021505 0.040585823
0.04475849 0.114907734 0.017683486 -0.029822739 -0.11594537 -0.05532677 0.060649827 -0.06081894
00000000: d9be 7abe 2538 253d 0cf1 63bc 3185 e33d
00000010: 98d4 a33d 9a6f 913c da62 acbc afb2 d9bc
00000020: cfd2 cbbd 8ea8 a5bd 1572 8b3d 352b 963d
00000030: 50b4 37bd 4a5d 2fbd f19b babd 45ba 2fbe
00000040: 52e6 843d 3c45 4cbd 92ec c2bc 70ad 37bd
00000050: e0dc a8bc d307 783d 2b3c 4abd b9ed 873d
00000060: d003 67bc f31a 873c 2101 be3d a20f 36bc
00000070: 57b1 30be 1cd7 18bd a71a ae3d d86d 93bd
00000080: 064c 7f3b 0ae0 1cbd 7351 063c 4a13 40be
00000090: 591f a3bb d62c 133d ac7b ab3c 262a 9fba
000000a0: f700 26bc 2d86 be3c 6fc5 9cbd 359e 3d3d
000000b0: 83a9 063e da95 bfba d16b fe3c 8cc1 283d
000000c0: a9f5 9fbc 63c5 c03d 29d3 c53d f143 c7bd
000000d0: 1c72 c7ba 989a 5ebb d4f2 f2bc 9fde 8b3c
000000e0: 1b8a 11bc 8a54 bebd a6bf c1bb b106 543d
000000f0: b140 e53c 315d 36be a8c0 803d 3de5 2fbe
00000100: 481d 30be ef07 b6bd b13b 083c 9899 31be
00000110: ea87 bbbd 5f4f 13be 365b 7ebe ac9e 4dbd
00000120: 1467 6dbd ce5a fcbd 3d50 adbd cb22 b23d
00000130: 593f d0ba 056d 5cbc c740 413b d18c 183e
00000140: 3e4b 233d e8d6 a63c b418 643e ff3b a4bd
00000150: 67e4 e3bc 7465 bbbd 11d2 b5bd c04a 253d
00000160: 7f7c 9cbd a01f b53c b79c 05bd bc67 16bd
00000170: 324f a83c 5240 1cbe 6cc2 013d 5ad5 22bc
00000180: 0c96 24bc d481 f4bc 5d36 02bd c4a9 1bbc
00000190: 320b 053e 68b2 753d 00f7 06be dfb6 36bd
000001a0: 8ca2 e9bc e571 c7bd d87e b7bb 23f2 81bd
000001b0: ad08 30be df29 803d 03fb 07bd c0e7 82bd
000001c0: e37d ecbd 4beb 573d b084 24bd 2768 cfbd
000001d0: b23f 45bd 83b7 c0bd 1621 f03b 7cb7 d4bd
000001e0: 80e7 f13c d628 94bc 7ac7 46bd d1ef 7cbc
000001f0: c4e3 0b3e 66c6 b13d aaf8 b63d 615c d43d
00000200: 9358 c1bc 1a23 253d 0721 29bd 5c39 1fbd
00000210: b28c 25bd e423 e13d f6e3 7f3c eef8 3abb
00000220: dcfd cd3c c993 9ebd dd2a 993c 0eb5 b2bd
00000230: 47da 573c 5531 1dbd 8aa6 233e 8c55 093e
00000240: 348d 8e3d 0811 7d3d fdf3 c4bd 7168 bc3d
00000250: 621e d53d b9a7 10be beb7 6a3d 138f bf3c
00000260: b77b 9e3d fc7a 023e 4662 04bd e185 943b
00000270: 75a9 b0bc 8acc 1bbc 9cef 1abe 6fa6 c03a
00000280: 7732 17bc 411c b23d 7247 16bd 3070 1fbc
00000290: 1272 253e 33c2 303d fdfa 37bd 3949 e5bd
000002a0: 70b9 8fbc 3cd5 a0bd 1438 123e d2af e7bd
000002b0: f0ea 6fbd 4b85 703d e57e 953c be4c ef3c
000002c0: 3d71 c8bd 5071 7dbd 49ef 5c3e 7c28 36bd
000002d0: 3e6b 663b dcf4 f93d 1535 34bc b5ef 853e
000002e0: c9ad 883b 2bfe 2dbb 5c39 6c3b f30e c6bd
000002f0: 26a4 253d c5dd a53c f8d6 613d 6906 8a3d
00000300: 11e3 6fbd 6c8f 03bd 260b 74bc 241e 7ebc
00000310: fdad c43c 027b ab3d 89af 8d3a 6600 eb3d
00000320: 379d cf3d dd25 dc3c c866 e7bc 63a1 863d
00000330: c2f6 f23d 40c8 d8bd eb07 64bd 4b0a 653c
00000340: 3747 0c3e 5839 bcbd b6d5 3e3d 805e 193e
00000350: 5c21 e03d 10a0 95bd 6c33 363b c3ef c5bc
00000360: 17df b2bd 3016 173b 3574 8e3d 0a9d 9cbd
00000370: f004 e23a aed1 803d 49db 803d 0faf 173d
00000380: 075d 40bd 022c 87bc 88d9 0dbd 296e cdbc
00000390: 5cb9 e0bb f9a8 94bd e913 c6bd 4d58 91ba
000003a0: f3be 66bd 11bb d9bd c305 463e 5563 6bbd
000003b0: b506 bfbc b3c3 1bbe dcf6 77bd 6029 21be
000003c0: 0ae0 103d c517 abbd 11a5 af3b 9a35 623d
000003d0: 57d6 573c 51b9 e13d 4f33 f63d 523d 263d
000003e0: ae54 373d bf54 eb3d f5dc 903c d14e f4bc
000003f0: c474 edbd 539e 62bd f46b 783d 481d 79bd

network_body._body_endoder.seq_layers.2.bias f4 [128]
-0.0012419538 -0.00040604558 0.0051082694 -0.0013888947 0.00034095047 -5.765726e-06 -0.0009217108 -0.0008190936
-0.0013917204 -0.00020468129 -0.0010302026 1.2888613e-05 -0.0004941371 -0.001574185 -0.001405389 -0.00092075346
-0.0018284185 0.00043198068 -0.00177487 -0.0003763221 -0.0009760407 0.00039240674 -0.00169762 -0.0016738842
-0.0024598916 0.011193163 0.0052732443 0.0007585965 -0.0006595326 -0.0005059041 -0.0004675031 0.0003270596
-0.004666558 -0.0009943488 -0.002673546 -0.00057847035 -0.0060122176 -0.0003545283 -0.0008687062 -0.00044339377
-0.0024484268 -0.0010807798 0.0005608354 -0.00034643963 -0.0037560377 -0.00046479216 -0.0006889174 0.0037403803
-0.00091307564 -0.00029532003 -0.0027992493 -0.0006084548 -0.0012814628 -0.003317298 -0.000102271035 -0.0026077018
-0.0010879014 -0.001419637 -0.0010106916 -0.00052710436 -0.0002476575 -0.00032550294 -0.0012391119 0.0029489722
0.0015034517 -0.0017474409 -0.000108956614 -0.0035381836 -0.00083810417 0.0012900552 -0.0031934034 0.00025283126
-0.00036988102 0.00018104934 -0.0022838777 -0.0013165596 -0.00024158126 -0.000711966 0.0044100126 -0.0023342774
-0.004891376 -0.00028883317 -0.00095401186 0.0027525264 -0.0009464056 0.00033260422 -0.0007676932 -0.0021135935
0.00036108698 -0.00095770176 -0.0009387873 -6.5944487e-06 -0.00015075122 -0.000674175 -0.00029322985 -0.0011117919
-0.00025612648 0.009401587 2.9196568e-05 -0.004069387 -0.0009979093 -0.0003261138 -0.005038544 -0.0007133592
-0.0026133668 0.0006393512 -0.0012605676 -0.0016062253 -0.000632359 -0.0016798755 -0.0052427556 -0.0017859774
-0.004634827 -1.3130453e-08 -0.002602334 -0.0031947023 -0.001139152 -0.00041416474 2.511296e-05 0.00051300484
-0.0012472934 0.001391722 -0.004731362 -0.0003097853 -0.0016589405 -0.0020768468 0.00050102494 0.0016605641
00000000: 0ec9 a2ba 84e2 d4b9 4563 a73b 930b b6ba
00000010: 99c1 b239 3677 c1b6 f79e 71ba 71b8 56ba
00000020: 636a b6ba b79f 56b9 dd07 87ba 2c3c 5837
00000030: fb88 01ba e254 ceba 0835 b8ba b85e 71ba
00000040: 8ba7 efba 777b e239 c1a2 e8ba 194d c5b9
00000050: fcdc 7fba f1bb cd39 ad82 deba 3c66 dbba
00000060: 2236 21bb 8763 373c 2ecb ac3b 8ddc 463a
00000070: 7ce4 2cba a69e 04ba 341b f5b9 3279 ab39
00000080: ede9 98bb cf54 82ba a936 2fbb 7da4 17ba
00000090: 2302 c5bb fcdf b9b9 e3b9 63ba 4e77 e8b9
000000a0: c975 20bb f4a8 8dba 0705 133a 57a2 b5b9
000000b0: db27 76bb 59af f3b9 7798 34ba 2b21 753b
000000c0: 785b 6fba 2fd5 9ab9 9c73 37bb b680 1fba
000000d0: c2f6 a7ba 0667 59bb 587a d6b8 fae5 2abb
000000e0: ea97 8eba 1d13 baba 2f79 84ba 602d 0aba
000000f0: 07d8 81b9 44a8 aab9 b269 a2ba 8b43 413b
00000100: 780f c53a 630a e5ba a37f e4b8 dfe0 67bb
00000110: 38b4 5bba 1217 a93a 6b48 51bb 708e 8439
00000120: 97ec c1b9 10d8 3d39 1cad 15bb 6990 acba
00000130: fa50 7db9 3ba3 3aba de81 903b adfa 18bb
00000140: d647 a0bb 886e 97b9 a716 7aba bb63 343b
00000150: 3418 78ba 6261 ae39 053f 49ba 3784 0abb
00000160: 4650 bd39 470e 7bba f318 76ba e245 ddb6
00000170: f912 1eb9 1ebb 30ba a5bc 99b9 8cb9 91ba
00000180: b748 86b9 1d09 1a3c 27eb f437 7e58 85bb
00000190: 48cc 82ba 41fa aab9 5f1a a5bb ba00 3bba
000001a0: 0545 2bbb 229a 273a a139 a5ba fa87 d2ba
000001b0: e5c4 25ba 452f dcba 6ccb abbb 7517 eaba
000001c0: bfdf 97bb 5894 61b2 eb8b 2abb 365e 51bb
000001d0: 994f 95ba 4024 d9b9 aca9 d237 2c7b 063a
000001e0: 397c a3ba 716a b63a 8b09 9bbb ae6a a2b9
000001f0: ce70 d9ba b51b 08bb 3757 033a 49a7 d93a

action_model._continuous_distribution.log_sigma f4 [1, 2]
-0.026108602 -0.0048366576
00000000: b5e1 d5bc d37c 9ebb

action_model._continuous_distribution.mu.weight f4 [2, 128]
0.00037690968 -0.01897165 -0.021702522 -0.005099082 0.0011643844 0.001026722 0.02761707 -0.026259216
0.006047345 0.030130303 -0.026051508 -0.008207107 0.007557171 0.014920299 0.04404099 -0.02488266
-0.026180195 0.012818662 -0.011704 0.017631723 0.008799569 0.0049242075 0.018323736 0.015352869
0.017358253 0.03234396 0.026570173 -0.021479141 0.004351946 0.008837016 0.008881543 -0.0053627435
-0.00055867445 -0.002311771 0.009803384 -0.025574807 0.006892912 0.017010996 0.035777714 0.020377163
-0.030224003 -0.010632167 -0.025808495 -0.032051653 -0.009242096 0.016665485 -0.029516293 0.028881678
0.004030183 -0.014308659 0.015402282 -0.015383478 0.0077936067 -0.010604424 -0.016621588 -0.0052483333
-0.018680725 0.0063174767 -0.0002461184 0.017246833 0.0077197817 -0.043164715 0.002982924 0.0013455878
0.025721448 -0.0035376004 -0.015307308 -0.038292166 0.009081043 -0.013220185 0.029357601 -0.0013581259
0.027220394 -0.0279995 -0.040932726 0.006029326 0.012795154 0.015091867 0.018944694 -0.01679121
0.0030117843 -0.023582568 0.017187927 -0.007006828 0.015552018 -0.004413763 -0.0003492769 -0.012089822
0.0075656306 -0.00037477113 -0.02606696 -0.0057100253 -0.0048855175 0.011199518 0.0017055221 0.009761141
0.021912295 0.036156412 -0.010175482 0.026055899 0.0036223289 -0.0025424513 -0.00077889813 0.010350784
-0.0045266035 0.03582445 -0.016784111 0.00033150057 0.010593632 -0.0366708 -0.0012674041 -0.004726229
-0.021135252 -0.009088599 -0.019671254 9.931462e-05 -0.00969317 0.009679093 -0.012027256 -0.026886309
0.000547379 0.013514507 -0.00043639712 0.008639214 0.011843259 -0.0084854765 -0.014946507 0.003255777
0.00663151 0.013830276 -0.020784294 -0.0418492 -0.028124897 -0.0021042896 0.02446205 -0.0022380555
-0.0029087325 -0.021720966 -0.00569272 -0.0048765754 0.027864434 -0.0016080262 0.018069241 0.0016788963
-0.017043233 0.043347467 -0.0067876363 -0.012120788 -0.003530768 -0.024680702 0.010443109 0.0036767873
-0.003974849 0.020553762 -0.0032715765 -0.0058567952 -0.013326572 -0.0129087735 -0.011649854 -0.012733434
-0.0011284093 0.008804442 -0.042407583 0.011109569 0.0031741164 -0.012497554 0.033059195 0.03791016
-0.015147583 -0.0051208176 -0.015217991 0.016455775 -0.006192013 -0.0044797137 -0.0408942 -0.016728457
-0.009878083 0.031720366 -0.0003546967 -0.0022044445 0.0170887 -0.019499466 0.03956518 -0.02669856
-0.014111466 -0.013341327 -0.0124232955 0.0062169884 -0.00980839 -0.018391347 -0.037711356 -0.024416797
0.005065705 0.0041949 0.016121551 0.006288662 -0.0019726332 -0.024325334 0.01155458 0.008400642
0.010380061 -0.025413841 0.01069205 0.009016327 0.0014805968 -0.0066041723 -0.00899598 0.011591825
-0.0017200753 0.0063440334 0.01455514 0.035470195 0.018072482 -0.0126079675 0.039425556 -0.005983331
-0.0035694316 0.017986674 -0.0030529555 -0.02504594 -0.013243934 0.03048213 -0.007389578 0.0028633932
-0.022158196 0.005777476 0.023070475 0.0024189667 0.011413011 -0.026057247 -0.0027047752 -0.0045649717
0.01928096 0.0010801537 -0.023259172 -0.01052814 -0.021961192 -0.013031533 -0.019575525 0.0013323048
0.011235251 0.03377005 0.0071838605 -0.007181375 -0.00084869546 0.013615939 -0.025716877 -0.013463952
-0.0076876692 -0.0071510323 0.0010053954 -0.0056198817 0.010526084 0.005597024 -0.012407198 -0.00791265
00000000: f69b c539 6f6a 9bbc 7dc9 b1bc 3316 a7bb
00000010: 429e 983a 1393 863a 323d e23c 911d d7bc
00000020: cf28 c63b d3d3 f63c f969 d5bc 1a77 06bc
00000030: 25a2 f73b 4574 743c 5364 343d b8d6 cbbc
00000040: d977 d6bc 5e05 523c 22c2 3fbc 6770 903c
00000050: 112c 103c 3f5b a13b a91b 963c 9a8a 7b3c
00000060: e532 8e3c 1a7b 043d b1a9 d93c 06f5 afbc
00000070: c59a 8e3b 22c9 103c e483 113c f4b9 afbb
00000080: 0274 12ba 1581 17bb 5f9e 203c 4282 d1bc
00000090: f0dd e13b a55a 8b3c a78b 123d 02ee a63c
000000a0: 5498 f7bc 8a32 2ebc 566c d3bc 9848 03bd
000000b0: 296c 17bc 0e86 883c 27cc f1bc 4599 ec3c
000000c0: a00f 843b de6e 6abc da59 7c3c fc0a 7cbc
000000d0: 8361 ff3b 2ebe 2dbc ff29 88bc 36fa abbb
000000e0: 5208 99bc d602 cf3b 7409 81b9 3b49 8d3c
000000f0: 39f6 fc3b 7ccd 30bd 297d 433b 6f5e b03a
00000100: c9b5 d23c 16d7 67bb 81cb 7abc 3fd8 1cbd
00000110: a8c8 143c 7a99 58bc 5a7f f03c 2503 b2ba
00000120: 4efd de3c 355f e5bc 13a9 27bd a791 c53b
00000130: c4a2 513c e143 773c e731 9b3c b88d 89bc
00000140: 5b61 453b 3b30 c1bc b2cd 8c3c 8999 e5bb
00000150: e4cd 7e3c 54a1 90bb 271f b7b9 6414 46bc
00000160: 1ce9 f73b ee7c c4b9 618a d5bc 2a1b bbbb
00000170: b116 a0bb 2f7e 373c d38b df3a 31ed 1f3c
00000180: 6a81 b33c bf18 143d 11b7 26bc 2e73 d53c
00000190: 9864 6d3b 419f 26bb f82e 4cba 5696 293c
000001a0: e753 94bb a9bc 123d d57e 89bc 41cd ad39
000001b0: ea90 2d3c 1f34 16bd 061f a6ba 7bde 9abb
000001c0: d623 adbc 59e8 14bc 9c25 a1bc 2147 d038
000001d0: 1ad0 1ebc 0f95 1e3c f80d 45bc ad40 dcbc
000001e0: fc7d 0f3a f36b 5d3c 3bcc e4b9 7d8b 0d3c
000001f0: 3b0a 423c ab06 0bbc 32e2 74bc e05e 553b
00000200: 234d d93b 6298 623c d343 aabc 116a 2bbd
00000210: 2f66 e6bc 1fe8 09bb a364 c83c 57ac 12bb
00000220: 6fa0 3ebb 2bf0 b1bc ff89 babb aecb 9fbb
00000230: f443 e43c 68c4 d2ba f205 943c 690e dc3a
00000240: 409e 8bbc 1d8d 313d d26a debb 4596 46bc
00000250: 7564 67bb 2f2f cabc 9319 2b3c 41f6 703b
00000260: 733f 82bb 5d60 a83c f267 56bb 5cea bfbb
00000270: b257 5abc 527f 53bc 07df 3ebc e59f 50bc
00000280: 22e7 93ba 8240 103c 93b3 2dbd e904 363c
00000290: d604 503b 8ac2 4cbc 1469 073d af47 1b3d
000002a0: 912d 78bc 88cc a7bb e154 79bc 43ce 863c
000002b0: 5fe6 cabb 90ca 92bb ad80 27bd 1e0a 89bc
000002c0: afd7 21bc 37ed 013d 96f6 b9b9 7178 10bb
000002d0: 9afd 8b3c 58bd 9fbc 190f 223d f0b6 dabc
000002e0: c733 67bc 9595 5abc 148b 4bbc e1b7 cb3b
000002f0: 5fb3 20bc 73a9 96bc 3977 1abd bc05 c8bc
00000300: 37fe a53b 5f75 893b 5811 843c 1f11 ce3b
00000310: 4b47 01bb ec45 c7bc 6c4f 3d3c d9a2 093c
00000320: 2211 2a3c b030 d0bc b52d 2f3c 37b9 133c
00000330: 9610 c23a d067 d8bb e063 13bc a3eb 3d3c
00000340: 2674 e1ba 9ce1 cf3b af78 6e3c 3249 113d
00000350: be0c 943c a691 4ebc b17c 213d d10f c4bb
00000360: 20ed 69bb ca58 933c 1814 48bb 252d cdbc
00000370: 16fd 58bc a9b5 f93c 4624 f2bb c4a7 3b3b
00000380: 1b85 b5bc fb50 bd3b 4bfe bc3c 8787 1e3b
00000390: a3fd 3a3c 0276 d5bc 9942 31bb c295 95bb
000003a0: 1bf3 9d3c f293 8d3a 058a bebc 387e 2cbc
000003b0: f5e7 b3bc 3682 55bc da5c a0bc bba0 ae3a
000003c0: 0f14 383c 7752 0a3d 9766 eb3b bd51 ebbb
000003d0: fd7a 5eba 6315 5f3c 33ac d2bc e897 5cbc
000003e0: d8e8 fbbb 3553 eabb 79c7 833a fc26 b8bb
000003f0: 9975 2c3c 3e67 b73b 8f47 4bbc 0fa4 01bc

action_model._continuous_distribution.mu.bias f4 [2]
4.3818854e-05 -6.80168e-05
00000000: 23ca 3738 3ea4 8eb8
