Assets/NN Models/Training_1.onnx (onnx, 96505 bytes, 7 tensors)

network_body._body_endoder.seq_layers.0.weight f4 [128, 51]
00000000: 4f1b 7d3d fe01 64bd 22fb 8abb 9150 5c3e
00000010: e5c2 4fbd 5d38 063d 2647 e73d 83f8 123e
00000020: c032 50bd 24e2 0c3d ab28 313e 52ec c43c
00000030: b717 ba3d 61c8 ab3d 6e87 ddbd 60a2 c13d
00000040: 2dee 69bd 3f1d 73bc cc3c 0cbd 4a08 5abc
00000050: 0dc2 153e c2b9 1f3d 23cf 00bf 8350 8d3e
00000060: 681c 1cbe c2dc fcbd c71e f33c 4d88 9dbe
00000070: b0c9 00bd e246 f7bd 1255 3bbe 319b 013e
00000080: 401d 03be 004f 94bc 3815 f7bd 1082 1abe
00000090: dc68 0cbe 3423 8f3e 3637 fbbd b45a 673e
000000a0: 19f0 bc3e 87ea 32bd 0fd6 beba 96a0 2dbd
000000b0: 8a08 5ebe 39f3 9b3e 9d78 40be d6e9 75bd
000000c0: 043b 29be 91b7 0b3e 109b f5bd ca8a f23d
000000d0: 413d 943d f36a cf3e 55d3 52bd 2314 5b3d
000000e0: 2b53 793d 5a69 3f3e a0d0 f9bd c887 50be
000000f0: 37ca 21be 1b2b cb3d 74cf f83d 479c 013e
00000100: f22c 0f3e 6dbc 373c d093 0b3e 72c4 b33c
00000110: b78a 263e d60e c03d 111c 2a3d 0950 07be
00000120: ef6c a2bd f6f2 53bd 10f9 153e 2c13 26bd
00000130: 7fe9 9f3d a194 053e 1cd6 123e e477 553d
00000140: d4f7 91be 92ce 4b3e cd04 933d 073c 403d
00000150: cd76 bb3d b5db 8f3e fb94 303d 3fa8 00be
00000160: e0d2 f53d 980e ea3d 1d2d 06bd 6396 80bc
00000170: f4df c2bd dfe1 ffbd 4ef3 4f3c 0a59 c0bd
00000180: 5927 633e 45c8 74be 21da 7dbe 167b 86be
00000190: 29fc 4cba d8e9 753d d610 b8bb d020 89be
000001a0: 092a 3d3d 09d2 c83d b6d6 d73d 90f6 cebc
000001b0: ca95 283e 306b 46bd 501b 133e b302 eebc
000001c0: e965 ea3d 6a00 733e 795f d3bd 3310 8a3e
000001d0: f3b3 5e3d cdbd f6bc e221 4fbe 1efc d3bd
000001e0: 546f 1c3d f971 ecbd f560 2fbd bc1c f3bd
000001f0: 3581 83bd ad56 d03c 783b 5bbd 857f 84bd
00000200: 8c05 293e 44f6 8a3d b847 9c3d 6d66 1b3e
00000210: aede 72be cc0a 9a3d 136e 4bbe cb52 393e
00000220: 331a 243d 2142 e23d 422a 423d 74a7 8a3c
00000230: c419 1dbe 1791 863e 6ce0 75bd 898c c83d
00000240: 8ceb 453e 9ab6 ad3d c212 4dbd 0159 3ebe
00000250: e179 813d fac6 06bd 2f23 cc3c bc20 32be
00000260: 1e25 1d3e 313b 5ebe f099 833e 9261 77be
00000270: 2806 0e3e 01cc 22be 6689 ed3d dd5c 9f3e
00000280: f07b 0cbe 49e4 7cbe a23e f03d 79cc e2bd
00000290: ee63 9b3d edb9 a23c 60f9 bb3d 00c8 9a3d
000002a0: 4c23 54be 79c5 863c ae09 113e 1ddd 98ba
000002b0: 6cc6 df3c 7588 e03d bb6b 693e 34ca 953e
000002c0: fbdf 51be cb9b 22bd e0de acbe 0793 163e
000002d0: be18 9dbd 2883 d83d 45fe 93bb c79d 553d
000002e0: affd 293e 10ce 50be ff3f 543d 9220 3d3d
000002f0: a746 383e 045d 4b3c 35b4 2ebe 9853 77bd
00000300: 8aa0 93bd 81ad 1abe 2f89 a63d bf03 c93d
00000310: a3e8 54bd 965a d13d f645 243d 32cf f1bd
00000320: 3e44 1cbe a04a febc c9e5 a53d ce13 34be
00000330: 6cf2 003e e143 0a3d 203f 3dbe 293e 503e
00000340: fe3f b3bc 627f 293c 7039 b23d 58d5 7f3e
00000350: 2e27 0a3e 8397 583e b46f a93d 43bf 9a3d
00000360: d875 bebe 7bb2 173e 355f 863e 17b4 8f3e
00000370: c278 63be 3ffb 81be a1a7 78bb 7270 5fbd
00000380: 4c42 8a3d c83f 04bd c4b4 38be 21f4 413c
00000390: 21f1 55bc 6987 13be 8756 793d e1e3 123e
000003a0: 1092 db3d 6f02 1f3e bfad 30be b4a7 003d
000003b0: f4d8 053e 8777 2b3e 7386 20bc fcdb 873d
000003c0: d178 a63d 18b3 03bd 5961 19be 2a5a c6bc
000003d0: 9517 fa3d 057d f4bc 95f5 9ebd 556e 6dbd
000003e0: 8330 173d 55e1 c53d c050 233e b1fc 92bc
000003f0: a0e5 2d3d 449f b5bc 289b cb3c bd6a ffbc
0.06179362 -0.055665962 -0.004241363 0.21515109 -0.050722975 0.032768596 0.11292867 0.14352612
-0.05082965 0.034395352 0.1730067 0.024038468 0.090865545 0.083878286 -0.10816847 0.09454799
-0.057111908 -0.014838516 -0.034237668 -0.01330764 0.14624806 0.03899551 -0.50316066 0.27600488
-0.15245211 -0.12346794 0.029677762 -0.30768052 -0.031442344 -0.12074067 -0.1829417 0.12656857
-0.12804127 -0.018104076 -0.12064594 -0.15088677 -0.13711876 0.27956545 -0.1226639 0.22593194
0.3690193 -0.043680694 -0.0014559644 -0.042389475 -0.21682945 0.30459002 -0.1879601 -0.060037456
-0.16526419 0.13644244 -0.119924664 0.11842878 0.07238246 0.40511283 -0.051471073 0.053486
0.06087033 0.18692532 -0.12197995 -0.20364296 -0.15799795 0.09920331 0.121489435 0.12657271
0.13981989 0.011214358 0.13630605 0.021944258 0.16263853 0.0937783 0.041530672 -0.13214125
-0.07930934 -0.051745377 0.14645791 -0.040545627 0.07808208 0.13044979 0.14339489 0.05211629
-0.2850939 0.19903019 0.0717865 0.046932247 0.09153519 0.2809731 0.04311083 -0.12564181
0.12003112 0.11428565 -0.032757867 -0.01569671 -0.09515372 -0.12494253 0.012692286 -0.09391983
0.22182979 -0.23904522 -0.24790241 -0.26265782 -0.0007819557 0.060037464 -0.0056172414 -0.26782846
0.046182666 0.09805686 0.10539 -0.025264055 0.1646339 -0.048442066 0.14365888 -0.029054021
0.11445219 0.23730627 -0.10320944 0.26965484 0.05437083 -0.030119801 -0.20227769 -0.10350822
0.03819211 -0.11545176 -0.042817075 -0.11870715 -0.06421129 0.025431955 -0.05352351 -0.06469635
0.16506022 0.06785253 0.07630867 0.15175791 -0.23717758 0.075215906 -0.19866209 0.1809799
0.040064048 0.11047769 0.04740358 0.016925551 -0.1534186 0.2628257 -0.06002848 0.0979243
0.19328135 0.08482094 -0.050066717 -0.1858864 0.06322075 -0.032904603 0.02491912 -0.173953
0.1534619 -0.21702267 0.25703382 -0.24158314 0.13869536 -0.15898134 0.11598472 0.31125537
-0.13719153 -0.24696459 0.11730696 -0.11074156 0.075874195 0.019864047 0.09178424 0.07557678
-0.2071659 0.016451584 0.14163849 -0.0011662577 0.027316295 0.10963527 0.22795002 0.2925583
-0.20495598 -0.039699357 -0.3376379 0.14704524 -0.07670735 0.10571891 -0.0045163953 0.05215242
0.16600679 -0.20391107 0.051818844 0.04617364 0.17995702 0.012412313 -0.17060931 -0.060382456
-0.07208355 -0.15105249 0.081316344 0.09815168 -0.051979672 0.10222356 0.040105782 -0.118070975
-0.15260407 -0.031041443 0.08100469 -0.1758568 0.12592477 0.03375614 -0.18481112 0.20336212
-0.0218811 0.010345312 0.087023616 0.24983728 0.13491508 0.21151547 0.08273259 0.075560115
-0.37199283 0.14814179 0.26244512 0.28067085 -0.22214034 -0.25386998 -0.0037941711 -0.054550596
0.067509264 -0.03228739 -0.18037707 0.01183799 -0.013057978 -0.14407124 0.060873535 0.14344741
0.107212186 0.15528272 -0.17253779 0.031409934 0.13071042 0.16744815 -0.00979768 0.066337556
0.08128513 -0.03215322 -0.14978541 -0.024212915 0.12211529 -0.02984477 -0.07761685 -0.05796655
0.0369115 0.09662119 0.15948772 -0.017942758 0.042455316 -0.02217067 0.024854258 -0.031178826

network_body._body_endoder.seq_layers.0.bias f4 [128]
00000000: 8c7c cb3b 8b68 a4ba 313f 053b fc21 71bb
00000010: fe97 cabb 2278 603a 66af 553b c8da 4a3b
00000020: a452 c4bb 7559 efb8 db24 9e38 1893 e0b9
00000030: d5b2 e6bb b018 3c39 e699 ba3a 5040 55b9
00000040: b857 57bb 468a 043b 5796 c539 2822 96ba
00000050: 7f3b 17ba 12fd b9b9 aa73 7bba 97c4 cabb
00000060: 76f6 003c dbc7 85bb b33c 8fbb 0260 633c
00000070: 83b9 a0ba e689 88ba 6734 9cba c3ff 0bba
00000080: ae6f c339 e991 c4ba 68ca 25b7 9190 a8bb
00000090: bf23 82ba 37d1 9aba b21b 84b9 12dc b4ba
000000a0: a861 0ebb e914 96ba bbb1 d7ba a025 4939
000000b0: f2a5 15ba 4ed5 92bb 5789 6ebb ee94 a8ba
000000c0: dc1b 1e3b 7457 ecba 55f5 edbb f400 8bba
000000d0: 331d 1aba c3b4 34ba a42c 7d3c ac37 b238
000000e0: c172 75bb 1572 eab6 bfeb 9cbb e367 9cbb
000000f0: ed93 523a 29a0 bfb5 c127 88ba ea98 b6bb
00000100: f4ff 6e39 e2dd 9839 723b 40bb f18b d138
00000110: d275 d63a a20f 3a39 2364 feba addc 75bb
00000120: e1ea cd39 138c da3a 6160 faba 659e 083b
00000130: dec4 d73b 949f 1fbb 28b5 0f3b 8eac 05b9
00000140: 40e3 0dbc 9390 0cbb 8f1a f52f f0b0 f13b
00000150: e496 d0ba aa28 63b9 d1de 40bc 5d3e 59b9
00000160: 567e b3bb 8dfe 27b9 1185 7dba 430c 04ba
00000170: 9734 b1ba f5eb 2dbb f972 0ebb b2b4 ac3a
00000180: d431 88ba 485d 1f3a 5750 0cba 31ed 97bb
00000190: f484 25b9 221d 85bb b895 40b2 4b59 cfbb
000001a0: 24c5 c6bb eced d7bb 903c 41bb 1777 22bb
000001b0: b3e5 41bb af4b 9d39 eef0 03ba b24f bbba
000001c0: 6087 a7b3 4849 4e38 fe5f 4d3a 64c0 90ba
000001d0: cfff 2ebb 8907 453b 697f 9d3c 702b 00bc
000001e0: da43 a739 6b84 ef3b 3b47 ecba 8db8 b13b
000001f0: 7349 313a e8f0 5d3a e66d fcba 36fa 663a
0.0062099155 -0.0012543363 0.0020331854 -0.0036793938 -0.0061826697 0.0008562823 0.0032605766 0.0030953158
-0.005991297 -0.00011413071 7.540892e-05 -0.00042834203 -0.0070403614 0.00017938274 0.0014236539 -0.00020337221
-0.003285868 0.002022402 0.0003768678 -0.0011454271 -0.00057690585 -0.00035474502 -0.00095921254 -0.006187986
0.007871261 -0.0040826625 -0.0043712496 0.0138778705 -0.0012262318 -0.0010417073 -0.0011917473 -0.00053405407
0.00037276506 -0.0014997098 -9.881893e-06 -0.005144187 -0.0009928866 -0.0011811618 -0.00025197637 -0.0013798496
-0.0021725688 -0.0011450324 -0.0016456166 0.0001918287 -0.00057086267 -0.0044809943 -0.003639778 -0.0012861767
0.0024125492 -0.0018031434 -0.007261912 -0.0010605142 -0.0005878985 -0.00068933907 0.015452538 8.498071e-05
-0.0037452432 -6.9870243e-06 -0.0047888453 -0.0047731264 0.0008032907 -1.4277222e-06 -0.0010387824 -0.005572428
0.00022792799 0.00029157015 -0.0029332307 9.991963e-05 0.0016362017 0.00017744166 -0.0019408505 -0.0037515566
0.00039275645 0.0016673825 -0.001910221 0.0020846364 0.0065847477 -0.002435659 0.0021928046 -0.0001274815
-0.008660138 -0.0021448478 4.4584111e-10 0.007375829 -0.001591411 -0.00021663556 -0.011771874 -0.00020717965
-0.005477707 -0.00016021189 -0.00096710125 -0.00050372275 -0.0013519701 -0.0026538346 -0.002173601 0.001317641
-0.0010390827 0.00060792686 -0.0005352548 -0.0046364297 -0.00015785155 -0.004062311 -1.1209913e-08 -0.006327783
-0.0060659815 -0.006589642 -0.002948556 -0.0024790221 -0.0029586374 0.00030001762 -0.0005033155 -0.0014290719
-7.801168e-08 4.9182476e-05 0.00078344333 -0.0011043665 -0.0026702767 0.0030064306 0.019225793 -0.007822856
0.00031903276 0.0073094866 -0.00180266 0.0054236115 0.0006762959 0.0008466379 -0.0019258827 0.0008811088

network_body._body_endoder.seq_layers.2.weight f4 [128, 128]
00000000: 86f6 9abd 9292 383d 773b 2abe 8c5c 6abd
00000010: 6e33 6f3c 7804 5dbd 1eb1 0dbd 35b4 01be
00000020: d6a7 673e 596d e33c 94bf 37bd 098a d83d
00000030: ef79 333e a599 1cbd 5d45 c43c fd06 5e3d
00000040: 9a6e fe3d 937e 5dbc 88a6 5dbb da8d 0a3e
00000050: 90d7 8f3d 1b4a 2a3d 5f75 f5bd cba2 fe3d
00000060: a97b 063e 5524 8e3b 6f83 093e ec46 463e
00000070: df67 c4bc 79a8 b93d c132 5fbc 9069 303c
00000080: 65c2 673d 01d9 963d 4034 623c 02b1 95bd
00000090: db01 0d3e 5c82 8cbd 4a84 a1bb 51f1 88bd
000000a0: 1d2e 1ebd 29a7 c0bd 5b5a a43d e0be 573d
000000b0: d10f ad3d 77ec 86bc d79c ddbd cd93 33bd
000000c0: 3860 3d3d 4646 1d3e 4fe2 783d 5948 33be
000000d0: 766d 243c 6119 9fbd 8058 3c3d 069a 7a3d
000000e0: c0e2 0fbe dd10 273e db65 443d 7e08 f5bc
000000f0: f2a1 bf3b 4658 2bbe a07b 333d 4564 4fbe
00000100: b659 2cbe cba5 793d 6e1f fe3c 34ba b6bd
00000110: 2c7d 243e 5fd5 973d 3a80 0f3b da41 86bd
00000120: c5ca 8dbd f270 493c dc51 03be 8469 883d
00000130: c36f 59bd 4c30 ceba 9b83 e13c 5c67 2b3d
00000140: 531d 41be c25e 773d e260 e83d 8e6d 27bd
00000150: c100 01be 8771 16bc 7d5f 043e 6957 bd3c
00000160: 0cc9 ba3c a90e 253e 317f 1a3d 4298 87bd
00000170: fb66 083d 48b4 79bd 0bcc dabd 9eab fcbd
00000180: d866 293d 24aa 153e f0f9 cbbc ec4d d33d
00000190: 84e0 2bbd 27a4 a9bd e974 83bd 3856 d0bc
000001a0: eb0a d8bd 8ce6 533e cf92 9ebd c15e 103e
000001b0: 16c6 e33d fe48 f43d ffd3 5abd 1301 e5bd
000001c0: a128 aabd e830 b2bd 1a8e c53d 7f20 973d
000001d0: c125 823e be0d c6bd b458 683e 3269 c83d
000001e0: 3004 793c dacd 10be 97d5 8dbc 1dc7 1ebd
000001f0: 5698 a8bd fc72 5fbe 9ffd 373d e779 fabd
00000200: 5619 7cbd 6393 4abd 14f6 5ebe dbc0 85bd
00000210: d596 e73d 3974 d6bc 56e4 a0bd 9f5b dfbc
00000220: b3e5 003e 562d 623d b86b 1b3e b53f 383d
00000230: 8cd3 41be fe16 c9bc 3a73 ac3c 1ca4 6abd
00000240: 754e c0bd 1010 ba3d 73c5 f63d 4008 b93b
00000250: 7a02 c83c 5b66 b1ba e6ad ecbd 84ba 9cbd
00000260: c742 4abe 6d8b c5bd aa67 a4bc a44b 8fbb
00000270: b348 0dbe 5566 81bd 9bce bd3d 9a8e 3ebd
00000280: cc5a 09be 208f 163d 183c ae3c 7dcc 383a
00000290: 0007 c03d d62b c2bc a1bb f63b c6e2 8c3d
000002a0: dada a53c b4f0 663c 3133 5a3d d128 5fbb
000002b0: e24d e1bb 58f8 7bbd a09d 363d d113 34bd
000002c0: 4330 c8bc 5de6 273c b1aa ba3b 5432 363e
000002d0: 0a89 5d3c dd7f f5bd 071d 263b c41f 81bb
000002e0: 48ba 7c3d bc46 ccbd 440c c9bc 1dc5 05bc
000002f0: b4e9 5abd c262 363c e906 0a3e 78da 403c
00000300: 86c9 3abe 6ea9 813c ff29 f8bc 7e08 abbc
00000310: c492 b43d cd38 7e3c 9714 2cbd 7987 f6bc
00000320: eeb1 d73a 147f 293d dfc6 973c 4602 1a3c
00000330: 74ea 68bd ec23 1a3d e757 0dbc d624 803d
00000340: ca32 9a3d 8716 aebd a7b6 6bbc 01b5 193e
00000350: c64a 11bd f39b c03c 1d2c 813d 92d5 2dbd
00000360: d6f3 a13e 8ecd edbd 0584 983b d328 fa3c
00000370: 25ff 86be 5337 c73c 869a 95bd eb30 01bc
00000380: 0a13 983d 9aff 5dbd e7ed 9fbc f7a1 e73d
00000390: b035 1f3e 3a50 72bd 82b0 fabc bc3f bd3d
000003a0: 45d1 8ebd 9468 a6bb 1c85 87bd 9ef5 3d3d
000003b0: 8dac 34be 3a3c a3bd 291e 6e3d aab1 22bd
000003c0: 84a5 bb3d 07d2 89bd c046 dfbc d926 b1bb
000003d0: e36f 02be da32 3abd 4f53 993c bf26 dbbd
000003e0: 5a37 c3bd 9335 bebd e64a 383b 0cf5 04bd
000003f0: c061 8cbd fe0d 83bd 28ec 993d cca0 713b
-0.07566552 0.045061655 -0.16624247 -0.057217166 0.014599664 -0.05395934 -0.03459274 -0.126664
0.22622618 0.027762102 -0.044860438 0.10573203 0.17526983 -0.038232464 0.023958856 0.054205883
0.12423439 -0.013518947 -0.0033821184 0.13530675 0.07023537 0.04157458 -0.119852774 0.12433394
0.1313311 0.004337827 0.13429044 0.19362992 -0.02397531 0.09065337 -0.0136229405 0.010767356
0.056581873 0.07365609 0.013806403 -0.07309152 0.13770239 -0.068608016 -0.0049291 -0.066866525
-0.038618196 -0.09406883 0.080250464 0.052672267 0.08450282 -0.016470177 -0.108209305 -0.043842126
0.04623434 0.15358838 0.0607627 -0.17508067 0.010035863 -0.077685125 0.045982838 0.061182044
-0.14051342 0.16315027 0.0479487 -0.029911276 0.005848163 -0.16732892 0.04381907 -0.20253094
-0.16831097 0.060949128 0.031020846 -0.08922234 0.16063374 0.07413744 0.0021896497 -0.06555529
-0.06923441 0.012294995 -0.12824196 0.066607505 -0.0530851 -0.0015730946 0.027528575 0.041846618
-0.18858843 0.060393102 0.11346604 -0.040875964 -0.12597944 -0.00918234 0.12927051 0.02311297
0.022800945 0.16118874 0.037718955 -0.06620838 0.033301335 -0.060962945 -0.10683449 -0.12337421
0.041357845 0.14615685 -0.024899453 0.10317597 -0.04196216 -0.08283263 -0.06418783 -0.025431737
-0.105489574 0.20693415 -0.07742845 0.14098646 0.11121766 0.11927985 -0.05342483 -0.111818455
-0.083085306 -0.087007344 0.09646244 0.07379245 0.2541943 -0.0967059 0.22690088 0.097856894
0.015198752 -0.14141026 -0.017313762 -0.038764108 -0.08232181 -0.21821207 0.044919606 -0.12230282
-0.0615476 -0.049456965 -0.21773559 -0.06530925 0.11308066 -0.026178466 -0.078560516 -0.027265368
0.12587623 0.055219017 0.1517781 0.04498263 -0.18928355 -0.024547096 0.021051038 -0.057285413
-0.093899645 0.09085095 0.12049379 0.0056467354 0.024415243 -0.0013534533 -0.11556606 -0.076527625
-0.19752036 -0.09645734 -0.020068962 -0.0043730307 -0.13797264 -0.063183464 0.092679225 -0.046522714
-0.13413543 0.03675759 0.02126889 0.0007049514 0.09376335 -0.023702543 0.0075296913 0.06879191
0.020245958 0.014095474 0.053271476 -0.0034051428 -0.0068757394 -0.061516136 0.044583917 -0.04396421
-0.024437075 0.010247794 0.0056966175 0.17792636 0.013521442 -0.119872786 0.0025346891 -0.0039405543
0.06170109 -0.09974429 -0.024541982 -0.008164671 -0.053445533 0.011131944 0.13479199 0.011770837
-0.18240938 0.01582786 -0.030293463 -0.020878073 0.08817056 0.015516472 -0.042011824 -0.030093895
0.0016456225 0.041380957 0.018527446 0.009399956 -0.056864217 0.037631914 -0.008626915 0.06257026
0.075292185 -0.085003905 -0.014386809 0.15010454 -0.0354717 0.023511862 0.06307242 -0.042440005
0.31631345 -0.11611472 0.00465441 0.030537045 -0.26366535 0.024318373 -0.07304864 -0.007885198
0.074255064 -0.05419884 -0.01952262 0.11310189 0.15547824 -0.05915854 -0.030601744 0.09240672
-0.06973509 -0.0050783847 -0.066171855 0.046376817 -0.17643948 -0.07970472 0.05813423 -0.039720215
0.09162429 -0.06729513 -0.027255416 -0.0054062423 -0.12737994 -0.045458652 0.018716482 -0.107007496
-0.09532042 -0.09287562 0.0028120815 -0.032460257 -0.06854582 -0.06399153 0.07515746 0.0036869524

network_body._body_endoder.seq_layers.2.bias f4 [128]
00000000: 5b9a 9739 f1b4 edb9 003f c639 cfd9 42bb
00000010: d8e9 59bb 2f98 803a dfc7 02bb e791 d4ba
00000020: b4cd 6bba d716 adba 07ba 25bb 60f4 5c3a
00000030: 6384 2aba f4f0 06bb 2c97 b6ba 1f4e 2dba
00000040: 3eb2 6b3b f525 623b 8b9e dabb bafb 6e39
00000050: 8487 c1ba 15a3 d1ba e23c 8539 ba91 aa3b
00000060: ef66 8cba c50c 4d3a 303e 27ba e575 47b9
00000070: 500f c63a 3d91 21bb b5fa 53bb b4c7 e5ba
00000080: f6bc 513b e883 3dbb 9d12 b0ba 0542 17bb
00000090: 42fa cbb9 6e8f 83bb a0a1 f5ba 8242 c639
000000a0: 250c 2c39 e45a f039 8a6d 333a 2e6f 0dbb
000000b0: d3e0 903b f6cd 03bb 8c94 7aba c5f0 e4ba
000000c0: c862 0b3b 87ba 45bb a755 0bba d013 36bb
000000d0: 62c6 f83a 462f 2a3b d03c bd3a 78d1 0b39
000000e0: 3ae7 27ba 6c86 3b3a 310e f0ba e5dc ec38
000000f0: 351c 87bb 5629 f13a 8140 41b9 5a93 bdb9
00000100: 181d d939 ebba 07b9 36ea 313b 98fb c2ba
00000110: 6e77 113a 57f0 ceba 6fec 24ba 28fd 7eb8
00000120: 1c07 043a 73f2 1eb7 a1f7 98ba c728 9d3b
00000130: 4d4b a0ba 831f a23a 82f8 d23a 35dd aab9
00000140: ecae d3ba a6ab 843a 6ab2 4dbb 1194 373a
00000150: 5a10 05bb 309e e6ba 5e24 973a f995 f2b9
00000160: ccbd b73b 7d2a d4ba e710 fbb9 50e4 d9ba
00000170: d25c 0639 bd93 f0ba 10c8 6fba b677 163a
00000180: a1b3 62bb b0f1 8fba ddd9 d83b 0101 9cba
00000190: 9ed0 17bb 1828 5039 c5bf b1ba 6866 983a
000001a0: a9ff 85ba 436b 0bbb b249 1f3a 5381 e7ba
000001b0: fdb1 f939 43a9 0dbb a0ef 92b6 28fa a1ba
000001c0: 3a07 4bba 1830 f7ba b219 833a 86d1 d8ba
000001d0: d615 673a 17a3 3fbb 3181 86bb 9a82 19bb
000001e0: 5fbc ed39 913a b8ba fb6e 0abb 31ef 3e3b
000001f0: 823f 6537 fba5 e1ba 6dc1 f039 d990 66bb
0.00028915968 -0.00045338974 0.00037812442 -0.0029731875 -0.0033250954 0.0009810979 -0.0019955558 -0.0016217799
-0.0008995191 -0.0013205659 -0.0025287883 0.00084287487 -0.00065047125 -0.0020590397 -0.0013930551 -0.0006611067
0.0035964395 0.0034507487 -0.006671732 0.00022791224 -0.0014765118 -0.0015994037 0.00025413098 0.0052053602
-0.0010711829 0.0007822032 -0.0006379811 -0.00019022038 0.0015110765 -0.002465322 -0.0032345478 -0.001753083
0.0032003499 -0.0028917734 -0.0013433282 -0.0023080122 -0.00038905634 -0.004014901 -0.0018740185 0.00037815055
0.00016407722 0.00045844086 0.00068446307 -0.002158116 0.0044213324 -0.0020111776 -0.00095588784 -0.0017466774
0.0021268595 -0.0030170993 -0.00053151924 -0.0027782805 0.0018980021 0.0025968119 0.0014437679 0.00013334106
-0.0006405 0.00071535143 -0.0018314776 0.00011294502 -0.0041232356 0.001839916 -0.00018429944 -0.00036158675
0.00041411142 -0.00012944236 0.0027147657 -0.0014876006 0.00055491074 -0.001578818 -0.0006291335 -6.079409e-05
0.000503646 -9.4739835e-06 -0.0011670479 0.004796121 -0.0012229473 0.001236901 0.001609579 -0.0003258974
-0.0016150153 0.0010121956 -0.003138686 0.00070029596 -0.0020303936 -0.0017594751 0.0011531224 -0.00046269575
0.0056073423 -0.0016186979 -0.00047887044 -0.0016623829 0.00012813814 -0.0018354576 -0.0009146938 0.0005739884
-0.003459193 -0.0010982063 0.006617768 -0.0011902155 -0.0023165117 0.00019851362 -0.001356118 0.0011627199
-0.0010223287 -0.002127365 0.000607635 -0.0017662443 0.00047625593 -0.002161578 -4.379035e-06 -0.0012357878
-0.0007744912 -0.0018858938 0.0010002165 -0.0016541935 0.00088152045 -0.0029241496 -0.0041047563 -0.0023423792
0.0004534451 -0.001405554 -0.0021123278 0.0029134268 1.366425e-05 -0.0017215604 0.0004592048 -0.003518155

action_model._continuous_distribution.log_sigma f4 [1, 2]
00000000: 4236 f3bc 860d a5bc
-0.029688958 -0.02014805

action_model._continuous_distribution.mu.weight f4 [2, 128]
00000000: 632e 5c3c f08a 97bc b067 b33a 4e18 90bc
00000010: 0e31 79bc 96c6 72bc 3025 39bc 2a10 46bc
00000020: bc04 a53c 8690 843c 2634 edbc 713f 473b
00000030: 8553 eb3c bd95 393c bb32 02bc ac04 f6bb
00000040: 0dfb a23c 6a43 b7bb 4201 b53a dae9 f3bc
00000050: e0bc 6e3c f7a0 9c3c 3e3e 0fbd 669a 92bc
00000060: 28e8 fd3b 7b3a f1bb 0abf 99bb 0aad 1d3d
00000070: 1889 7fbc 262c 123b 8724 5c3b ba1e 9d3c
00000080: 1fff 723c 3451 cd3c 12a2 143c 258d dfbc
00000090: 03b3 e1bc f7a1 f0bc d42f 833c 66be 603c
000000a0: 88f5 f8bb ae24 19bc 19df 9c3c d903 fbbc
000000b0: 6931 a6bb b9a3 733c 3a20 9d3c 322b 92bb
000000c0: 4e70 dbbc 56e8 e23b bc2e 1c3c a6fe 63bc
000000d0: c662 0fbc 81bb b2bc 73bd 943b 87ce 413c
000000e0: 6c62 3d3d b220 9b3c bbcc 103c 9f04 923c
000000f0: b998 2abb 079a fdbb 3f96 8bbc b472 fa3c
00000100: bb6c c73b fb2f 9c3b e2ef db3b 94ce 273d
00000110: 2024 8fbc 7bb3 34bb f727 65bc 88b5 3f3c
00000120: 257c 073c 8dca 013b a185 193b 2e77 ca3b
00000130: ee83 aabc 818c 183c a373 323d 1895 6abc
00000140: 9eb5 293d 295a 8cbc 872a e63a 6b0b 96bc
00000150: 53d0 a23c 2e4f 80bc 50b0 aebc 2cc9 9cbc
00000160: ae4b ee3c a7aa 3cba 6f18 68bc e274 fbbb
00000170: 3695 2c3c 19cd 5eb9 1eb9 543a 5862 0fbc
00000180: a139 9f3b 2d0f 8e3c b88c 733c 8cd0 2dbc
00000190: 848e 3aba f035 21bc 91e3 ebbb 5227 adbc
000001a0: a6a8 dc3b 3dc4 42b9 f6a7 acbc 063c cdb8
000001b0: c711 bd3c eeed 4cbc d08e bfbc 1984 c83c
000001c0: 6fdb 2d3c e778 f9bc 3079 93bc 286c 4d3d
000001d0: 034a 70bc 9ad9 2e3c 61fb 693c 2c80 283d
000001e0: f45d 09bd 0324 a83c 08ee b73b c34d 883c
000001f0: 30ef 91bb 06c8 8d3b a112 773a 598d 99bb
00000200: 1b03 9a3b 59a0 cc3c d1ba 49bc d91e 9f3c
00000210: ac6c 393c bdd8 04bd 5b9a 123c bde8 103d
00000220: 2cd8 a03c 6602 53bb 0e22 f23c a951 793c
00000230: f3e3 a9bc 2309 0c3c ed32 343c b47f 6d3c
00000240: 3e21 b53c 4b6e 4f3c 044f 9eb9 41a1 9a3c
00000250: d088 80ba f197 7fbc fb7a 903c 8ca4 723d
00000260: cd5c c63c 82ef eebc 7f4c 84bc ca92 c5bc
00000270: 40fa adbc 925c d0bc b4b1 cc3c 16dd 4e3c
00000280: 8048 6e3c 1983 2c3b 833b ba3b 4e7e bdbc
00000290: d3a1 633c dee9 7ebc 74fb d23b 5881 01bd
000002a0: db42 3abc e0bc d8bb 195a 453c cc82 3abc
000002b0: fc31 6abc 5db4 b53b 56dd a9bb 7d9d d73b
000002c0: 80fe cabb d8a3 b33c f19b f4bb 1a62 76bc
000002d0: a13b aeb9 05ab feba edc1 813c 3c58 aebc
000002e0: f835 b03b e1c8 c03a 57f5 8e3c b143 97bc
000002f0: 1620 f6bb 62ed d63c c9f5 8db9 0fe6 c23c
00000300: 094f d2bc f341 e0bc e755 1b3d d336 8f3b
00000310: f07a 74bc 5167 213c 5f31 ef3a 80d2 85bc
00000320: 3fc5 fabc 51d5 2a3c 93e2 e03c 904b bd3b
00000330: 4c2b 29bc 8bf6 ea3c 0794 473c 3278 72bc
00000340: 4cd4 763b afe9 3fbc e59e 563c c917 a1bc
00000350: e86e 38bc 59ea ed3c 5887 2abc 29d9 f73b
00000360: ee78 be3c 5b9d bb3b d792 013b 7a99 ff3a
00000370: 11b6 29bc d54d 1abd 2b52 ccbb 5af5 72bc
00000380: 485d 513c 8a9f e03c 3f89 163c 5013 4e3c
00000390: 7428 73bb 6631 2fbc 4105 99ba 68a8 823c
000003a0: e24b 25ba d6a4 b7ba 9388 23bc 9dfa cdb9
000003b0: e814 fbbb 0d85 283b 11f5 56bc 8c5d fb3c
000003c0: 4803 04bc 2456 33bc 48f4 0bbd 3fe4 1b3c
000003d0: 18ef fbbc f7d5 f9ba e254 b2bb ede4 e43a
000003e0: 2a1f 23bc cea9 d53b 8b4d 433c 1e2d 43bb
000003f0: a965 1abc 543c 6f3c 0b10 a7bc abde fb3b
0.013438794 -0.018498868 0.0013687517 -0.017589714 -0.015209449 -0.014817854 -0.01130037 -0.012088815
0.02014386 0.016182195 -0.02895553 0.0030402804 0.028726349 0.011327204 -0.007946665 -0.007507881
0.019895101 -0.005592753 0.0013809579 -0.029774595 0.0145713985 0.019119723 -0.03497147 -0.017895889
0.0077486224 -0.0073617077 -0.004691963 0.0384951 -0.015596651 0.0022304147 0.0033591108 0.01917969
0.014831333 0.025063135 0.009071844 -0.027288983 -0.02755118 -0.029374106 0.016014017 0.0137172695
-0.007597629 -0.009347124 0.01914935 -0.030641483 -0.005071808 0.0148705775 0.019180406 -0.0044607157
-0.02678695 0.0069246693 0.009532627 -0.013915693 -0.008751577 -0.021817924 0.0045391857 0.011829025
0.04623644 0.018936489 0.008837874 0.01782447 -0.0026030971 -0.0077393088 -0.017039416 0.030572273
0.0060859597 0.004766462 0.006711946 0.040968493 -0.01747328 -0.00275728 -0.013986579 0.011700995
0.008269344 0.0019804568 0.0023425596 0.006178758 -0.020814862 0.0093108425 0.04356731 -0.014317773
0.04143297 -0.017132835 0.0017560282 -0.018315991 0.019874727 -0.015662756 -0.021324307 -0.019138895
0.029088821 -0.000719706 -0.014165982 -0.0076738456 0.010533622 -0.00021247975 0.0008114743 -0.008751474
0.004859165 0.01734122 0.014865093 -0.0106088035 -0.00071165734 -0.00983952 -0.007198759 -0.021136913
0.0067339716 -0.00018574386 -0.021076184 -9.786342e-05 0.023079766 -0.012507899 -0.023383528 0.024477052
0.010611399 -0.030453159 -0.018002123 0.050151974 -0.014666083 0.010671997 0.014281125 0.04113786
-0.033536866 0.020524984 0.0056130923 0.016638642 -0.004453562 0.004326823 0.0009425078 -0.0046860394
0.004700077 0.024978803 -0.012312607 0.019423889 0.011317413 -0.03243326 0.008947934 0.035378207
0.019634329 -0.0032197475 0.029557254 0.015217223 -0.020738577 0.0085471 0.01099847 0.014495779
0.022110578 0.012660573 -0.0003019498 0.01887572 -0.0009806398 -0.0156001905 0.017636767 0.059238955
0.024214173 -0.02916694 -0.016149757 -0.024117846 -0.021237493 -0.025434766 0.02498708 0.012625953
0.014543653 0.0026323257 0.005683364 -0.023131516 0.013893562 -0.015558688 0.006438667 -0.031617492
-0.011368479 -0.0066143125 0.012045407 -0.0113837235 -0.014294144 0.0055451826 -0.005183856 0.0065800534
-0.0061948895 0.021928713 -0.0074648787 -0.015038038 -0.00033232293 -0.001942963 0.015839541 -0.021282308
0.0053775273 0.0014708304 0.017450972 -0.018464895 -0.007511149 0.02623624 -0.0002707674 0.023791341
-0.025672453 -0.027375197 0.03792372 0.004370549 -0.014921889 0.009851293 0.0018248967 -0.016335726
-0.030611632 0.010426835 0.027451789 0.00577683 -0.010325264 0.028682014 0.012181289 -0.014799165
0.003766316 -0.011713429 0.013099407 -0.019664662 -0.011256911 0.02904241 -0.010408245 0.0075637293
0.023251023 0.0057255453 0.0019771361 0.0019500696 -0.010358349 -0.037671883 -0.006235381 -0.014829004
0.012778588 0.027419824 0.009187995 0.012577847 -0.003710297 -0.01069293 -0.001167454 0.015949443
-0.0006305558 -0.0014010917 -0.009981292 -0.00039287368 -0.0076624043 0.002571407 -0.013119952 0.030684255
-0.008057423 -0.0109458305 -0.03416851 0.009514867 -0.030753657 -0.0019060959 -0.0054422477 0.0017463245
-0.009956161 0.0065204864 0.011920343 -0.002978153 -0.009423652 0.014601786 -0.020393392 0.007686456

action_model._continuous_distribution.mu.bias f4 [2]
00000000: 655e 18ba d7fc 8bba
-0.0005812406 -0.001068021
